results/64_128_64_0_True_True/checkpoint.pth (torch_old, 78927 bytes, 9 tensors)

hidden_layers.0.weight f4 [64, 37]
000000 bb b0 2f 3e ce e1 b9 bc 51 87 a4 be 8f e6 cc bd
       0.17157261 -0.02269068 -0.32134488 -0.10004913
000010 5f 7f 75 be 10 e9 eb bb 18 da ac bc 09 49 9f 3e
       -0.2397437 -0.007199414 -0.021100089 0.3111041
000020 2f 92 4f bd 92 9d 42 3e aa 3e 8f bd 4e d3 ad bd
       -0.05067652 0.19005421 -0.06994374 -0.08487569
000030 50 2a e8 bd 27 e9 7b bd 53 93 87 be 97 2b 27 bd
       -0.113361955 -0.06150165 -0.26479587 -0.040813055
000040 64 4b 74 3e 3e ba 5d 3d a8 0a 63 be f6 ec c9 bd
       0.23856884 0.054132693 -0.22172034 -0.0985965
000050 f0 7d 2f 3d 20 75 5a 3e 7d 9f bb bd 8b c6 46 3e
       0.042844713 0.21333742 -0.09161279 0.19411676
000060 27 d0 e1 3d b0 f5 3c 3d 44 3a 97 3e 99 76 a6 be
       0.1102603 0.046132743 0.2953664 -0.32512358
000070 e2 b9 3a be ea 5d 50 be 0d 68 c4 bc bd 38 14 3d
       -0.18234971 -0.20348325 -0.023975397 0.036186922
000080 24 36 0e bd 15 b7 11 be f2 c4 c5 bd e1 b4 56 be
       -0.0347196 -0.14229997 -0.09656705 -0.20967437
000090 b4 5a 31 bd 10 6d 22 3e 84 19 ae bc 90 e1 f7 3c
       -0.043299392 0.15861917 -0.021252401 0.030258924
0000a0 61 bd 49 bd 11 a9 99 3d c8 24 d4 bc af 95 b4 be
       -0.04925287 0.0750295 -0.025896445 -0.3527045
0000b0 06 3a 09 be fd 39 df 3d 52 f0 62 3f ff 6e 6e 3d
       -0.1340104 0.10899732 0.8864795 0.058211323
0000c0 13 91 7a be df 73 bb bb ed e8 70 3d af d9 d1 3d
       -0.24469404 -0.0057206 0.058815885 0.10246598
0000d0 c0 ab b0 3d d5 6c 15 bc ed 7d ae 3c 44 94 96 be
       0.08626509 -0.009120186 0.02130028 -0.29409993
0000e0 67 0f 96 bc 78 3e 42 bd b3 c4 9c be 93 4b ce bd
       -0.018317891 -0.047422856 -0.3061882 -0.100730084
0000f0 15 a9 36 be 23 89 b7 3d b6 d5 e7 bd 48 da 1c 3d
       -0.17837937 0.08961704 -0.11320059 0.038294107
000100 00 16 80 3d d3 0e 92 be 3b ba 43 be f6 c7 96 3d
       0.06254196 -0.28526935 -0.1911401 0.07362358
000110 b9 ff 8e bd ea 4e 9b 3d 26 17 60 be 5d 97 a5 3c
       -0.06982369 0.07583411 -0.2188383 0.020213777
000120 c3 44 d4 bc 7c 87 7a 3d 82 30 4d 3e e7 38 9c bd
       -0.025911694 0.061164364 0.20038036 -0.07628041
000130 51 bc 7e 3d 11 e7 42 be 38 61 a6 bd 22 03 96 be
       0.06219131 -0.19033457 -0.08124012 -0.29299265
000140 fb 84 32 be 32 10 0b 3e 8e f6 4f 3e b7 34 82 be
       -0.1743354 0.13580397 0.20308897 -0.25430843
000150 f0 63 f8 bd 0e 4e 36 bd e0 c4 15 38 3a 63 f2 bb
       -0.121284366 -0.044508033 3.5707722e-05 -0.0073970826
000160 52 81 92 3d f5 e0 d8 be d5 6c 27 3e f4 6e d0 bd
       0.07153572 -0.4235913 0.1635011 -0.10177413
000170 c9 ec 99 3e c7 c9 67 3e 44 ba 8b be e6 13 65 bd
       0.30063465 0.22635566 -0.27290547 -0.05592718
000180 a5 54 c8 3d a2 2f b4 3d 66 f1 2b be 5b 35 60 be
       0.0978177 0.08798148 -0.16791305 -0.21895353
000190 e0 07 f3 3d 1c 3f 80 3e 7b 91 7a be 9f 78 a2 3d
       0.118667364 0.2504815 -0.24469559 0.07933163
0001a0 65 49 a4 be 67 3b 7e 3d 2a 9b 74 bd 71 91 d1 be
       -0.32087246 0.06206837 -0.05971829 -0.40931275
0001b0 2a 94 fe 3d 19 be 7d bc 65 f6 59 bd b6 6d 09 3e
       0.12430604 -0.015487217 -0.053213496 0.13420758
0001c0 5b 0d 6c be fe 98 83 3e 53 75 01 3e 37 97 d2 bd
       -0.2305197 0.2570266 0.12642412 -0.10282748
0001d0 fe c4 2d be 5c ca c5 3c f0 4c 32 3e 33 1b c2 3d
       -0.16969678 0.024144344 0.17412162 0.09477844
0001e0 f6 55 5e 3e f7 d6 7f 3e 6b 5f 2d be 1f a1 db 3d
       0.21712479 0.24984346 -0.1693093 0.10724091
0001f0 cd 6a 2f be ac 39 b7 be ca 4d 96 bb d7 c5 80 bd
       -0.17130585 -0.35786188 -0.00458691 -0.06287735
000200 d1 a8 2a be b3 fe 8f bc e6 4d fa bd 18 58 e3 3d
       -0.16665961 -0.017577505 -0.12221889 0.11100787
000210 71 d9 54 bc 65 86 f9 bd 4e 17 3a 3e f9 60 91 be
       -0.012991295 -0.12183837 0.18172953 -0.28394297
000220 9d 43 5d 3d 58 74 b4 bd dd 04 86 bd f2 a8 54 3e
       0.05401956 -0.08811253 -0.06543896 0.20767573
000230 2f 3a 89 3e af 2d e8 3c d7 58 23 3e b0 67 34 3d
       0.26802203 0.028342096 0.15951858 0.044044197
000240 e8 6c 7b b9 fb d2 cb 3c ce bd 05 3e 83 9c 67 3b
       -0.00023977796 0.024880877 0.13060686 0.003534109
000250 30 5c d5 bc a8 5a 32 3d 46 85 6a be 9f ed 2c be
       -0.026044935 0.043543488 -0.22902402 -0.1688752
000260 f8 22 99 3d 34 55 8c 3e 79 1c b9 be d4 be ca be
       0.07477373 0.27408755 -0.36154535 -0.39598715
000270 0b 68 1a bd c4 4f 86 bf a3 38 65 bd af d6 1d bd
       -0.03769688 -1.0493093 -0.055962216 -0.038534816
000280 a4 ae e8 3d ae 7b 2d be f9 7a 13 be dc 18 fb bd
       0.11361435 -0.16941711 -0.14402379 -0.12260601
000290 ce 90 52 bc 47 56 0f bc 42 b3 93 3d bf 6e 14 3e
       -0.012851907 -0.008748597 0.07211925 0.14495371
0002a0 74 46 15 be 59 f7 a9 bd c5 75 6c 3e 57 e8 45 3d
       -0.14577657 -0.08299131 0.230918 0.04831728
0002b0 e3 04 b3 3e 5f f1 33 3e f3 09 00 be a3 d6 ec bc
       0.34964666 0.17572545 -0.12503795 -0.02891094
0002c0 9a 84 b5 bb d1 d9 60 3d c4 a6 03 3e b5 29 e7 bd
       -0.005539489 0.054895226 0.12856585 -0.11287252
0002d0 c0 40 99 3d ba 0f a0 3d 86 d4 a2 3e 50 b6 23 bc
       0.07483053 0.078154996 0.31802768 -0.009992197
0002e0 52 0f 10 3c f7 a7 d6 bc aa a1 27 be 9b 9c 0b 3d
       0.008792715 -0.026203139 -0.16370264 0.034084897
0002f0 fe bb b4 bd 45 30 38 3d 47 0f 2f 3e 91 fb 02 bf
       -0.08824919 0.04496791 0.17095672 -0.5116511
000300 8d c1 a3 bd fa a2 22 be 86 c3 85 bf 36 aa 54 bd
       -0.07995901 -0.15882483 -1.0450294 -0.05192014
000310 c4 35 79 be 42 62 1b 3c 9e de f2 bd aa dc 58 bd
       -0.24336916 0.009483876 -0.11858867 -0.052944817
000320 4b 6b 10 bd 37 90 70 3b ec 72 95 bd 92 f4 b6 bc
       -0.035258573 0.0036707052 -0.0729731 -0.022333417
000330 46 fe 7f be 6b 4b 35 3d cb c6 18 be a0 ea 71 3e
       -0.24999341 0.044261377 -0.14919583 0.23624659
000340 4c e3 0d be ea 46 60 bd 61 a8 38 3d e1 50 e1 bc
       -0.13856238 -0.05475513 0.045082454 -0.027504386
000350 ee bb 85 bc 0f 99 a8 be 7c 3c ad be f8 21 17 3d
       -0.016324963 -0.32929274 -0.33835208 0.03689763
000360 42 9b a5 be 5b 36 8e bc 0e eb 8c bc 33 e8 86 be
       -0.32345015 -0.017359903 -0.017201927 -0.2634903
000370 af a6 92 3d 39 07 56 3d 62 70 2b 3e 17 d9 69 bc
       0.071606986 0.05225298 0.1674209 -0.01427295
000380 fd 62 c4 be 3e 20 14 3e 38 62 98 be 8e 96 d6 bd
       -0.38356772 0.14465424 -0.29762435 -0.10477935
000390 f3 e8 8c bd 8a 7c 57 bd c8 54 d4 3d 33 94 91 3d
       -0.06880369 -0.052609004 0.10367733 0.07108345
0003a0 2e f5 34 3e d2 3a 5b 3e 00 50 3a bd cb 59 5a be
       0.17671654 0.21409157 -0.04548645 -0.21323316
0003b0 a0 cf 87 3e 99 75 4c 3d 61 b9 8d be 02 4b 9b 3d
       0.26525593 0.049916837 -0.27680495 0.07582666
0003c0 75 a7 60 bd bc 5b 46 3c 07 76 9d bd 55 eb a6 3d
       -0.0548472 0.012106832 -0.076885276 0.08150355
0003d0 1d e1 4f 3e ca 68 ca be 0b a3 83 3e 27 de 46 ba
       0.20300718 -0.39533073 0.2571033 -0.0007586204
0003e0 32 46 09 3d a0 62 e4 bd e8 94 6e be d4 5a 9e be
       0.03351421 -0.11151624 -0.2329899 -0.3092867
0003f0 cb e9 64 3e d1 bc b2 bd 04 57 4a be b8 60 04 bd
       0.2235481 -0.0872742 -0.19759756 -0.0323188

hidden_layers.0.bias f4 [64]
000000 ba 4a 0b 3e 35 37 c7 bd 8a c7 fb bd 57 74 aa bd
       0.13602725 -0.09727327 -0.122939184 -0.08322971
000010 ff 26 4c 3e 55 b8 40 bd 9a 60 a3 bd 4e 0e 00 3d
       0.19936751 -0.047050793 -0.0797741 0.031263642
000020 7f c5 8d 3c 10 43 15 be 0b c4 f0 3d 21 bf e7 3d
       0.017306088 -0.14576364 0.11756142 0.11315752
000030 cc ba 17 3e 23 4e 04 3c 83 3c 82 bc 62 03 1b be
       0.14817351 0.00807527 -0.015897995 -0.15138009
000040 43 e7 1e 3d 59 2e f4 3c 86 db fa bc 70 4a 40 be
       0.038794767 0.029807257 -0.030622255 -0.18778396
000050 cb 50 ba bd fa ec a1 3d 7d 6d 9a bc 29 fd fd bd
       -0.09097441 0.07906528 -0.018851036 -0.12401802
000060 63 12 c8 bd 9c d7 1c 3e e0 a1 84 3d 4b cd c2 bc
       -0.09769132 0.15316623 0.06476188 -0.023779532
000070 e1 82 eb 3d f0 bc 0f 3e a4 eb dc 3b 8c 4e 19 be
       0.114995725 0.14036918 0.0067419577 -0.1497137
000080 49 79 17 3e fd 7d 66 bd 51 68 1f be af df 52 3d
       0.1479236 -0.056272496 -0.15567137 0.051482853
000090 84 f5 91 bd bb 79 95 3d a5 af f3 bd 6e 5e 1e be
       -0.071269065 0.07298609 -0.11898736 -0.1546571
0000a0 42 04 92 bd 18 04 89 3d 54 33 96 bd d7 f7 06 3e
       -0.07129718 0.06690234 -0.07334009 0.13180481
0000b0 92 fd ff 39 af ca dd bd 3e df 3e bd c8 c6 5c be
       0.00048826315 -0.108296745 -0.04659962 -0.21560204
0000c0 39 d7 16 bd 3c c7 1d 3d 88 79 09 be b1 ee fc 3d
       -0.036826346 0.038520083 -0.13425267 0.12350214
0000d0 a0 81 2b bd dc 98 1b be e0 ce 2f be 2b f7 a2 bb
       -0.041871667 -0.1519503 -0.1716876 -0.0049733124
0000e0 98 2e ac 3d 2c 0e 46 bd 90 d1 13 bd 98 e6 02 be
       0.084073246 -0.04835336 -0.036088526 -0.12783277
0000f0 cc 54 50 3d ed cc 00 3d 54 57 64 3d 4b 01 21 3d
       0.05086212 0.031445432 0.055747345 0.039307874

hidden_layers.1.weight f4 [128, 64]
000000 13 a7 f7 bc 68 25 cf bc d4 1f 10 3e 7a 6d 12 3e
       -0.030231034 -0.025286391 0.14074641 0.14299574
000010 f7 12 e4 bd a0 dc ec bd ca d9 c7 bd a3 db 26 be
       -0.1113643 -0.115655184 -0.09758337 -0.16294722
000020 52 78 41 bc 79 7c 5c 3d 96 55 a5 bd 53 ca dd bc
       -0.011808472 0.053829644 -0.08072965 -0.027074015
000030 ea 9a e1 bd 0d 61 4a 3e 6c 19 53 be 9e b4 f2 bc
       -0.11015876 0.19763584 -0.20615166 -0.02962714
000040 98 8b be bd 3b 73 95 be ad d6 24 3d 96 49 da 3d
       -0.09303969 -0.29189476 0.040243793 0.10658567
000050 89 77 8c bd 95 9a 17 be d0 bd f3 3d 10 6e 1b bb
       -0.06858737 -0.14805062 0.11901438 -0.0023716725
000060 1a 0a 99 be cb 58 56 bd 9f 9e 75 3d 1b 3c dd be
       -0.2989052 -0.052330773 0.059965726 -0.4320992
000070 a7 b6 f6 3d f9 fe 9b be 60 3d 66 bd db 95 53 3d
       0.12046557 -0.30467966 -0.056210876 0.051656585
000080 b4 62 23 3e 83 94 05 3d b9 2d ba bd 43 10 43 bd
       0.15955621 0.032612335 -0.09090752 -0.04762293
000090 a1 93 d1 3d 5a b8 bd bd e3 11 9e 3d 5c d0 86 3c
       0.10233236 -0.09263678 0.07718255 0.016456775
0000a0 4d 65 9e be bf b2 5d be bc 50 04 be fe 94 78 3d
       -0.3093666 -0.21650217 -0.12921423 0.060688965
0000b0 c3 85 d7 3d f8 82 18 be 3c 20 15 be 3c ef 8f 3d
       0.1052356 -0.1489371 -0.14563078 0.07028052
0000c0 eb d3 bc bb 6f 8b 05 3d ec 00 6a bc 29 80 84 be
       -0.0057625673 0.032603677 -0.014282446 -0.25879028
0000d0 9e 1a d5 bc 6b a5 10 3d 61 86 2a 3e d2 71 9e 3b
       -0.026013669 0.035314005 0.16652824 0.004835346
0000e0 f9 20 a2 be 9d b3 a8 bd d8 a6 c6 be d2 bc 1a 3e
       -0.3166578 -0.082373835 -0.38799167 0.15111092
0000f0 0f e2 4f 3e 36 0b 82 3e 58 7c aa bc 9f 04 d8 3d
       0.20301078 0.25399178 -0.020811245 0.105477564
000100 7f 23 17 3e 07 70 95 3d 6b 1b 30 be d0 fc 05 be
       0.14759634 0.07296758 -0.17197959 -0.13084722
000110 4c 21 4a 3e 66 e6 2f bd ad 6e 03 be 1f 32 dc 3d
       0.19739264 -0.042944334 -0.12835188 0.10751747
000120 7f 66 01 be 7d a1 62 be f2 74 70 bb 39 2d 24 bd
       -0.12636755 -0.22131915 -0.0036690799 -0.04008219
000130 53 ba fe bd 50 9b 26 3e 66 46 66 3d 3f 3e a9 bc
       -0.12437882 0.16270185 0.05621948 -0.020659564
000140 b6 eb a9 3d 82 3c 4c bd 05 f4 22 be 1b ae 41 be
       0.082969114 -0.049862392 -0.15913399 -0.18914072
000150 3f 8b de 3d 40 17 4d bd 4e 98 e2 3c 54 61 96 bd
       0.10866403 -0.050071 0.027660515 -0.073427826
000160 33 0c dc bd 18 cc ec 3d dd e1 da bd f9 48 af be
       -0.10744514 0.11562365 -0.10687611 -0.3423536
000170 f4 c3 02 3e db fc d6 be 1a 96 47 3e 0c 9c f7 bd
       0.12770063 -0.41989788 0.19490853 -0.120903105
000180 03 a1 0b 3c b7 04 6f bd 21 4b 41 3e 0b b6 41 be
       0.008522275 -0.058354106 0.18876316 -0.189171
000190 5c ab c4 3d 9f 80 bd 3d 25 ad 49 3e 93 0d 7a 3d
       0.09602997 0.09253048 0.19694956 0.0610481
0001a0 32 13 f1 bd 44 9e 23 bd 71 00 80 be 8c 9f 4a be
       -0.11771239 -0.039945856 -0.25000337 -0.19787425
0001b0 3e 1a 2d be 34 d1 03 be 36 e3 76 bb 7a 9f 08 be
       -0.16904542 -0.12872773 -0.003767205 -0.13342085
0001c0 4b 89 ba bd 34 1b ea 3c 5a f2 1b 3d 4d 73 f8 3d
       -0.09108218 0.028577425 0.03807292 0.12131367
0001d0 08 80 60 bd d0 17 02 3e d5 e7 9e 3c fb 4e f2 3d
       -0.0548096 0.12704396 0.019397656 0.118314706
0001e0 00 48 90 bc 07 49 85 3d 9d 29 94 3c 73 46 d9 3d
       -0.017612457 0.065080695 0.018086249 0.1060914
0001f0 ab a3 63 be 9c ca a7 3c 2d 29 0c 3e 2b 90 1b be
       -0.22230403 0.020482354 0.13687582 -0.15191714
000200 ec 1e 81 bd 57 6f 39 bd 8b 91 97 bd 84 a6 51 3c
       -0.06304726 -0.045272198 -0.07400807 0.012796048
000210 57 90 1a 3e bd 8a 1e 3e 5b 4d ee bd 73 39 27 3d
       0.15094124 0.15482612 -0.11635848 0.040826272
000220 0c 31 23 3e 78 c4 1c be 76 95 4e 3c b3 0e 66 3d
       0.15936679 -0.15309322 0.012608876 0.056166362
000230 09 a3 ed bd ab 6d 08 3d c3 bf 4e 3c f8 fb c3 bd
       -0.11603362 0.033307713 0.012618962 -0.095695436
000240 72 b1 d1 bd cd 3e 31 3e 60 31 02 bd f3 99 e6 bc
       -0.10238923 0.17309113 -0.03178537 -0.02814958
000250 15 d0 40 3b 8b 2f 12 3d ff aa 3f bd 70 39 b0 bd
       0.0029420902 0.03568987 -0.046793934 -0.08604705
000260 6f a6 c0 3d d1 c2 49 3e 04 64 18 bd 72 16 f1 3d
       0.09406745 0.19703223 -0.037204757 0.11771859
000270 92 03 37 bc 7a b2 1c 3e d4 54 32 bd b5 a6 a6 3d
       -0.011170285 0.15302458 -0.04353793 0.081372656
000280 f2 ea 5b be fb 1a 6d be f0 b2 77 be fa 70 69 3e
       -0.21476343 -0.23154823 -0.24189353 0.22797003
000290 5c 43 83 bd 9d c2 90 3d db 47 0e bd ab 10 47 bd
       -0.06409332 0.070683695 -0.034736495 -0.04859988
0002a0 b9 03 16 3e 22 cd 91 bd 10 5b 09 3d c7 78 d0 bd
       0.14649858 -0.07119204 0.03353411 -0.101792865
0002b0 69 a6 0a bd ff f6 ea 3d be 4f 21 3d 9b 8e 6f bd
       -0.033850107 0.11472892 0.03938269 -0.05848561
0002c0 e3 2c c3 3d 82 19 c3 3b e0 77 c4 3c 05 58 84 3e
       0.09530046 0.0059539685 0.023982942 0.25848404
0002d0 fe 9f a9 bd cb 24 07 be 75 f2 ff 3b 32 d5 b5 bd
       -0.08282469 -0.13197629 0.0078108856 -0.088785544
0002e0 7d 03 16 bd 03 c2 91 bd e3 fa a7 3e 58 4f 87 3c
       -0.03662442 -0.07117083 0.328086 0.016517326
0002f0 34 e8 8a bd ea 79 25 bd 85 76 47 bd a2 d7 fe 3c
       -0.067825705 -0.04039947 -0.048697013 0.031108681
000300 1a 15 bd bc bb 9b 76 bc ff 63 15 3e 74 8f db bd
       -0.023081351 -0.0150517775 0.14588927 -0.10720721
000310 d7 4d 34 bd e6 88 2a 3b 71 aa 38 3c 75 f4 ee bc
       -0.044019546 0.002602154 0.011271105 -0.0291693
000320 25 ee 18 be b3 24 1d 3e e5 c4 3f 3d 22 c7 69 bd
       -0.14934595 0.15346031 0.046818633 -0.057074673
000330 17 e9 a2 3d 06 e2 db 3d e5 2e 74 3e 02 d0 c4 bc
       0.079546146 0.1073647 0.23846014 -0.024024967
000340 f4 e0 97 bc ac cd 34 be 8c e1 af 3d 83 8a 12 be
       -0.018539883 -0.17656583 0.085879415 -0.1431065
000350 8e e2 4c bd 59 fc fe bc 73 1f 59 3c 01 37 3c 3c
       -0.050020747 -0.031126188 0.013252127 0.011487723
000360 6b d7 d0 3d 2c 87 a6 bd a1 28 80 be 3d e3 6e be
       0.10197338 -0.08131251 -0.25030997 -0.23328872
000370 8d 25 8a 3e 90 13 c5 be 1f 59 9c 3d 1a 5c 43 bc
       0.26981774 -0.38491488 0.07634186 -0.011923814
000380 67 c1 bc 3d f2 ac c9 bd 59 4e 30 3d e0 95 11 3e
       0.09216576 -0.0984744 0.04304347 0.14217329
000390 de 6d 0f be 61 37 29 be 7f 55 15 3e 62 de c5 ba
       -0.14006755 -0.16525032 0.14583395 -0.0015096182
0003a0 14 07 4b 37 77 40 8c be 3c 22 00 be 64 61 9c bd
       1.2101391e-05 -0.27392933 -0.1251306 -0.07635763
0003b0 12 7c 4f bd 8e 9a 19 3e 53 56 50 bc 3e 95 fe 3d
       -0.050655432 0.15000364 -0.012715894 0.124308094
0003c0 fa 9b f5 bd 3d ba ea 3d 56 9b 03 be c1 ee e9 bd
       -0.11992641 0.114613034 -0.12852225 -0.11422492
0003d0 7f 6f cc 3d 1d a1 e5 3d c3 2f f3 3b 81 5d df 3d
       0.09982204 0.112123705 0.007421465 0.10906506
0003e0 86 74 9b bb 2e 18 ff 3d 9f 0c bc be d3 2c 55 3e
       -0.0047441153 0.12455784 -0.3672838 0.2081788
0003f0 9f ef b2 bb 36 14 a1 bd 0c d2 98 bd fd 88 9b bd
       -0.005460694 -0.07865183 -0.07461938 -0.07594488

hidden_layers.1.bias f4 [128]
000000 f1 0f 49 3d 82 d8 0a 3d 75 18 bb 3d 16 cd 79 bd
       0.04908747 0.033897884 0.09135524 -0.0609866
000010 ef b3 b9 3d 26 e0 b5 3d cd 1f 38 3d 39 4f 3d bc
       0.09067523 0.088806435 0.044952203 -0.011554533
000020 83 de f1 3c cb da 85 3d 57 61 ca 3c a0 6a dd bd
       0.029525047 0.06535872 0.024704618 -0.10811353
000030 79 99 fc bd 9f cd ba bd 78 42 98 3b e2 b8 ad bd
       -0.1233396 -0.0912125 0.0046465956 -0.08482529
000040 a6 c2 a9 3d ee 24 60 3d 65 fc ff 3d e6 8c b8 bd
       0.08289079 0.05472272 0.12499312 -0.09011249
000050 80 de b8 bc ac b8 21 bc 22 db ac bc 8c 48 f9 bb
       -0.022567034 -0.009870689 -0.021100584 -0.007607525
000060 50 af 83 bd 14 bb ee bd 7d 79 7e bd 31 c8 47 3d
       -0.064299226 -0.11656776 -0.06212758 0.0487749
000070 8e 07 fd 3c 38 0c ef 3c 32 46 8d bd 5f 6c 5a 3d
       0.030887391 0.029180631 -0.06898154 0.053326007
000080 54 2f 05 be 97 44 fd 3d ee c1 83 3d 6c 41 82 bc
       -0.13006335 0.12366598 0.064334735 -0.015900336
000090 71 53 0c be 32 07 f3 bc fd 67 9d bd 16 16 de bd
       -0.13703705 -0.029666517 -0.0768585 -0.10844056
0000a0 6f 5f 7c 3d 11 57 4a 3d a1 d1 ac 3d d9 16 ae 3d
       0.06161445 0.04939944 0.08438421 0.085004516
0000b0 0e 99 bc bd 95 a0 1a 3d 83 0b 03 be 52 3d bb bd
       -0.0920888 0.0377508 -0.1279736 -0.09142555
0000c0 38 ea bd bc 3e 81 dd bd 4b 7c 04 3e 33 04 e1 bd
       -0.023182973 -0.108156666 0.12938039 -0.10987129
0000d0 7e 30 12 3e 01 21 b6 bb bc fb 45 3d 62 3a d6 3d
       0.14276311 -0.0055581336 0.048335776 0.104603544
0000e0 c0 8d 14 be 7e 7a 16 bd ea 19 04 3e b5 ac 4a bd
       -0.14507198 -0.03673791 0.1290051 -0.049481113
0000f0 5d f3 17 bd 76 c9 b4 3d 5a 2f 84 bc c1 00 f5 3d
       -0.037097324 0.08827488 -0.01613586 0.119630344
000100 ba d4 e7 3c 78 a9 8a 3d dd 11 38 3d 76 dc c4 bd
       0.028299678 0.06770605 0.04493891 -0.09612362
000110 35 b7 d6 3c 97 9a 12 3d ee cf ab bd fd 4a 92 3d
       0.026210407 0.03579196 -0.08389269 0.07143209
000120 0a 47 34 be eb 20 b4 3d 26 6c 85 3b 67 7b 87 bd
       -0.17605224 0.08795341 0.00407173 -0.06615334
000130 c8 6c 46 3c 39 6e b3 bd 5d fd 07 bc 9e d8 0d bd
       0.012110896 -0.08761258 -0.008300153 -0.03463041
000140 c8 59 0e be ab 28 28 3e 1d 09 70 bd 12 cd 2b 3d
       -0.13901436 0.16421764 -0.05860244 0.041943617
000150 ae 0d 39 3d c8 e7 da 3d b9 e3 75 3c 02 b6 3a 3d
       0.04517906 0.1068874 0.015007907 0.045583732
000160 2e 74 83 bd f0 b1 c8 3b 76 30 85 bc c4 9c 7b 3d
       -0.06418644 0.0061247274 -0.01625846 0.0614288
000170 bf b4 e1 3c 86 eb 60 bb 0d b2 b3 bd 5f ce 06 be
       0.027552007 -0.003432007 -0.08774195 -0.13164662
000180 ef 04 c5 bd 0e 97 a7 3d fb ee 5a bb e8 1e 08 be
       -0.09620082 0.08183108 -0.0033406604 -0.1329304
000190 04 7d c2 bd 99 51 c8 3d 67 44 98 3d 79 f5 8b bd
       -0.09496501 0.097811885 0.07434922 -0.068339296
0001a0 45 45 40 bd 6f 32 f8 3d 82 90 53 3d 26 27 89 bd
       -0.04694106 0.121189944 0.051651485 -0.0669692
0001b0 2e 18 00 3c d4 3c d3 bc fa 59 82 bd 7d fb c9 bd
       0.007818265 -0.025785841 -0.06364818 -0.09862421
0001c0 c3 dc e7 bd 88 08 2f 3d a6 2b 17 bd 70 3f 2a 3d
       -0.11321404 0.042732745 -0.03690686 0.041564405
0001d0 8f c1 8f bd 84 73 0a 3d 5c be 9f 3d 89 6f f0 3d
       -0.0701934 0.03380157 0.0779998 0.11740024
0001e0 57 8a cb bc 1c c4 d7 bc 41 7f b2 3d 88 6e 73 bd
       -0.024846239 -0.02633863 0.08715678 -0.059431583
0001f0 1a 56 26 bc 84 5d a2 bd 1a b1 40 bd 6b db c5 bd
       -0.010152364 -0.07927993 -0.047043897 -0.09660991

hidden_layers.2.weight f4 [64, 128]
000000 f4 fe df bc c8 d8 75 bd 2e 80 1e bc 65 34 4c 3d
       -0.02734325 -0.06002119 -0.009674115 0.049854655
000010 85 7f 8b bd 17 3d e2 3c f0 fb 51 3c c0 25 52 bd
       -0.06811432 0.02761702 0.012816414 -0.051305532
000020 2c 71 67 3d db 64 7b 3d e6 b4 5d 3b 28 8a 10 bd
       0.056504413 0.06137548 0.0033829748 -0.035288006
000030 62 48 68 3c 23 6c d2 3c 28 6d 69 bc f5 a2 a3 bd
       0.014177414 0.02568633 -0.014247216 -0.07990066
000040 8c 8e 5b bc d1 48 ad bd ea d7 7e 3d fe 83 ff 3b
       -0.013400685 -0.08461154 0.06221763 0.007797717
000050 6c 34 fe bc ee 49 56 3c f1 28 7b bd 90 ec 68 bc
       -0.031030856 0.01307915 -0.06131834 -0.014216557
000060 7e 9b a5 bd 64 3c c3 3c 62 c8 16 3d 1a 47 0c bd
       -0.080862984 0.023832507 0.036812194 -0.034247495
000070 03 01 55 3c 24 0a 95 3d 3a 8e bc bd 75 e6 81 bd
       0.0130007295 0.07277325 -0.09206815 -0.06342784
000080 ac ef 34 b9 4d 68 26 bd 7b dc 39 3d 6d 0b 7c 3d
       -0.00017255422 -0.040626813 0.045376282 0.061534334
000090 9b fe 85 bd 03 95 67 bc 71 c0 d9 bc d4 90 89 3d
       -0.06542703 -0.014134648 -0.026581021 0.06717077
0000a0 e1 3b 9f bd b3 d7 91 3a 32 b1 27 bd e7 5b 92 bd
       -0.07775093 0.0011126905 -0.04094047 -0.07146435
0000b0 a2 82 80 3d 76 93 54 3d 73 eb b1 bd 1e 78 58 3d
       0.06274916 0.051898442 -0.086874865 0.052848928
0000c0 34 44 bc bd 05 bd a2 3d a0 0d a7 3c fe a7 15 bd
       -0.09192696 0.07946209 0.02039224 -0.036537163
0000d0 8e b4 11 bc 19 31 9e bc 73 ab b3 bc f2 6d 86 bd
       -0.008893145 -0.019310521 -0.02193234 -0.06563939
0000e0 61 78 1f 3d cf 3b 94 bd 74 e6 34 bb ac da b5 bd
       0.03893316 -0.0723797 -0.002760318 -0.08879599
0000f0 36 3d 72 bd 7e dd 50 3c 37 27 00 bc 04 d6 5d bd
       -0.059140407 0.01274812 -0.00782185 -0.05415918
000100 98 af c4 3c ef ee 25 3d ea 8e 3f bd f8 08 26 3c
       0.02400951 0.040511068 -0.046767153 0.010133974
000110 ed d6 a7 bd 52 84 8f bd a5 6d 0d bd 1c e4 8e 3d
       -0.08195291 -0.0700766 -0.034528393 0.06977102
000120 69 47 0a bd 38 c5 8d bd d8 bf 6b 3d 30 c5 64 bc
       -0.03375951 -0.06922382 0.057556003 -0.013963029
000130 99 1e b6 bd 40 03 ef 3c a1 8c 68 bd 95 22 77 3d
       -0.08892555 0.029176354 -0.05677474 0.060335714
000140 fe cc 35 3c 7e c8 22 3b 54 1b 9f bd 38 de 00 3d
       0.011096237 0.002483874 -0.07768884 0.031461924
000150 63 21 c3 bb ea ee 40 bd de 2c 30 3c a6 b1 9b bd
       -0.0059549077 -0.047102846 0.010752885 -0.07602243
000160 0d 67 81 bd 60 fb c7 bd ea 18 ff bc 46 2c 09 3d
       -0.063184835 -0.09764743 -0.03113981 0.033489488
000170 c4 c2 9f 3d c9 a2 f4 bb c8 40 81 bd 79 c2 63 bc
       0.078008205 -0.0074656946 -0.06311184 -0.013901346
000180 d6 9b 10 3d 4e a1 87 bd fc 45 c9 bd 34 5a 92 bc
       0.035304867 -0.06622563 -0.098278016 -0.017865278
000190 9d 2b 0d bd 72 37 7a 3d b5 a3 fa 3c f6 3d 04 3c
       -0.03446542 0.061088033 0.03059564 0.008071413
0001a0 2b 13 9a 3d 0a 40 b2 bd c8 1b 8c bd a5 f8 ad bd
       0.07523187 -0.08703621 -0.06841236 -0.08494691
0001b0 ac 85 e6 bc db 78 ad bd 55 f6 35 bb 56 e8 25 bd
       -0.028139912 -0.08470317 -0.0027765234 -0.040504776
0001c0 1e 87 36 3c 76 f3 e4 bd d0 8c 58 bd 75 1a 87 3d
       0.011140613 -0.11179249 -0.052868664 0.06596843
0001d0 ae 7f 7e 3d ee 4a 22 3c 07 ba 66 bd 55 c1 9e bd
       0.062133484 0.00990556 -0.056329753 -0.07751719
0001e0 1d 75 55 3d 80 74 e1 3a ec c6 64 bc 40 46 5f bc
       0.05211364 0.0017200857 -0.013963442 -0.013627589
0001f0 0d 5d 94 bb b9 2c 03 3d 42 3c 9f bd 95 48 52 bc
       -0.004527694 0.032025073 -0.07775165 -0.012834688
000200 c3 54 e2 3c 3f fe 89 bd 9d 61 ec 3d 6b a4 70 bc
       0.027628308 -0.06737947 0.11542056 -0.014687638
000210 2d 0a b7 bd b4 83 00 bd d0 48 87 bd c6 8d 68 bb
       -0.08937488 -0.031375602 -0.06605685 -0.0035484894
000220 86 3e 87 3d 19 fc c5 3d 52 60 de 3d ed 4b 7f 3d
       0.06603722 0.096672244 0.108582154 0.062328268
000230 2a af d4 3d 3b 9a bb 3d aa a2 4d be f7 f3 0c 3d
       0.103849724 0.091602765 -0.20081583 0.03441235
000240 8a ff c0 be e4 ea e1 3d 24 55 8b bc f3 f6 99 3e
       -0.3769496 0.1103113 -0.017008372 0.3007122
000250 75 27 b3 3d 04 f3 0c 3d 64 da 05 bd cb fa 93 bd
       0.0874776 0.034411445 -0.032678977 -0.07225569
000260 ee d8 2c bd e6 76 b2 3d f2 2b 87 bc 4f 29 68 3d
       -0.042199068 0.08714084 -0.016500447 0.05668002
000270 5c 69 03 bd 0f 5e ef 3c a0 26 ac bd 00 e2 40 bd
       -0.0320829 0.029219655 -0.08405805 -0.04709053
000280 47 8a d1 3d 49 27 5b 3a bf 05 b5 3d be 89 19 3e
       0.102314524 0.0008360041 0.088389866 0.1499395
000290 89 36 df 3d 46 97 14 bd e4 76 11 be ac 6a 4c bc
       0.10899074 -0.036277078 -0.1420551 -0.012476604
0002a0 04 14 e1 bc 55 e9 61 bc f3 f0 f3 3c 3c e4 69 3e
       -0.027475365 -0.013788541 0.02977798 0.22840971
0002b0 32 49 b1 bd 4a 35 b1 bd 09 ce ea bd 9e 09 0d 3d
       -0.08656539 -0.08652742 -0.11465079 0.034433
0002c0 37 ee 4e 3d f1 dd 04 bd c0 f5 1f be 60 32 df 3c
       0.050520148 -0.032438222 -0.1562109 0.0272457
0002d0 5e 86 90 3d 08 dc 8d 3c 3b 80 01 3e 54 ad ea 3d
       0.070568785 0.017316833 0.12646572 0.11458841
0002e0 6b ee a2 3d 23 44 61 3d 08 a1 be 3d 1d 4c 93 3d
       0.07955631 0.05499662 0.09308058 0.07192252
0002f0 3b 3c a9 bd 59 15 5a 3c a4 33 4c 3d e6 14 98 3d
       -0.08263441 0.013310754 0.049853936 0.07425861
000300 d4 13 5b bb 8d 29 02 3e de 5a 1b 3e 5f b4 15 3e
       -0.0033428567 0.12711163 0.15171382 0.14619587
000310 b6 36 17 bd 1e c0 40 3c 8c 8b a1 3c db f9 fb 3d
       -0.03691741 0.011764554 0.019719861 0.123035155
000320 c9 a5 0d 3e b7 24 87 3d cb 94 e7 3d 2e 0a 1f 3e
       0.13832773 0.065988 0.11307677 0.15531227
000330 10 9e 92 bd 70 6b 0e 3e 0a 8e e5 bd 3f 6b 8b bd
       -0.07159054 0.13908172 -0.112087324 -0.06807565
000340 57 ca 2f be 06 66 8e 3d 47 e5 34 be c2 78 e2 3c
       -0.1716703 0.06953053 -0.17665587 0.027645472
000350 53 57 36 3e 75 3a 70 3d 9e a2 ac ba 38 3e b4 bd
       0.17806749 0.0586495 -0.0013171022 -0.0880093
000360 e8 06 8a 3e 88 b3 ff 3d bc 53 8f bd f1 31 44 bc
       0.26958394 0.12485415 -0.06998393 -0.011974798
000370 1e 22 36 bd 48 e8 2a 3d 71 aa a8 3c 7f 34 d4 bd
       -0.04446613 0.041725427 0.020589085 -0.10361575
000380 04 5f 80 be 16 9f 58 3e b9 0a ae 3d b0 e6 26 3e
       -0.2507249 0.21154436 0.08498139 0.16298938
000390 3d 0a bc 3d 09 35 91 bc 1c d8 f3 3b fe 00 16 3d
       0.0918164 -0.017725484 0.0074415337 0.03662204
0003a0 01 c8 01 3c ff 3d 47 3e c8 59 23 3d 4a 4f 9b 3c
       0.00792122 0.19457243 0.039880544 0.018958706
0003b0 d0 43 a2 bd 22 fd 15 be 06 25 2b 3d da 1e 2d bb
       -0.079230905 -0.14647344 0.041783355 -0.0026416094
0003c0 8e 54 7e 3d 19 5f 85 3d ec 8c 2d be d8 5b c5 bd
       0.062092356 0.06512279 -0.16948289 -0.096366584
0003d0 ba 5b a8 3c 75 b4 9b bd d4 85 48 3d e3 e0 7d bd
       0.020551551 -0.07602779 0.048955753 -0.061982047
0003e0 22 4e 98 3b 0c bc cc 3d 85 e5 aa 3d bb 24 1b 3e
       0.004647986 0.099968046 0.083445586 0.1515073
0003f0 28 ee b5 3d 36 f6 a0 3d db cb f0 3d b6 81 01 bd
       0.08883315 0.07859461 0.11757632 -0.031617843

hidden_layers.2.bias f4 [64]
000000 e5 cd ae bd df 04 47 3e 60 e3 73 3d 5e 98 27 3e
       -0.08535365 0.19435452 0.059543014 0.16366717
000010 f8 fd fe bc 8a 48 51 bd 86 f3 29 3e ba 44 9a 3c
       -0.031126961 -0.05109457 0.16596803 0.0188316
000020 f3 04 96 bc 3a 5d a7 3d 6b b4 19 bc ae 0a d7 3d
       -0.018312907 0.081720784 -0.009381394 0.10500084
000030 10 62 60 3e 6a c0 2b bc 9a 0d e0 bd ef 9d ea bd
       0.21912408 -0.010482887 -0.10940094 -0.11455905
000040 0f 69 76 3e 50 30 a8 3d 37 17 8c bc a5 fe 9a bc
       0.24063514 0.0821234 -0.017100913 -0.018920252
000050 12 c3 c7 bd db fa d8 bc d7 35 e2 bd 9d ef 34 3d
       -0.097540036 -0.026486805 -0.110454254 0.044173826
000060 96 4b 7f bd 3c ec 51 bd 51 31 c9 bd e1 a8 61 3e
       -0.062327944 -0.05125068 -0.098238595 0.22037078
000070 b8 f7 d5 3d 2c 4e 1f 3e 69 1e 43 3e 85 11 69 3d
       0.10447639 0.15557164 0.1905457 0.056901474
000080 14 2c 21 bd 04 95 87 bd bf 65 a6 bd 67 15 ca bd
       -0.039348677 -0.06620219 -0.08124875 -0.098673634
000090 17 29 af bc 22 5e 0a bd 3e 4b 02 bd f7 27 87 3c
       -0.021381898 -0.03378118 -0.031810038 0.016498549
0000a0 54 b0 87 bd f5 e1 4a 3d 3c 6d 6e bd 8c 12 7e 3c
       -0.06625429 0.049531896 -0.058209643 0.015507352
0000b0 57 aa 35 3e e3 45 a8 bb 0d f7 e2 bd 08 09 54 3d
       0.1774076 -0.0051352843 -0.110822774 0.051766425
0000c0 f2 2c 77 bd 8b 89 18 3d 49 cb bc bd f7 76 3d bd
       -0.060345598 0.037240546 -0.09218461 -0.04625603
0000d0 8d 04 90 3d f6 a5 b4 bd 2a b7 4f 3d 4a 5d 1b 3d
       0.07032118 -0.08820717 0.05071179 0.037930764
0000e0 ad b0 79 3d 5d 26 08 be 95 39 99 bd 3d ae be bd
       0.060959507 -0.13295884 -0.07481686 -0.09310577
0000f0 06 5e 29 bc 7e 2e 39 3e 3b a6 61 3d ec 6d 8c 3c
       -0.010337358 0.18084142 0.05509017 0.017142259

output.weight f4 [4, 64]
000000 39 7b bd 3c 3c e9 b2 bd 9b b2 a6 3e 00 f4 33 3d
       0.023130046 -0.08735892 0.3255814 0.04393387
000010 52 ee f8 bd 00 aa bf be bc a1 4c 3e 51 ac 88 be
       -0.12154831 -0.37434387 0.19983572 -0.26693967
000020 6b 11 ac 3e 74 99 e8 3d 2e 61 db 3b 2c 1e 91 3d
       0.3360704 0.11357394 0.0066949343 0.07085833
000030 9e 54 b3 bd 6a 59 43 3d 33 5e cc ba d5 77 b3 be
       -0.08756374 0.047692694 -0.0015592038 -0.35052362
000040 3c 41 1f bc 3e 13 a8 3e 76 46 82 bd cc 50 8c bd
       -0.009720143 0.3282718 -0.063610956 -0.06851348
000050 09 fc a8 3d 06 92 1c 3e ca 47 20 be 47 1a 38 3d
       0.08251197 0.15290079 -0.15652385 0.044946935
000060 bd 58 1d 3c aa ee 23 be 8f 87 1a 3d 8a 50 5e bc
       0.009603676 -0.16009012 0.037726935 -0.013569007
000070 5e 57 4b bd 28 7a 14 3e c2 9a c9 3d fc 2d dc 3d
       -0.049643867 0.14499724 0.09843971 0.10750958
000080 fd 92 68 3e 3e 69 51 bc ff 09 80 bc b2 61 40 3d
       0.22712322 -0.012781439 -0.015629767 0.04696817
000090 99 67 88 3d c2 11 d5 bd 42 9e 95 bd 02 bb e6 be
       0.06660385 -0.10403778 -0.07305576 -0.4506455
0000a0 a8 95 dd bd a2 bf e8 3d f6 7e d7 bc e9 89 d6 bd
       -0.1081956 0.11364676 -0.026305657 -0.10475523
0000b0 2f 93 ff 3d ad bc a0 3e 0e 4e 08 bd 40 80 80 3e
       0.12479245 0.31393948 -0.033277564 0.25097847
0000c0 86 75 f3 bd 80 17 40 3e 53 94 2b be ba 45 d9 bc
       -0.1188765 0.18758965 -0.167558 -0.026522506
0000d0 b2 af fd 3d 15 e6 e1 3d 0b e0 c0 bd b5 57 d0 bc
       0.12387027 0.11030213 -0.09417733 -0.025432447
0000e0 1d 9c ef 3c 10 7f b8 3c 84 6b 76 be 1e ca c6 bd
       0.029249245 0.022521526 -0.24064451 -0.097065195
0000f0 0c aa c6 3e b2 6c 9c 3c df b7 80 be 1d b6 e8 bd
       0.3880161 0.019094799 -0.25140283 -0.1136286
000100 de 92 5c 3d a3 ad a5 3d 58 5d 4e be cc 68 a1 bd
       0.053851 0.08089759 -0.20152795 -0.078813165
000110 fe 63 dc 3d 53 e9 d5 3d bd 98 32 be 52 8d 0f 3e
       0.107612595 0.10444894 -0.17441078 0.14018753
000120 f4 41 36 be 35 ad 06 3e b4 17 bc 3d 51 ab a5 bc
       -0.17798597 0.1315201 0.091842085 -0.020223292
000130 5b c0 9c 3d 9b 65 49 3e 24 8a 95 be c8 2a 76 3c
       0.076538764 0.19667666 -0.29206955 0.015024848
000140 5e 65 89 bd de 1f c0 3d 4b 50 26 bc ed 0f 08 bd
       -0.067087874 0.09381078 -0.010150979 -0.033218313
000150 a7 7b e9 bd 6f d6 4b 3e cc bb 53 3e f7 59 85 3d
       -0.11400538 0.19906019 0.20677108 0.065113
000160 43 53 29 3d b6 84 7e be d9 d5 00 bf 60 ed 10 be
       0.04133917 -0.24855313 -0.50326306 -0.14153051
000170 6a 00 db bc 98 ac 20 3d 37 36 2d 3e 99 db d9 be
       -0.026733596 0.0392271 0.16915213 -0.42550352
000180 79 10 5d 3e 6e 81 83 be 9b d3 b8 bd 4d b7 36 3d
       0.21588315 -0.25684685 -0.090247355 0.044608403
000190 3d 44 70 be b4 c3 dd 3d 64 8e 60 3e 19 df 22 3e
       -0.23463531 0.10828343 0.21929318 0.15905418
0001a0 a2 46 23 bd 07 d4 5f 3e 1d 5f 34 3e 01 65 7a 3e
       -0.039862283 0.21858226 0.17614408 0.24452592
0001b0 d1 8c 37 3c 0d 29 96 be 97 bb a4 bd c4 c5 03 bf
       0.011203007 -0.29328194 -0.080435924 -0.5147364
0001c0 24 bf 07 be 28 56 8d 3e cd 7e 96 3d 5d 76 f5 bd
       -0.13256508 0.27604795 0.07348404 -0.11985467
0001d0 48 e7 f0 be 79 61 81 bd 26 fb 3e bc ec 7b ab 3e
       -0.47051454 -0.063174196 -0.011656558 0.33492982
0001e0 83 40 17 be e9 71 a3 bb ac 5e b0 bd 6c 57 58 be
       -0.14770703 -0.0049879444 -0.08611807 -0.21127099
0001f0 93 33 c9 be f9 d9 53 bb c9 56 ab 3d fd b3 2e 3d
       -0.3929716 -0.0032325967 0.08366162 0.04265212
000200 f7 3b fb bc 34 72 3b bd 8f a3 2a 3e f4 d5 a6 3b
       -0.030668242 -0.04576321 0.16663955 0.005091423
000210 26 c3 05 3f c1 c6 06 be 05 5d 45 3e e9 0e 9f be
       0.522509 -0.13161756 0.19273765 -0.31066063
000220 79 11 09 3f c7 49 6e be be 03 cd bd 9d f2 32 3e
       0.53542286 -0.23270331 -0.100104794 0.17475362
000230 fd 70 ff bd c1 6b ad be e5 d4 55 be 7c 0a 92 3e
       -0.12472723 -0.33871272 -0.20881994 0.28523624
000240 d9 10 a6 3d 59 8b 80 bd c1 d4 78 3e d6 25 60 bd
       0.08108682 -0.062765785 0.24299909 -0.054723583
000250 3f ad b4 be a1 25 bd bd a1 bf 5a be 7e 75 cc 3d
       -0.35288426 -0.09235693 -0.21362163 0.09983347
000260 87 fa 06 3d 9a 16 29 3c 8e 6e 90 3e 7c 66 39 be
       0.032953765 0.01032033 0.28209347 -0.18105501
000270 14 f6 87 3c e2 36 2e be b9 e0 b0 3d 54 21 a8 3e
       0.016596831 -0.17013124 0.086366124 0.32837927
000280 e7 ca b2 3d a3 b5 1f 3e 09 02 74 3d 7f c1 0f bd
       0.08730107 0.15596633 0.059572253 -0.03509664
000290 cc f5 99 3d a5 e0 94 3e a2 b3 bf 3d 82 87 8b 3d
       0.07517585 0.2907764 0.09360434 0.068129554
0002a0 d8 f7 26 be d0 52 3f 3d bd 01 1b 3e 14 5c ab be
       -0.16305482 0.046709836 0.15137382 -0.33468688
0002b0 7b dd 3b 3d 60 e4 53 3e 40 e7 b1 bb e9 85 06 be
       0.045865517 0.20692587 -0.0054291785 -0.1313702
0002c0 c6 bd 7f 3e 2f 55 f8 be 3a 50 86 bc 43 4c 9a 3e
       0.24974737 -0.4850249 -0.016395677 0.30136308
0002d0 ce a5 0b bc 5e 3f e0 bd bb 83 fd 3d 10 57 35 3e
       -0.008523418 -0.10949586 0.12378641 0.17708993
0002e0 e7 88 34 be bc e9 a5 3d 4f 79 11 3e 79 cb cd 3d
       -0.17630349 0.08101222 0.14206432 0.10048575
0002f0 3b 2e 27 3e af 80 fd bd b3 45 53 be bf e2 b3 be
       0.1632623 -0.1237806 -0.20632057 -0.3513393
000300 b2 c9 b0 3d 81 26 46 3d 3a ab 50 bd 88 ed 25 be
       0.0863222 0.048376564 -0.050944544 -0.16203892
000310 f5 ba b9 3d 39 af ac 3e b7 21 3c 3d 1c cd ab bd
       0.09068862 0.33727434 0.04593059 -0.08388731
000320 a6 c7 4c be fb 1c 8f 3d fe 0e 6c 3e 70 a2 92 3c
       -0.19998035 0.069879495 0.23052594 0.017899722
000330 6b b3 23 bd db cd 0d be 16 81 90 bd 2b 09 92 be
       -0.03996603 -0.13848059 -0.07055871 -0.2852262
000340 e3 02 78 bc e2 31 14 be 5d da ca bd 90 b1 92 be
       -0.015137407 -0.14472154 -0.09904931 -0.28651094
000350 62 4b f3 bd aa cc dc 3e 2d d7 1f be 71 29 4a 3e
       -0.118796125 0.43124896 -0.15609427 0.19742371
000360 41 88 b5 3d 32 11 d0 3d c7 b4 d7 3d 11 a8 d6 3d
       0.08863879 0.1015953 0.105325274 0.10481275
000370 3c 4a 4e 3e 2a 0f 47 bd e6 3c 52 3d 21 67 c8 3e
       0.20145506 -0.048598446 0.05132761 0.3914118
000380 5f 5b aa be f9 c8 3b 3d 6d 7f ec bd 6a 48 ac bd
       -0.33272836 0.04584596 -0.11547742 -0.084122494
000390 24 9f 1c be 9f b7 e3 be 0e 55 5d be b8 63 bd bd
       -0.15295082 -0.4447603 -0.21614477 -0.092475355
0003a0 63 82 42 be 12 1c 24 be 31 a5 d0 be 80 1d 1f be
       -0.18995051 -0.16026333 -0.4075103 -0.15538597
0003b0 b4 15 af bd ce 7a 66 bd ed 62 ac bd 7e 98 4f 3e
       -0.085490614 -0.05626946 -0.08417306 0.20273015
0003c0 48 4b 28 be d1 b8 ca 3e fe b3 90 be b1 ae 34 be
       -0.16434968 0.3959413 -0.28262323 -0.17644764
0003d0 15 2f 00 3f d2 8b 32 bd 77 95 45 be da 74 19 3d
       0.5007184 -0.043590374 -0.19295298 0.037464954
0003e0 e0 cc e0 bd fe f5 eb 3b 63 3e 99 3e 67 fa 72 3e
       -0.10976577 0.0072009554 0.2993041 0.23728333
0003f0 e3 fc 5b 3c 60 66 f3 3d 63 13 ad 3d 6c 42 70 3e
       0.013426992 0.11884761 0.08450963 0.23462838

output.bias f4 [4]
000000 65 d2 60 bc 8e 08 60 bd 90 6b a9 3c 49 ad 78 bd
       -0.013722037 -0.05469566 0.020681173 -0.060712133

state_value.weight f4 [1, 64]
000000 f0 22 b8 3c 55 07 14 3e 5f 8e 36 3d d6 ae 22 3e
       0.022477597 0.14455922 0.04456937 0.15887007
000010 52 ca 9f 3e 59 32 03 be 32 bd 88 3d ab f0 49 be
       0.31209046 -0.12812175 0.06676711 -0.19720714
000020 be 1d a5 3e f6 96 16 3d 96 21 2b 3e 4d 32 c7 3d
       0.32249254 0.03676506 0.16712031 0.09726391
000030 24 c3 2a 3e 52 39 a1 be 51 db 62 be 86 ec c9 3e
       0.16676003 -0.31489044 -0.22153975 0.39438266
000040 28 96 25 3e 1d a5 a8 3c f4 64 5f 3e 8a 80 11 be
       0.16170561 0.020586545 0.21815854 -0.1420919
000050 04 6c 9a be 9a 86 b5 3d b0 df 8d bb 27 e1 2a 3e
       -0.30160534 0.08863564 -0.004329644 0.16687451
000060 74 1c 89 bd 93 4d 3a 3d 32 49 9d be 04 2a 2d 3e
       -0.0669488 0.045484137 -0.30719906 0.16910559
000070 7f 7e 26 3e 16 d4 bc 3d 04 8f 2b 3e 8d 49 7b bd
       0.16259192 0.0922014 0.16753775 -0.06134944
000080 aa 67 f0 bd 6f ac 39 3d c1 0b e3 3d f3 07 a7 bc
       -0.11738522 0.04533046 0.11086226 -0.020389533
000090 76 e5 87 be 06 4f d1 bd 09 fd da 3d 8e ce ec be
       -0.26542252 -0.10220151 0.10692794 -0.4625134
0000a0 59 ca 28 3b 54 49 d7 3d 3a b2 13 3c d4 ac dd bd
       0.0025755374 0.10512033 0.0090146605 -0.1082398
0000b0 75 bd ed 3d b4 d2 60 be c2 cd 2e 3d 15 52 9d be
       0.11608402 -0.21955377 0.042676695 -0.30726686
0000c0 03 37 8f bd b5 50 1c 3e 9e 10 d5 bd fe 7f 9e 3d
       -0.069929145 0.15265162 -0.1040356 0.07739256
0000d0 f0 01 58 be 6b 0a 84 3d c9 cc f6 3d 93 a7 2e 3e
       -0.21094489 0.064472996 0.120507784 0.17056112
0000e0 6b cf 66 be f0 91 0b 3d 8e d7 95 3e 54 6b 71 bb
       -0.22540061 0.034074724 0.29266018 -0.0036837654
0000f0 a8 d7 9d be c5 ce ef 3d 46 32 bf be 38 24 6c bd
       -0.30828595 0.1170936 -0.37343043 -0.05765173
