results/64_128_64_0_True_True/checkpoint_final.pth (torch_old, 78921 bytes, 9 tensors)

hidden_layers.0.weight f4 [64, 37]
0.3935962 -0.6651676 -0.5717578 -0.776569 -2.7726605 0.06703486 0.06312081 0.06969648
0.1622987 0.11270974 -0.13483049 -0.052254643 -0.031065065 -0.06217905 0.16284512 0.03427517
0.05455539 0.017228533 0.23430245 0.19025083 0.09290719 0.14051409 0.106127225 0.13344873
0.03905806 -0.064380065 -0.0051749977 0.015181665 -0.040904213 0.005426664 0.04141179 -0.025376296
0.0048508723 0.030819872 0.065603904 0.0004353203 0.008166305 0.31571275 0.19734436 -0.19341946
0.012067297 -0.33701417 0.17512162 -0.11424315 -0.03131712 -1.0244373 -1.0070194 0.09076197
-0.089013755 0.05023078 0.19376273 0.09301546 0.19901603 0.030676981 0.02615001 0.06685374
-0.39316794 0.06893093 -0.09931044 -0.1585513 0.06632681 0.25402406 -0.19605228 -0.19493279
0.45163926 0.014783602 0.013442055 0.047451463 0.024736514 0.12998708 0.29098517 0.26152784
0.018699 -0.02127697 0.2228907 0.2741688 -0.24447721 -0.31117135 0.122099236 0.05684721
-0.44034833 -0.014927435 0.45966366 -0.5204788 -0.18933074 -0.6021771 0.2512495 0.23383766
-0.1000345 -0.8135307 0.22124693 -0.28588372 0.62516576 -0.41986513 -0.2704393 -0.11391244
0.26997843 0.022081621 -0.26619422 -0.673811 0.2548257 0.27018294 0.023725158 -0.089896195
-0.348527 -0.33044437 -0.08646059 0.07491153 0.40877458 -0.091063075 -0.02446477 0.38462165
-0.6491826 0.1847532 -0.37154275 -0.7331126 -0.06746113 0.10430712 -0.0058349455 0.12099731
0.23930833 0.055811122 0.028870808 -0.07163149 -0.37226936 -0.32317883 0.08302729 -0.231717
-0.035496157 -0.59185725 -0.27459037 -0.014635871 -0.14986153 -0.13413373 0.3429363 -0.32763067
-0.046505246 -0.16938472 0.18181564 0.1651968 0.034396753 0.22421385 -0.08789398 -0.051541112
-0.006840854 -0.1272462 0.45256305 0.0012027805 -0.11598965 -0.038119607 -0.121007614 -0.06349758
-0.08660888 0.47990215 -0.838597 -0.9871725 -0.6503021 -2.3295317 0.029029708 -0.03415897
0.047312763 0.0072969054 0.0424949 0.017881308 -0.053550735 0.07831445 -0.1123506 -0.0232397
-0.008483294 -0.00060674356 -0.024647778 0.31997883 0.18014689 0.020347998 0.046364255 0.2267241
0.10663089 0.14975734 0.14695063 -0.052847747 0.08328298 0.15981339 0.304843 0.002074923
0.020965375 -0.069115944 0.031791218 0.089882426 0.12415649 0.356597 0.35094762 0.095094286
-0.24065402 -0.67981136 -1.9218314 -0.07876241 0.096978724 -0.071652666 0.0050705047 0.041806888
0.072048895 0.16700257 -0.1710978 0.15997575 0.24832264 0.112236306 -0.0526128 0.30214405
0.022196745 0.13419822 -0.13044344 0.123976745 0.07706578 0.22437122 0.1629111 -0.06536209
0.070114344 -0.21064529 0.41280907 0.3126423 0.043072496 0.013802444 0.5233762 -0.21190733
-0.42202225 -0.73475176 -0.231432 -0.8241378 -0.3833237 0.30772963 -0.07137789 0.021181663
-0.0638868 0.042061966 0.081022225 -0.73455966 0.13680935 -0.5722822 -0.5469047 0.30561605
0.22091673 0.22946638 0.0038182992 -0.29634622 0.12254082 -0.57874376 -0.01613265 0.006530337
-0.22802886 -0.017762594 -0.728812 0.18851031 0.20204352 0.08007039 -0.23293962 -0.5332329
00000000: 7185 c93e 6d48 2abf b85e 12bf 3acd 46bf
00000010: 4573 31c0 9349 893d 7c45 813d 07bd 8e3d
00000020: a131 263e 5dd4 e63d 0111 0abe f708 56bd
00000030: 2a7c febc 76af 7ebd dfc0 263e 1f64 0c3d
00000040: 7975 5f3d da22 8d3c fbec 6f3e 1dd1 423e
00000050: 2046 be3d ede2 0f3e 3b59 d93d c9a6 083e
00000060: 58fb 1f3d b2d9 83bd 0793 a9bb 85bc 783c
00000070: 2d8b 27bd 28d2 b13b 699f 293d f3e1 cfbc
00000080: 11f4 9e3b f579 fc3c 575b 863d b43b e439
00000090: f7cb 053c 1aa5 a13e a414 4a3e c00f 46be
000000a0: e9b5 453c 1f8d acbe 1553 333e 50f8 e9bd
000000b0: 6146 00bd c320 83bf 03e6 80bf 69e1 b93d
000000c0: d84c b6bd cabe 4d3d bd69 463e e47e be3d
000000d0: dcca 4b3e 4b4e fb3c 8c38 d63c 9dea 883d
000000e0: 4f4d c9be a92b 8d3d 4663 cbbd 465b 22be
000000f0: 5ad6 873d 710f 823e eec1 48be 769c 47be
00000100: 433d e73e ec36 723c 113c 5c3c 775c 423d
00000110: 3ba4 ca3c 551b 053e 02fc 943e fae6 853e
00000120: a52e 993c 0a4d aebc 763d 643e da5f 8c3e
00000130: 3c58 7abe da51 9fbe 2a0f fa3d 9fd8 683d
00000140: 5675 e1be 3392 74bc 0959 eb3e 193e 05bf
00000150: ebdf 41be 4728 1abf c6a3 803e 2473 6f3e
00000160: e3de ccbd 8c43 50bf 8e8e 623e 5a5f 92be
00000170: dd0a 203f 90f8 d6be 0577 8abe ed4a e9bd
00000180: 9d3a 8a3e 84e4 b43c 9c4a 88be e17e 2cbf
00000190: 8478 823e 6b55 8a3e 435b c23c 7f1b b8bd
000001a0: 2272 b2be 0130 a9be 4012 b1bd 376b 993d
000001b0: e74a d13e 477f babd 576a c8bc 21ed c43e
000001c0: d530 26bf f12f 3d3e da3a bebe 44ad 3bbf
000001d0: 1029 8abd f99e d53d 1233 bfbb 70cd f73d
000001e0: 3e0d 753e 349a 643d 7982 ec3c 88b3 92bd
000001f0: 179a bebe b277 a5be 360a aa3d 3947 6dbe
00000200: 6b64 11bd f583 17bf 1c97 8cbe 4bcb 6fbc
00000210: 4d75 19be 5a5a 09be 5995 af3e 35bf a7be
00000220: 497c 3ebd 3073 2dbe e12d 3a3e 5a29 293e
00000230: 9ce3 0c3d 5198 653e c201 b4bd c61c 53bd
00000240: 3e29 e0bb d44c 02be 58b6 e73e 9ea6 9d3a
00000250: fb8b edbd 4e23 1cbd d7d2 f7bd 050b 82bd
00000260: ff5f b1bd bcb5 f53e 4bae 56bf 56b7 7cbf
00000270: 337a 26bf 0c17 15c0 b6cf ed3c 47ea 0bbd
00000280: 07cb 413d e11a ef3b 220f 2e3d d27b 923c
00000290: 0458 5bbd 5463 a03d 1218 e6bd 2f61 bebc
000002a0: 84fd 0abc df0d 1fba 23ea c9bc 44d4 a33e
000002b0: 6d78 383e d8b0 a63c 72e8 3d3d 5d2a 683e
000002c0: 4c61 da3d fd59 193e 3a7a 163e e176 58bd
000002d0: 4490 aa3d 1fa6 233e 6214 9c3e 6efb 073b
000002e0: 94bf ab3c a98c 8dbd 8237 023d 4714 b83d
000002f0: c245 fe3d e293 b63e 68af b33e cbc0 c23d
00000300: 026e 76be 1e08 2ebf 92fe f5bf 304e a1bd
00000310: c89c c63d a2be 92bd 7a26 a63b b33d 2b3d
00000320: 5f8e 933d b902 2b3e 4334 2fbe afd0 233e
00000330: 4a48 7e3e 26dc e53d 8580 57bd a0b2 9a3e
00000340: f3d5 b53c 426b 093e f792 05be 85e7 fd3d
00000350: aad4 9d3d 92c1 653e 2bd2 263e 8fdc 85bd
00000360: 1c98 8f3d 66b3 57be b65b d33e a712 a03e
00000370: c96c 303d a523 623c fcfb 053f 3cfe 58be
00000380: 4d13 d8be b118 3cbf 83fc 6cbe b2fa 52bf
00000390: 0143 c4be bd8e 9d3e 922e 92bd 2b85 ad3c
000003a0: 15d7 82bd 2b49 2c3d fbee a53d 1a0c 3cbf
000003b0: c017 0c3e 1681 12bf f201 0cbf b579 9c3e
000003c0: ff37 623e 3cf9 6a3e 6e3c 7a3b b1ba 97be
000003d0: aef6 fa3d 8d28 14bf 9f28 84bc 70fc d53b
000003e0: 6680 69be dc82 91bc 6c93 3abf d908 413e
000003f0: 7fe4 4e3e f2fb a33d b987 6ebe f481 08bf

hidden_layers.0.bias f4 [64]
0.14644791 0.05563317 -0.061559666 -0.08329773 0.26303914 -0.0046690623 -0.097779885 -0.058057424
-0.07665369 -0.20821811 0.14312977 0.2635255 0.15829672 0.088052094 -0.22575338 0.011587068
0.052477073 0.029690834 0.034878694 -0.10768973 -0.17268354 0.04273681 0.053947996 0.07525278
-0.102675945 0.212932 0.06791719 -0.27421796 0.15582329 0.013048611 -0.10258245 -0.1302561
0.05200609 0.06049404 -0.11212312 0.15844479 -0.038121745 0.03614038 0.005856297 -0.0038067715
-0.11864709 -0.066153415 -0.118584454 0.0936745 0.033930764 -0.090953246 -0.004748163 -0.2383185
-0.14543305 0.054250095 -0.14097019 0.19052938 -0.07408584 -0.14749032 -0.15744144 0.0017159552
0.18893923 0.05003309 0.008201647 -0.13683327 -0.01915811 -0.011918441 0.017613832 -0.039451417
00000000: 71f6 153e 9bdf 633d fd25 7cbd 0098 aabd
00000010: 11ad 863e effe 98bb d240 c8bd 9fcd 6dbd
00000020: 9cfc 9cbd 2137 55be 9c90 123e d0ec 863e
00000030: 8918 223e a854 b43d e52b 67be b0d7 3d3c
00000040: 33f2 563d 313a f33c f6dc 0e3d 6f8c dcbd
00000050: f4d3 30be cb0c 2f3d 93f8 5c3d 211e 9a3d
00000060: c447 d2bd d90a 5a3e 2b18 8b3d 4c66 8cbe
00000070: 2490 1f3e d7c9 553c bf16 d2bd db61 05be
00000080: 5604 553d 99c8 773d cea0 e5bd 5a3f 223e
00000090: 8c25 1cbd ef07 143d 2ee6 bf3b 077b 79bb
000000a0: 3ffd f2bd 717b 87bd 68dc f2bd 6bd8 bf3d
000000b0: fcfa 0a3d b245 babd 7a96 9bbb c409 74be
000000c0: 67ec 14be 5935 5e3d 7d5a 10be 221a 433e
000000d0: 51ba 97bd b407 17be 5438 21be e7e9 e03a
000000e0: 4979 413e 7fef 4c3d 3360 063c 051e 0cbe
000000f0: 78f1 9cbc 9145 43bc e24a 903c cf97 21bd

hidden_layers.1.weight f4 [128, 64]
-0.4476814 0.44413272 0.29471892 0.21901149 0.0635012 -0.08473352 -0.029907005 -0.16369781
0.09069532 -0.17997287 0.11037977 -0.4518672 -0.46139237 -0.18303141 -0.13958175 -0.33136174
-0.11258566 -0.47998288 -0.15260428 0.18904127 -0.4478574 -0.47704 0.2896066 -0.5227072
0.042330276 0.27516574 0.075375736 0.149691 0.058441624 0.22913668 0.18939267 -0.27689776
0.14409696 0.203514 -0.1727479 -0.11370148 0.028503919 0.24362764 -0.069925055 -0.13907033
-0.06079581 0.12969826 0.48156643 -0.017287718 0.05719809 0.09424796 -0.15883909 0.3037932
-0.19442758 0.12186029 -0.34720063 -0.12316131 -0.091588624 -0.07721837 -0.16376914 -0.07006935
0.07911881 -0.12969424 0.09815541 0.094321884 0.27284455 0.25589088 -0.1403324 -0.5578289
-0.15847072 0.03420277 0.022153635 0.3814079 -0.013540658 -0.22345671 0.010879985 -0.011845668
-0.13303177 -0.29602447 -0.3014818 0.018890206 -0.025388405 0.0008456611 -0.19537684 -0.34795174
-0.09907165 -0.042687926 0.19332364 0.055388026 0.09266074 -0.25680262 -0.14607345 -0.30341995
-0.09846017 0.0076156673 -0.2972203 -0.10404206 0.13886945 -0.32910505 0.049781196 0.32582977
-0.35967848 -0.012650236 0.1010476 -0.36360005 -0.033970073 -0.14381623 0.44697878 -0.12571222
-0.28068784 0.09914658 -0.3193019 -0.27336428 0.0112707345 0.11677473 -0.30812863 0.0039593508
-0.14976329 -0.18942119 0.10335254 0.10885442 -0.8669899 0.17975116 0.05481843 0.27795035
-0.13562699 -0.21719283 0.21615644 -0.2962787 -0.26206386 0.04179705 -0.42059532 0.14787616
-0.13582067 0.11910185 -0.0727662 0.23108692 -0.041922826 -0.1492013 -0.002143545 0.061109748
-0.013370044 -0.027286341 0.21232368 -0.0487274 -0.09551923 0.034824643 0.057752714 -0.118490376
-0.03204331 -0.18641606 -0.016723095 0.20308562 0.04624481 -0.13689113 -0.27000716 0.06030107
-0.08533073 0.8624856 0.27227846 0.14671342 0.11280311 0.009753431 0.010966948 -0.0807312
-0.14204825 0.017528424 -0.059475813 0.11918611 0.04224667 -0.0054824003 0.637056 -0.20962904
0.1988489 -0.25029346 0.14613423 -0.16621369 0.15230413 -0.094797686 0.14145747 0.013529808
0.034490656 -0.35884303 -0.27695256 -0.0653305 0.041212887 -0.22898333 0.047973596 -0.22896376
0.21089292 -0.16724993 -0.0674644 0.06750917 -0.089701794 -0.014266785 0.05099698 -0.16703261
-0.16912797 -0.2678897 -0.33859003 -0.5965739 -0.055924226 -0.0025598835 -0.51009476 0.18037266
-0.11611829 0.030994618 0.10833585 0.096756674 0.10168666 0.13263966 -0.29751197 -0.5245843
-0.05796753 -0.134438 0.03356547 -0.5141007 -0.41656154 -0.54438573 0.036408197 -0.3883236
-0.07604045 0.2946862 0.009025093 0.03177265 0.12793678 -0.24835674 0.25111723 -0.23343943
-0.40731046 -0.006313669 0.3813707 0.5292454 -0.1657699 0.14926405 -0.19054739 0.03798062
0.16728614 -0.23629655 0.04647349 0.10313081 -0.31314337 0.08323084 -0.06271482 -0.04780415
-0.50195867 -0.14468326 -0.60108024 0.012054334 0.14136258 -0.55675566 -0.5615722 0.11754594
0.08039485 -0.35082316 0.025621183 -0.019596364 0.09227457 -0.27335817 -0.95130235 -0.359373
00000000: 7f36 e5be 5d65 e33e 66e5 963e 8c44 603e
00000010: eb0c 823d c588 adbd 89ff f4bc 66a0 27be
00000020: 78be b93d cf4a 38be ca0e e23d 235b e7be
00000030: 9f3b ecbe 966c 3bbe 85ee 0ebe 3fa8 a9be
00000040: 4f93 e6bd 51c0 f5be 4c44 1cbe 0994 413e
00000050: 914d e5be 963e f4be 5147 943e 24d0 05bf
00000060: 8362 2d3d 86e2 8c3e 985e 9a3d 9948 193e
00000070: 7c60 6f3d cea2 6a3e 27f0 413e 8bc5 8dbe
00000080: 278e 133e f965 503e d3e4 30be 52dc e8bd
00000090: 0d81 e93c 8679 793e de34 8fbd 7468 0ebe
000000a0: 0705 79bd 9fcf 043e e08f f63e f99e 8dbc
000000b0: 8b48 6a3d 1305 c13d b7a6 22be c88a 9b3e
000000c0: 0618 47be e391 f93d 48c4 b1be ff3b fcbd
000000d0: d192 bbbd aa24 9ebd 19b3 27be 8580 8fbd
000000e0: 0b09 a23d 91ce 04be b405 c93d d52b c13d
000000f0: 48b2 8b3e 2104 833e 4cb3 0fbe e0cd 0ebf
00000100: 2646 22be 3418 0c3d 8a7b b53c e547 c33e
00000110: a3d9 5dbc d6d1 64be f741 323c 5514 42bc
00000120: 7b39 08be 8590 97be d35b 9abe a2bf 9a3c
00000130: 58fb cfbc 5baf 5d3a de10 48be bb26 b2be
00000140: 14e6 cabd 89d9 2ebd a2f6 453e 8ede 623d
00000150: eac4 bd3d a27b 83be 4794 15be dc59 9bbe
00000160: 7ca5 c9bd d98c f93b 422d 98be 0114 d5bd
00000170: cb33 0e3e 7580 a8be 5ee7 4b3d 29d3 a63e
00000180: c727 b8be ef42 4fbc 0bf2 ce3d c929 babe
00000190: 3424 0bbd 9044 13be 67da e43e b4ba 00be
000001a0: 51b6 8fbe 5d0d cb3d 8a7b a3be 67f6 8bbe
000001b0: e3a8 383c 9727 ef3d 09c3 9dbe 71bd 813b
000001c0: 8c5b 19be a1f7 41be 7faa d33d 11ef de3d
000001d0: 0df3 5dbf b010 383e 4a89 603d 824f 8e3e
000001e0: cde1 0abe cc67 5ebe 1d58 5d3e d7b1 97be
000001f0: 3c2d 86be 6233 2b3d 4558 d7be d96c 173e
00000200: 9314 0bbe aceb f33d 7206 95bd 0da2 6c3e
00000210: 45b7 2bbd 3ac8 18be b87a 0cbb 374e 7a3d
00000220: 070e 5bbc 9b87 dfbc 616b 593e 6296 47bd
00000230: 969f c3bd 49a4 0e3d 1c8e 6c3d 15ab f2bd
00000240: d93f 03bd dae3 3ebe dffe 88bc adf5 4f3e
00000250: 336b 3d3d 302d 0cbe 613e 8abe 41fe 763d
00000260: e1c1 aebd dbcb 5c3f 1568 8b3e 0b3c 163e
00000270: 5105 e73d dbcc 1f3c b7ae 333c 6656 a5bd
00000280: 1975 11be c597 8f3c e99c 73bd d917 f43d
00000290: d80a 2d3d b5a5 b3bb 1a16 233f ffa8 56be
000002a0: 0c9f 4b3e 7726 80be 36a4 153e ec33 2abe
000002b0: 9df5 1b3e 4a25 c2bd 3ada 103e 21ac 5d3c
000002c0: 1346 0d3d 46ba b7be bacc 8dbe ffcb 85bd
000002d0: d8ce 283d 9b7a 6abe f67f 443d 7a75 6abe
000002e0: 50f4 573e 9143 2bbe c62a 8abd 3f42 8a3d
000002f0: 93b5 b7bd 3cbf 69bc 36e2 503d 990a 2bbe
00000300: e22f 2dbe d728 89be ac5b adbe 11b9 18bf
00000310: cd10 65bd b8c3 27bb 9295 02bf 9cb3 383e
00000320: 6dcf edbd 6de8 fd3c 30df dd3d 5d28 c63d
00000330: 1841 d03d b1d2 073e 7d53 98be 284b 06bf
00000340: 5c6f 6dbd 1daa 09be f27b 093d 1a9c 03bf
00000350: 8e47 d5be dd5c 0bbf c320 153d 5ad2 c6be
00000360: 18bb 9bbd 1ce1 963e fcdd 133c 0a24 023d
00000370: dc01 033e 3b51 7ebe 7092 803e bf0a 6fbe
00000380: ff8a d0be e5e2 cebb 0543 c33e a07c 073f
00000390: 96bf 29be add8 183e db1e 43be 9191 1b3d
000003a0: 0f4d 2b3e b9f7 71be fc5a 3e3d 3f36 d33d
000003b0: 5454 a0be ee74 aa3d a170 80bd 49ce 43bd
000003c0: 5d80 00bf d927 14be 65e0 19bf 8b7f 453c
000003d0: 5ac1 103e 8a87 0ebf 32c3 0fbf edbb f03d
000003e0: 0ea6 a43d 189f b3be 84e3 d13c 8e88 a0bc
000003f0: 73fa bc3d 9af5 8bbe 8d88 73bf bdff b7be

hidden_layers.1.bias f4 [128]
-0.07455111 -0.056590717 -0.0106586395 -0.12688294 0.16683461 0.07062744 0.013379933 -0.15340854
0.019913146 0.19099745 -0.06821851 -0.111483 -0.15170215 -0.17990527 -0.008691247 -0.15132578
-0.07822059 0.04070534 0.24191505 -0.086676635 0.01962881 -0.18469128 0.21092814 -0.0034236812
-0.21941285 -0.12542406 0.18525657 0.21823525 -0.0752421 0.09696987 0.0048036654 -0.16725257
-0.034246013 0.19812296 -0.015493358 -0.018902231 -0.19615655 -0.084723 -0.13946922 -0.12983297
0.13556023 0.017758284 0.02631571 -0.08401059 0.097816594 -0.16944364 -0.05862418 -0.05021389
-0.018092923 -0.2357808 0.13231905 -0.12814501 0.27163276 -0.054766804 -0.15089628 0.43266445
-0.03163382 -0.13986424 0.12022856 0.0001523671 -0.14804445 0.06949861 0.073119745 0.033608176
-0.061036963 -0.042119343 0.25603807 -0.17511632 0.11671183 0.042362913 0.025623102 0.15235011
-0.03858096 0.27389696 0.10098976 -0.087589785 -0.086655214 -0.08969166 -0.08416023 -0.02923677
-0.20026477 0.23989187 0.038156036 0.1686062 -0.033012666 0.027665166 -0.114425614 -0.01859767
-0.11265866 0.004767945 -0.16335958 -0.023764104 0.033004086 -0.03841386 -0.012367167 -0.006707574
-0.0075338734 0.032347362 0.046321023 -0.152171 -0.24695 0.24070874 0.0756906 -0.12664473
0.0017497736 0.064361475 0.017812604 -0.026106253 -0.12044934 0.019791055 -0.13384934 0.011818375
-0.06294173 0.096285515 -0.05965503 0.15305822 0.013881367 -0.08685291 0.10054361 0.088369764
0.03614299 -0.1578328 0.14643548 -0.17741321 -0.09085974 -0.072001435 -0.1489312 0.08568124
00000000: 41ae 98bd abcb 67bd 93a1 2ebc 9aed 01be
00000010: b1d6 2a3e 1fa5 903d 8237 5b3c 2117 1dbe
00000020: e520 a33c d694 433e 25b6 8bbd 3351 e4bd
00000030: cf57 1bbe 1639 38be bb65 0ebc 25f5 1abe
00000040: 1e32 a0bd a5ba 263d 94b8 773e 8583 b1bd
00000050: 99cc a03c b61f 3dbe 8cfd 573e d75f 60bb
00000060: c3ad 60be 2a6f 00be e6b3 3d3e 1079 5f3e
00000070: 8818 9abd 2498 c63d 1168 9d3b 4244 2bbe
00000080: 8c45 0cbd bfe0 4a3e dad7 7dbc dad8 9abc
00000090: 43dd 48be 4183 adbd 05d1 0ebe eff2 04be
000000a0: 4dd0 0a3e d279 913c 0b94 d73c bf0d acbd
000000b0: 1154 c83d a282 2dbe e81f 70bd 14ad 4dbd
000000c0: 9c37 94bc 8670 71be a57e 073e 7238 03be
000000d0: 7313 8b3e 2853 60bd 8e84 1abe 3286 dd3e
000000e0: 7792 01bd 9238 0fbe 643a f63d bbc4 1f39
000000f0: f798 17be 4a55 8e3d cebf 953d baa8 093d
00000100: e501 7abd 5585 2cbd 6c17 833e b151 33be
00000110: 9d06 ef3d bc84 2d3d 8ae7 d13c ab01 1c3e
00000120: 1207 1ebd 393c 8c3e b8d3 ce3d 4662 b3bd
00000130: 4a78 b1bd 43b0 b7bd 335c acbd f381 efbc
00000140: 3512 4dbe 37a6 753e 8149 1c3d 1ba7 2c3e
00000150: 4a38 07bd 0fa2 e23c fa57 eabd 245a 98bc
00000160: 95b9 e6bd 6c3c 9c3b bc47 27be f0ac c2bc
00000170: 4b2f 073d da57 1dbd a89f 4abc 35cb dbbb
00000180: b6de f6bb ab7e 043d 1dbb 3d3d b7d2 1bbe
00000190: 76e0 7cbe 5a7c 763e ac03 9b3d 28af 01be
000001a0: a958 e53a f3cf 833d bdeb 913c c8dc d5bc
000001b0: 25ae f6bd da20 a23c cd0f 09be dca1 413c
000001c0: 98e7 80bd 5731 c53d d558 74bd 4bbb 1c3e
000001d0: ac6e 633c f0df b1bd cfe9 cd3d 35fb b43d
000001e0: ac0a 143d ec9e 21be 2ff3 153e cfab 35be
000001f0: ac14 babd 7d75 93bd 6c81 18be a579 af3d

hidden_layers.2.weight f4 [64, 128]
-0.051946864 0.23906511 0.098385185 0.3365112 -0.3818859 0.4126149 0.01553015 -0.108107194
-0.45140442 -0.11981273 -0.06852449 -0.035288006 -0.5229155 0.030620955 0.07542255 -0.11820873
-0.027104218 -0.33612835 -0.096614055 0.1485864 0.07545712 0.0672207 -0.3039528 0.09950326
-0.46377358 0.31926712 0.114572085 -0.041184966 -0.26361254 0.08461716 -0.00676155 0.110276684
-0.08539227 -0.36921728 -0.13576783 -0.1033235 -0.5813882 0.24084683 -0.8338353 0.0897909
0.05466194 0.1830928 -0.33936042 -0.24844967 0.089014865 0.040786363 0.21826142 0.011668039
-0.09326227 -0.22534488 -0.1967185 0.30443296 0.016214859 0.25691003 0.081188 0.08160444
-0.671256 -0.07041832 0.029787688 -0.37094823 -0.11621703 -0.64223474 -0.0521036 -0.5559481
0.2643616 -0.091035984 0.0631376 0.105578534 -0.20794249 -0.05599018 -0.30708602 -0.105658665
0.09537017 0.059554808 0.36544597 -0.0016293285 -0.5302726 0.36701837 -0.08482363 0.09856218
0.20913327 0.040868368 -0.3821416 -0.2424794 0.005915469 0.07736426 0.058623765 -0.19871002
-0.082161665 0.43784985 0.04672921 -0.21743295 -0.39166316 0.27538893 -0.16428669 -0.38902587
-0.20422992 0.05491131 0.12128729 -0.11177888 -0.20786172 0.09799896 -0.023793364 -0.040907767
-0.45262143 0.12233304 0.14191909 0.13014296 -0.1569601 0.2132496 -0.40459245 -0.16347359
-0.17500588 -0.16902092 0.09222755 -0.10954629 0.28952253 0.07272175 -0.41580474 -0.087261245
-0.10937454 -0.017479198 0.05836877 -0.06830322 -0.97875226 0.25292912 -0.60642505 0.32251135
0.23964056 -0.052842367 0.12926212 0.19816986 -0.076612405 0.28337008 -0.10990276 0.008296152
-0.05373405 0.15105382 0.03924688 0.061970007 0.065754205 0.08203706 -0.1187519 0.38588876
-0.0134109575 -0.11048696 0.27607372 0.025565393 0.086980045 -0.054426555 0.1899226 -0.06008127
-0.020123713 0.040497698 0.0230002 -0.07555382 -0.065751866 -0.22811107 0.13369246 0.36111256
0.14462623 -0.09011985 0.0607442 0.64373904 0.2599803 0.15645696 -0.06548563 0.1461622
0.20644948 -0.48553896 0.17232472 0.03729704 0.15689938 0.14367019 0.15680279 -0.11595561
0.044035926 -0.30358064 0.13495228 -0.059910793 0.09274405 0.20039192 -0.12646823 0.1698939
0.057018936 0.006894911 0.28160945 0.041716624 0.14550388 -0.036864437 -0.13556546 -0.049072128
0.04807488 0.22940838 0.17971326 0.2020968 -0.09274132 0.025386484 -0.0581737 -0.035644412
-0.120624386 0.115524486 -0.030884998 -0.16138923 -0.27928293 0.08655508 0.02705941 -0.2550408
-0.08983549 0.13224296 0.031818647 0.049009103 0.11466449 -0.10326977 0.23538613 0.013787401
0.38029072 -0.3253215 -0.06934306 0.10797882 -0.10415762 0.16359112 0.044109527 -0.13024415
0.13295506 -0.021208564 0.15671957 -0.1904846 0.18330428 0.05102169 0.15140752 0.23170355
0.02062911 -0.13446341 -0.112935334 0.25323042 0.14029878 0.025030987 0.34548894 0.121459864
0.096075006 -0.21979812 -0.23170708 0.11436374 0.20418802 -0.29011893 0.45584854 0.09629889
-0.01794122 -0.21010737 0.2498501 -0.23706773 0.03137828 0.21800362 0.035456073 -0.028114839
00000000: 3cc6 54bd 7ccd 743e 2c7e c93d 324b ac3e
00000010: 8c86 c3be 4342 d33e 2c72 7e3c 4e67 ddbd
00000020: 7b1e e7be 6060 f5bd 9156 8cbd 288a 10bd
00000030: cadd 05bf ccd8 fa3c 2377 9a3d 6b17 f2bd
00000040: aa09 debc 0419 acbe 97dd c5bd 0927 183e
00000050: 4389 9a3d 02ab 893d b49f 9bbe 5dc8 cb3d
00000060: bb73 edbe fb76 a33e c5a4 ea3d 91b1 28bd
00000070: 39f8 86be c34b ad3d fe8f ddbb bed8 e13d
00000080: 24e2 aebd 0c0a bdbe b906 0bbe 459b d3bd
00000090: dbd5 14bf 8da0 763e 3b76 55bf 4be4 b73d
000000a0: 33e5 5f3d ae7c 3b3e a6c0 adbe 9769 7ebe
000000b0: 6d4d b63d 9a0f 273d ec7f 5f3e 4d2b 3f3c
000000c0: 4a00 bfbd cfc0 66be 9370 49be a3de 9b3e
000000d0: 06d5 843c b689 833e e545 a63d 3b20 a73d
000000e0: 6fd7 2bbf 7b37 90bd 4f05 f43c edec bdbe
000000f0: 3203 eebd 7f69 24bf 966a 55bd 9d52 0ebf
00000100: 675a 873e 1371 babd 494e 813d 8f39 d83d
00000110: e0ee 54be f555 65bd 613a 9dbe 9263 d8bd
00000120: 7051 c33d beef 733d bc1b bb3e 318f d5ba
00000130: f2bf 07bf d5e9 bb3e 03b8 adbd f8da c93d
00000140: 0827 563e 9765 273d 10a8 c3be 854c 78be
00000150: 8dd6 c13b 2771 9e3d 791f 703d a47a 4bbe
00000160: 6044 a8bd db2d e03e 2167 3f3d bea6 5ebe
00000170: 1388 c8be c7ff 8c3e c53a 28be 662e c7be
00000180: a621 51be afea 603d 7865 f83d 53ec e4bd
00000190: b4d9 54be aeb3 c83d 4dea c2bc e78e 27bd
000001a0: ffbd e7be bf89 fa3d 3d53 113e 3244 053e
000001b0: 26ba 20be 1a5e 5a3e be26 cfbe 9f65 27be
000001c0: be34 33be d213 2dbe cce1 bc3d ce59 e0bd
000001d0: 4c3c 943e 24ef 943d 5ce4 d4be 06b6 b2bd
000001e0: c2ff dfbd 8930 8fbc 1714 6f3d 8fe2 8bbd
000001f0: 828f 7abf ed7f 813e ac3e 1bbf 3520 a53e
00000200: 5664 753e 3d71 58bd 4a5d 043e 0aed 4a3e
00000210: f7e6 9cbd e215 913e b314 e1bd 95ec 073c
00000220: 3c18 5cbd daad 1a3e 56c1 203d 43d4 7d3d
00000230: 24aa 863d 0c03 a83d 3234 f3bd 3693 c53e
00000240: a2b9 5bbc fd46 e2bd 8959 8d3e 846e d13c
00000250: 9822 b23d 61ee 5ebd 127b 423e c717 76bd
00000260: 7cda a4bc eae0 253d ea6a bc3c f6bb 9abd
00000270: eaa8 86bd f395 69be ade6 083e bfe3 b83e
00000280: e618 143e c290 b8bd e9ce 783d 15cc 243f
00000290: 231c 853e 4136 203e 541d 86bd 8bab 153e
000002a0: 7e67 533e 9098 f8be e475 303e c8c4 183d
000002b0: 3baa 203e 471e 133e e990 203e 237a edbd
000002c0: 045f 343d ec6e 9bbe ee30 0a3e 0565 75bd
000002d0: 98f0 bd3d 8a33 4d3e e380 01be abf8 2d3e
000002e0: b08c 693d b5ee e13b 1d2f 903e 0ddf 2a3d
000002f0: f8fe 143e 2aff 16bd acd1 0abe dbff 48bd
00000300: 2aea 443d 08ea 6a3e c106 383e 77f2 4e3e
00000310: 29ef bdbd 51f7 cf3c 8c47 6ebd e0ff 11bd
00000320: eb09 f7bd 1a98 ec3d 8902 fdbc 3843 25be
00000330: 2cfe 8ebe ca43 b13d b2ab dd3c b594 82be
00000340: abfb b7bd b36a 073e 4554 023d c5bd 483d
00000350: 37d5 ea3d 1a7f d3bd 1009 713e 8de4 613c
00000360: 77b5 c23e 8a90 a6be bc03 8ebd 0024 dd3d
00000370: 9750 d5bd 6e84 273e 31ac 343d b95e 05be
00000380: 5f25 083e 95bd adbc 187b 203e 650e 43be
00000390: 1eb4 3b3e 1ffc 503d 930a 1b3e b243 6d3e
000003a0: 61fe a83c c7b0 09be a44a e7bd 6ba7 813e
000003b0: 7caa 0f3e c90d cd3c ede3 b03e f3bf f83d
000003c0: f9c2 c43d c212 61be 9f44 6dbe 8937 ea3d
000003d0: aa16 513e 788a 94be fb64 e93e 5a38 c53d
000003e0: 77f9 92bc 6326 57be b4d8 7f3e e2c1 72be
000003f0: 8386 003d 573c 5f3e 633a 113d 1751 e6bc

hidden_layers.2.bias f4 [64]
-0.08404212 0.6316314 0.21369211 0.63780916 0.11148964 0.12276827 0.17601521 -0.06812321
0.012969381 0.21539752 0.066338964 0.2573898 0.7797043 -0.30822173 -0.11705928 0.087166406
0.2548878 -0.0015067429 0.113448255 -0.008165837 0.005420397 -0.14771888 0.08906264 0.39827347
-0.14038204 -0.041039355 -0.36368576 0.71981496 0.48594084 0.5801349 0.24941118 -0.14285558
0.16220158 -0.12758148 -0.3499653 -0.27333727 -0.25320017 -0.32970116 -0.008887241 -0.19184726
-0.12694436 0.2514458 -0.14600104 0.43850362 0.39952588 -0.12041932 -0.11081045 0.08406264
-0.24852778 -0.18087274 -0.13403161 -0.0514112 0.114559434 0.18737462 0.26774475 -0.12975918
-0.21864773 -0.100477904 0.053828273 0.11569667 -0.08652511 0.7558293 0.00066585036 0.24083537
00000000: 461e acbd 98b2 213f 1bd2 5a3e 7647 233f
00000010: ae54 e43d ee6d fb3d 553d 343e 2e84 8bbd
00000020: 877d 543c 2b91 5c3e b9dc 873d 99c8 833e
00000030: b39a 473f 3dcf 9dbe c7bc efbd 4d84 b23d
00000040: a780 823e e77d c5ba 8f57 e83d 01ca 05bc
00000050: 969d b13b 9e43 17be 7966 b63d 80ea cb3e
00000060: 4fc0 0fbe e218 28bd 0535 babe cb45 383f
00000070: 3dcd f83e b983 143f a565 7f3e bc48 12be
00000080: 2c18 263e b8a4 02be a72e b3be ddf2 8bbe
00000090: 74a3 81be 97ce a8be ca9b 11bc 9c73 44be
000000a0: b4fd 01be 81bd 803e 4c81 15be 8c83 e03e
000000b0: a88e cc3e 689e f6bd 97f0 e2bd 0929 ac3d
000000c0: 117e 7ebe b436 39be 953f 09be 8d94 52bd
000000d0: 239e ea3d 22df 3f3e d715 893e 97df 04be
000000e0: 31e5 5fbe 5cc7 cdbd 097b 5c3d 60f2 ec3d
000000f0: 1434 b1bd 077e 413f 768c 2e3a 8c9d 763e

output.weight f4 [4, 64]
0.18183468 -0.31451824 0.03468749 -0.062749416 -0.11414405 -0.21185383 0.12964797 -0.3494233
0.16086988 0.09463915 -0.35489577 -0.09676489 -0.1990325 -0.008709112 0.48445398 0.10053182
-0.09496124 0.43100306 -0.13689059 0.2648399 0.21220371 0.14492118 -0.5941627 -0.02599103
-0.3753427 0.14410211 0.057971057 -0.09093599 -0.10846995 -0.09040257 0.0031697394 -0.19208875
-0.045901995 -0.02907613 -0.44525936 -0.9129272 -0.0018283116 -0.20030606 0.3309168 -0.12021148
-0.020360807 -0.0044143014 -0.24909754 -0.1913366 -0.02441283 -0.15451013 -0.18218671 0.06216756
-0.6042939 0.046099346 -0.1499832 0.0854951 0.68468815 -0.040977877 -0.3018484 -0.025546266
-0.28368077 0.25663725 -0.07985802 0.038635824 0.11330726 -0.08073565 0.20735976 0.009572115
0.100402564 -0.12064799 -0.10154172 -0.17422758 -0.13287254 0.0847665 0.031454258 -0.041387152
0.179011 0.18839543 0.12102693 -0.09833696 -0.07401801 -0.029232036 0.26650956 -0.022754693
-0.009125693 0.25112525 0.015698818 0.105834305 -0.03867373 0.05548853 0.2474855 0.052395295
0.48421565 -0.22537138 0.16908082 -0.22041644 -0.06845952 -0.07585274 -0.11098354 -0.13891378
0.16180196 -0.06427792 -0.2506195 -0.2084661 -0.03130582 0.10354433 0.6734825 -0.18756561
0.034511518 0.024675537 0.4773132 -0.059196174 -0.09503633 -0.26533592 -0.16204627 -0.30846837
0.22318067 0.07340162 0.2621263 0.0027181562 -0.25408572 0.07724961 -0.14716981 0.12946555
0.0933654 0.30507478 -0.004065825 -0.15711431 -0.06694399 -0.058874555 0.027090386 0.13635483
-0.4007075 -0.14409886 -0.6538325 -0.07784156 -0.012992492 -0.3657264 0.02695563 -0.28136668
0.4152194 -0.1196112 -0.008825857 0.12722048 -0.10481782 0.14016958 -0.23175722 -0.25950795
0.040262785 0.59374076 0.08205679 0.57307315 -0.16456616 -0.13165574 0.17070223 0.1403918
0.43634912 0.06592421 0.4929451 -0.23795609 -0.09151238 -0.26463938 -0.022086391 -0.1473594
0.15101965 0.062349528 -0.13657677 -0.49409905 -0.09456625 -0.027342241 -1.0184697 0.1271249
-0.29540336 0.033444338 0.07948526 0.038533323 -0.03373195 -0.11909118 -0.05974622 -0.52629685
0.002989676 -0.041680444 0.12423058 0.02320132 -0.21466163 -0.42349032 -0.011567659 -0.20566832
-0.03220324 -0.1128404 0.12442939 -0.3862287 0.10652329 -0.14899473 -0.15563023 -0.2617526
0.06125247 -0.09751315 0.18761855 -0.19957866 0.08264203 -0.04715272 -0.07755527 -0.1277079
-0.372051 -0.53209656 0.34600338 0.08701302 -0.14114037 -0.2849457 -0.00494362 -0.05175676
-0.2442136 -0.6048654 -0.021865902 -0.6854876 -0.3986091 0.03876118 -0.29384458 0.05068074
-0.33597785 0.16545685 -0.40811077 -0.054795347 0.113037005 -0.17992333 -0.10704795 0.4936291
-0.2722814 0.06609235 0.26225543 0.47629392 0.38327822 0.0051050954 0.062288802 0.12848869
-0.16767778 -0.018146982 -0.23048484 -0.13011219 -0.06356283 0.2512928 -0.07411045 0.20208377
0.6831683 0.48774192 0.24568157 -0.011559044 -0.5978527 -0.75727993 -0.30177358 -0.25452864
0.084155865 -0.10918548 -0.0862608 0.17090546 -0.042024493 -0.025705874 -0.18412009 -0.04685332
00000000: df32 3a3e 8908 a1be 7814 0e3d c482 80bd
00000010: 5bc4 e9bd 36f0 58be 70c2 043e 9ce7 b2be
00000020: 13bb 243e 2cd2 c13d e6b4 b5be ac2c c6bd
00000030: 2dcf 4bbe aab0 0ebc 5a0a f83e a0e3 cd3d
00000040: 0a7b c2bd 6fac dc3e 0c2d 0cbe 1899 873e
00000050: ee4b 593e 3866 143e 0c1b 18bf 24eb d4bc
00000060: eb2c c0be 818f 133e 0f73 6d3d a63c babd
00000070: 7e25 debd fc24 b9bd 67bb 4f3b eab2 44be
00000080: bb03 3cbd 1031 eebc 09f9 e3be 99b5 69bf
00000090: f5a3 efba 081d 4dbe ed6d a93e 7031 f6bd
000000a0: b5cb a6bc d8a5 90bb 6d13 7fbe beed 43be
000000b0: 6afd c7bc e737 1ebe 278f 3abe 69a3 7e3d
000000c0: 01b3 1abf abd2 3c3d 3295 19be 0e18 af3d
000000d0: b947 2f3f 6bd8 27bd e08b 9abe 6746 d1bc
000000e0: 9b3e 91be f565 833e 9a8c a3bd 9940 1e3d
000000f0: a30d e83d bc58 a5bd 1e56 543e 5cd4 1c3c
00000100: dc9f cd3d 4b16 f7bd 1bf5 cfbd b768 32be
00000110: bd0f 08be 0f9a ad3d 2ed6 003d 9385 29bd
00000120: a94e 373e bbea 403e f8dc f73d e364 c9bd
00000130: c196 97bd 0678 efbc f173 883e 0d68 babc
00000140: ee83 15bc 7d93 803e cf9a 803c a8bf d83d
00000150: 5868 1ebd f147 633d d76c 7d3e 739c 563d
00000160: 1deb f73e c1c7 66be 8623 2d3e d9b4 61be
00000170: 8134 8cbd ae58 9bbd 574b e3bd 6a3f 0ebe
00000180: 6aaf 253e 24a4 83bd 3351 80be 2378 55be
00000190: 883a 00bd 0d0f d43d 5969 2c3f 3311 40be
000001a0: f35b 0d3d 5a24 ca3c 6562 f43e b077 72bd
000001b0: 68a2 c2bd 1cda 87be 75ef 25be 91ef 9dbe
000001c0: 7989 643e 9753 963d 6b35 863e 1823 323b
000001d0: 8617 82be 0b35 9e3d afb3 16be 9e92 043e
000001e0: 5c36 bf3d c332 9c3e 9d3a 85bb 93e2 20be
000001f0: ee19 89bd 7226 71bd a8ec dd3c 9aa0 0b3e
00000200: 8929 cdbe a78e 13be 9161 27bf 656b 9fbd
00000210: 76de 54bc 7e40 bbbe 0ed2 dc3c 4b0f 90be
00000220: a397 d43e b8f6 f4bd 549a 10bc 1646 023e
00000230: baaa d6bd 9d88 0f3e c451 6dbe 3ade 84be
00000240: 97ea 243d 65ff 173f 640d a83d ecb4 123f
00000250: 0884 28be c3d0 06be 91cc 2e3e dec2 0f3e
00000260: 2769 df3e 4603 873d 4d63 fc3e c3aa 73be
00000270: d86a bbbd d07e 87be 85ee b4bc 62e5 16be
00000280: e5a4 1a3e 3862 7f3d c8da 0bbe 8dfa fcbe
00000290: f3ab c1bd d6fc dfbc 375d 82bf 082d 023e
000002a0: 1c3f 97be eefc 083d 2bc9 a23d 1ed5 1d3d
000002b0: 832a 0abd 14e6 f3bd 74b8 74bd 64bb 06bf
000002c0: 71ee 433b 1db9 2abd 9a6c fe3d b210 be3c
000002d0: 42d0 5bbe b9d3 d8be 4786 3dbc b79a 52be
000002e0: 8be7 03bd de18 e7bd d6d4 fe3d c5bf c5be
000002f0: e228 da3d 1392 18be 885d 1fbe 7004 86be
00000300: dfe3 7a3d f9b4 c7bd 141f 403e 595e 4cbe
00000310: 3a40 a93d 3623 41bd 4cd5 9ebd dcc5 02be
00000320: 787d bebe 7b37 08bf 5b27 b13e e233 b23d
00000330: 1a87 10be 67e4 91be 17fe a1bb e5fe 53bd
00000340: 2113 7abe 75d8 1abf 1f20 b3bc 1e7c 2fbf
00000350: 7e16 ccbe 0bc4 1e3d cc72 96be 9c96 4f3d
00000360: 4a05 acbe 856d 293e e5f3 d0be 1671 60bd
00000370: f27f e73d d23d 38be f53b dbbd f4bc fc3e
00000380: 7868 8bbe 6d5b 873d 5846 863e ccdc f33e
00000390: 0b3d c43e a548 a73b 8b22 7f3d 8a92 033e
000003a0: b9b3 2bbe fba8 94bc 3804 6cbe 213c 05be
000003b0: 3b2d 82bd 73a9 803e 38c7 97bd 0cef 4e3e
000003c0: 1ee4 2e3f 4fb9 f93e f393 7b3e 2562 3dbc
000003d0: e00c 19bf 19dd 41bf 1182 9abe 9451 82be
000003e0: e959 ac3d a39c dfbd 81a9 b0bd d701 2f3e
000003f0: e021 2cbd 2095 d2bc fa89 3cbe 44e9 3fbd

output.bias f4 [4]
0.16775158 -0.27430072 -0.07938572 -0.14166203
00000000: 12c7 2b3e 2571 8cbe fb94 a2bd da0f 11be

state_value.weight f4 [1, 64]
0.20879138 0.29458377 0.036800705 0.33425638 0.15375046 0.111592084 0.256304 -3.5065976e-05
0.11788925 0.08943833 0.07390426 0.22133917 0.36948493 -0.20269452 -0.3484453 0.29075328
0.21250181 -0.035543647 0.2653181 -0.33338505 -0.21589708 0.1708048 -0.3809225 0.2403514
-0.4494566 0.16015682 -0.21132542 0.37150818 0.2548775 0.26374832 0.121116646 0.32977596
0.13306993 -0.02931988 -0.5584791 -0.8927188 -0.3734333 -0.15295562 -0.39707124 -0.6439688
-0.55586416 0.16602989 -0.56547195 0.39003405 0.19304898 -0.5129913 -0.1158086 0.31233707
-0.71199113 0.5951268 0.12724419 0.2869849 -0.33610818 -0.2490671 0.18240134 -0.41781512
-0.24375562 0.5261019 0.25711468 0.13934697 -0.026646132 0.36781383 -0.52613854 0.12776525
00000000: 68cd 553e afd3 963e 56bc 163d a723 ab3e
00000010: c370 1d3e 648a e43d 473a 833e ce13 13b8
00000020: eb6f f13d 712b b73d 1e5b 973d bca6 623e
00000030: 212d bd3e 278f 4fbe 6c67 b2be 9ddd 943e
00000040: 139a 593e 3796 11bd c6d7 873e 72b1 aabe
00000050: 2014 5dbe 74e7 2e3e 4608 c3be ad1e 763e
00000060: 2d1f e6be 2600 243e b165 58be 5236 be3e
00000070: 4e7f 823e 050a 873e 010c f83d 65d8 a83e
00000080: 7c43 083e 3f30 f0bc 7cf8 0ebf 3889 64bf
00000090: a632 bfbe 66a0 1cbe ec4c cbbe 24db 24bf
000000a0: 1d4d 0ebf bd03 2a3e c5c2 10bf 8bb2 c73e
000000b0: a2ae 453e 6653 03bf 0f2d edbd a5ea 9f3e
000000c0: 0d45 36bf 3b5a 183f 4d4c 023e afef 923e
000000d0: 5f16 acbe 720b 7fbe 6bc7 3a3e ddeb d5be
000000e0: 139b 79be 9dae 063f 89a4 833e f9b0 0e3e
000000f0: fd48 dabc 1852 bc3e 04b1 06bf e5d4 023e
