results/64_128_64_0_False_True/checkpoint_final.pth (torch_old, 78921 bytes, 9 tensors)

hidden_layers.0.weight f4 [64, 37]
000000 2e b2 69 3e 69 d6 48 3e 4c 6b 8d be 96 46 02 be
       0.22821876 0.19613041 -0.27620924 -0.12722239
000010 fb 71 25 3e b1 25 b1 bd 04 c2 f5 3d 9a 2d ad 3d
       0.16156761 -0.08649767 0.11999896 0.084559634
000020 61 2a 51 3e de 4a 04 bf 47 ed ba 3d 14 7c 4c 3e
       0.20426323 -0.5167674 0.09127288 0.19969207
000030 80 de cc be d1 66 9d be 61 af 27 be 55 3d 31 3e
       -0.40013504 -0.30742505 -0.16375495 0.17308553
000040 a4 29 29 bd fb 89 87 3d 99 24 a2 bc a1 55 00 bf
       -0.041299477 0.066181146 -0.019792842 -0.5013066
000050 85 bd 8d bd 49 ce fe 3d bd 19 6a 3e df 36 a3 3e
       -0.069209136 0.124416895 0.22861381 0.318778
000060 8f 06 e5 3e ef 7b b8 bd 8c 80 93 3e b7 6e 8b bd
       0.44731566 -0.090080135 0.2880901 -0.068082266
000070 02 b0 05 3e e7 df 5a bd e3 d9 cf 3d e5 a7 38 3c
       0.13055423 -0.053436186 0.101489805 0.011270498
000080 d4 bd 2b be c7 7c 57 3c 6d 1f 2b bf 92 9b b5 bd
       -0.16771632 0.013152308 -0.66844827 -0.08867563
000090 e4 c3 7c bd 61 4c 68 3e d9 e5 43 3e 75 16 ee 3d
       -0.061710253 0.22685386 0.19130649 0.11625377
0000a0 00 38 34 be c9 25 b9 be d7 fb 26 bd 28 10 6f bc
       -0.17599487 -0.3616164 -0.040767517 -0.014591254
0000b0 74 ad f7 bd e1 84 a0 be 43 26 66 be 51 30 07 bd
       -0.120936304 -0.3135138 -0.22475533 -0.033005062
0000c0 68 ec d2 bd 1e a7 03 3e 76 09 4d 3e f0 37 80 3e
       -0.10298997 0.12856719 0.2002314 0.25042677
0000d0 06 7b 30 3e 10 d6 43 be ed 86 cc 3d d2 49 a3 bd
       0.1723443 -0.19124627 0.099866726 -0.079730645
0000e0 9f f0 e7 bd 4a 90 86 bc 0e 59 73 bd 66 3c b4 bd
       -0.11325192 -0.016426224 -0.0594111 -0.088005826
0000f0 33 7a 5b bd 32 b8 fe 3d 69 95 2d 3c d5 a0 57 3e
       -0.053583335 0.12437476 0.010594704 0.21057446
000100 f8 ad 17 be 0c e4 a5 3c 32 bd 2d 3d 2f ac 05 bd
       -0.14812458 0.020250343 0.04241676 -0.03263491
000110 76 24 87 3e 7d 81 ee 3d 73 ec bf bc b2 14 84 be
       0.26395005 0.11645792 -0.023428177 -0.2579704
000120 3f 83 a4 3e 58 1a ce 3c 7b f6 8a bc 0a e3 9d bc
       0.32131383 0.025159046 -0.016963234 -0.0192733
000130 a8 3d 40 3e 28 34 ac be 9d 22 d1 be c6 7d 3a bf
       0.1877352 -0.33633542 -0.4084672 -0.72848165
000140 58 d1 c2 be f4 20 9f 3e 92 0c 11 bf df 43 45 bf
       -0.38050342 0.3107983 -0.56659806 -0.7705669
000150 45 02 88 be 2b c2 28 3e 28 62 0b bf c6 d7 95 bd
       -0.26564232 0.16480319 -0.5444665 -0.07316546
000160 cc ae ca 3d 56 96 cd be 78 84 6b 3d 60 dd 8d bc
       0.09896621 -0.4015376 0.05749938 -0.017317474
000170 c7 45 20 bf 56 fb 9d 3c bc 84 48 be 85 80 c1 bd
       -0.6260647 0.019284885 -0.19581884 -0.09448341
000180 4a 06 9a be d9 d1 15 bd 76 4a 47 3d d1 03 f8 be
       -0.30082923 -0.03657708 0.048654996 -0.48440412
000190 28 b5 2b 3e 71 b0 23 3e e4 6b 32 bf 67 34 68 be
       0.16768324 0.15985276 -0.6969588 -0.2267624
0001a0 44 bd 51 bf e0 87 96 3e d5 36 2d bf 72 19 95 bd
       -0.8192942 0.2940054 -0.6766179 -0.07280244
0001b0 a4 82 a1 bd 59 1f 8d 3d d0 a0 ba bd 78 2c 85 3e
       -0.07886246 0.06890745 -0.09112704 0.2601049
0001c0 a7 0d 12 bf 5d f0 90 3e 1d 48 1b be 9e d9 36 bf
       -0.5705208 0.28308383 -0.15164228 -0.7142581
0001d0 92 9c 96 be f8 74 df be 00 66 c1 3e 5b 4c e0 be
       -0.2941633 -0.43643928 0.37773132 -0.43808255
0001e0 34 26 06 bf f1 b5 4e bd c6 e0 b7 be 23 2b 90 3e
       -0.52402043 -0.05046648 -0.35913676 0.2815791
0001f0 52 ad 09 bf 6f b4 a9 3d 42 5c 83 3e 89 50 3a 3e
       -0.5378009 0.08286368 0.25656325 0.18194784
000200 2b 47 9d be aa bb 58 bf c2 b6 57 bd 45 7d 9e bc
       -0.3071836 -0.8466135 -0.052664526 -0.019346843
000210 53 02 66 bf 41 e3 92 3e 1d b1 9e be 50 b4 e7 3d
       -0.89847296 0.28689006 -0.30994502 0.11313689
000220 8a 73 2d be 1f f6 89 be e5 6d aa 3e 73 5b 15 3e
       -0.16938606 -0.26945588 0.33286968 0.14585666
000230 db ed e1 3c 01 da c7 3e b8 b6 5a 3e da fa fe bd
       0.027579239 0.3903351 0.21358764 -0.1245019
000240 c3 64 e4 be 8f 92 dc be 6b 80 1d be 9f 70 71 bd
       -0.44608125 -0.43080565 -0.15381019 -0.058945294
000250 d8 0a 0a 3d 2b 69 3f bf 65 e0 8b be 24 83 28 3e
       0.033701748 -0.7476985 -0.27319637 0.16456276
000260 81 fb fd 3d 54 6f e0 3d c9 ad 63 be cf 60 dc bd
       0.12401486 0.10958734 -0.22234263 -0.10760652
000270 89 69 82 bd b0 ad d1 bf ec 4b d5 3d e3 4b f6 3d
       -0.063677855 -1.638113 0.104148716 0.12026193
000280 41 a4 3a be c2 97 ca be 19 6b fb 3a 69 24 81 be
       -0.1822672 -0.39568907 0.0019181698 -0.2522309
000290 64 d7 e9 bd 30 14 1c 3d ea 49 ca 3d 6d b9 02 3f
       -0.114180356 0.03810519 0.09877379 0.5106419
0002a0 e1 c3 79 be 35 c4 85 3c 79 d2 40 3d 1b 66 a9 3d
       -0.24391128 0.01632891 0.047075722 0.08271428
0002b0 aa 59 66 be 76 6b 8b 3d 1f d9 10 be d6 d7 b0 3d
       -0.22495142 0.06807606 -0.14145325 0.086349174
0002c0 43 6c 26 be f6 22 ac bf 72 82 1d 3d 68 8a 06 bf
       -0.16252236 -1.3448169 0.03845448 -0.5255494
0002d0 43 59 89 3e d9 e3 0d be 02 9d 3c 3b ab 4f 0f 3e
       0.26825914 -0.13856448 0.0028780107 0.13995235
0002e0 24 fa 0e ba af f6 bc 3d 6f 19 e7 3c 78 d8 81 bd
       -0.0005454144 0.09226739 0.02821037 -0.06340116
0002f0 b6 97 37 bd 7f 4c d7 3d a7 61 a4 3e a7 09 cc 3d
       -0.044822417 0.10512637 0.32105753 0.099627785
000300 7e 20 56 be 7b f5 15 bf a9 d6 b1 bf 7c e1 7f bc
       -0.20910832 -0.585777 -1.3893634 -0.0156177245
000310 4b 6c 9a bd c0 b3 a4 bb f5 a8 08 bc ec cb 1f bd
       -0.075401865 -0.0050263107 -0.008341064 -0.039012834
000320 f1 4f bd 3d 82 55 e6 3a 8f ab c9 bc 36 8b 9b bd
       0.09243763 0.0017573091 -0.024617938 -0.07594912
000330 92 4e e1 3d 11 88 58 3e 1f a2 e9 bd ed 6b 6d 3c
       0.11001314 0.21145655 -0.11407875 0.014491064
000340 0c 15 76 3e e9 97 c5 3d b7 23 ca bb ee c9 d9 bc
       0.24031466 0.09648115 -0.0061688083 -0.026585545
000350 42 67 25 3d 74 e2 3e 3e 99 73 98 3e d9 92 eb 3c
       0.040381677 0.18641073 0.29775694 0.028756546
000360 78 89 ef 3d 98 2b 55 be d4 7f 87 3e 91 6c 96 3e
       0.11696142 -0.20817411 0.26464713 0.29379705
000370 2e 08 14 3c 8e 2e d7 3c fa 32 0a 3f dc ba 9b be
       0.009035153 0.026267316 0.53984034 -0.30416
000380 33 55 cd be 81 5c e8 be de 99 1e c0 c3 d7 63 3b
       -0.40104064 -0.45383075 -2.4781413 0.0034766055
000390 c6 6e 8a 3d 3b 52 9b 3b 12 89 60 3d 6a 10 73 3e
       0.067594096 0.0047400272 0.05481822 0.2373673
0003a0 b0 65 49 3d 55 6a 78 3e 1b 6b 44 3e c1 e9 86 3d
       0.049169242 0.24259312 0.19181482 0.06587554
0003b0 0a d9 ae 3b bb d9 a7 3c 7e e3 0d bc 02 90 59 3d
       0.0053359317 0.020489564 -0.008660195 0.053115852
0003c0 d5 13 65 3e b9 a9 c5 3e 19 12 00 3d 4f 4d 96 3c
       0.22370847 0.3860605 0.03126726 0.01834741
0003d0 5d b8 8a 3d f2 88 13 3e 27 bd 71 3e e3 46 bf bd
       0.06773446 0.14407709 0.23607312 -0.093396924
0003e0 41 e0 e7 3b b4 59 0c 3e ca 08 14 bd 73 48 5e 3e
       0.0070762937 0.13706094 -0.036141194 0.21707325
0003f0 5c fe 51 3e 1d da 1b 3c 8d 1a 0b 3d 0c a9 5b bd
       0.20507187 0.0095124515 0.033960868 -0.053628013

hidden_layers.0.bias f4 [64]
000000 88 58 bb 3d 30 0c 3f bd 51 73 44 be 79 a3 9f 3c
       0.09147745 -0.046642482 -0.19184615 0.01948713
000010 88 3c 4f 3e 86 25 6b bc d9 5c e4 3c 8f cd 89 3d
       0.20237935 -0.014352208 0.027876304 0.0672866
000020 cd 6c af 3c 50 1b 28 be 58 39 f8 3d 8e 00 ce 3c
       0.021414185 -0.16416669 0.121203125 0.025146749
000030 94 c2 9e 3c 93 55 64 3c ef a3 bb bd 7e 7d a0 bd
       0.019379891 0.013936418 -0.09162127 -0.07836436
000040 9a 5e 35 3c 6a 2d dc bc 12 63 c6 3d 39 21 88 bd
       0.011069918 -0.026877124 0.09686865 -0.06646962
000050 43 2e e0 bd 53 77 31 3c e0 2a 8f 3d a3 84 cc bc
       -0.10946324 0.010831672 0.069906 -0.02496559
000060 9b 43 1d be eb 63 71 3e a2 8b 2c 3d f4 5c b2 be
       -0.1535782 0.23573272 0.04212535 -0.34836543
000070 8a 97 94 3e 97 f5 39 3e 16 03 50 bd f8 d0 d6 bd
       0.29021865 0.18160091 -0.050784193 -0.104890764
000080 72 13 01 3e d0 de 85 3d 7c 94 03 be 9d 64 c4 bc
       0.12605074 0.06536639 -0.12849611 -0.023973757
000090 7c 10 39 3a d5 56 5c 3d 1e 6f 0a bd b6 64 f1 bd
       0.00070596463 0.053793747 -0.033797376 -0.11786787
0000a0 1f ea 82 bd 1d d5 04 bd 52 ed 9e bd 2a f0 fc 3d
       -0.06392311 -0.032429803 -0.07760109 0.12350495
0000b0 78 2f 70 3c ce 61 ca bd dd 6d b3 bd 5e e5 33 bd
       0.014659755 -0.09881936 -0.08761189 -0.043919913
0000c0 49 57 f8 bd 08 47 e0 3d eb d8 0a bd a1 54 19 3e
       -0.12126023 0.10951048 -0.033898275 0.1497369
0000d0 30 a9 54 bd df b0 6c ba a4 5f 1c be c4 94 97 3c
       -0.051919162 -0.00090290414 -0.15270859 0.018503554
0000e0 af 0b a8 3d 10 20 3b bd d2 7f 36 bd d5 9e 4f bd
       0.082053535 -0.045684874 -0.044555493 -0.050688583
0000f0 f1 39 c2 bc 7c 20 74 3d df e5 5b 3d 23 ff 14 3d
       -0.02370927 0.059601292 0.05368602 0.03637613

hidden_layers.1.weight f4 [128, 64]
000000 20 c7 91 be 85 8c 20 be 1e e8 93 3d ca f5 77 3e
       -0.28472233 -0.15678604 0.07222007 0.24214855
000010 38 b3 d1 3c 84 7d e3 be 7a 28 10 bf b5 95 5f 3d
       0.025598153 -0.44431698 -0.5631176 0.05458613
000020 46 b5 01 bf 98 d2 66 3d 94 d2 1d be b9 54 24 be
       -0.50667226 0.05635318 -0.1541236 -0.16047944
000030 7f 84 0f bf 03 7b 41 bd eb 2a a3 bb 0b 91 ae be
       -0.5606155 -0.047236454 -0.0049794815 -0.34095034
000040 0d 87 b2 bd 5f c3 79 be 7a bc bc be 05 8d 93 bd
       -0.08717165 -0.24390934 -0.36862546 -0.07204632
000050 21 55 88 be a5 48 3a be 01 0a a1 3b ed 6e ed 3d
       -0.26627448 -0.18191774 0.0049145226 0.11593423
000060 cb 8a 98 be 47 02 95 be 33 9f b8 3d 92 72 70 be
       -0.2979339 -0.291033 0.0901474 -0.23481205
000070 7e 35 d4 bb 87 f4 6f be f2 16 b7 be 23 19 1b be
       -0.0064761033 -0.23433124 -0.35759693 -0.15146308
000080 9e 11 32 3e a7 be 1f be 14 f6 ac be fc 85 50 be
       0.17389533 -0.15600072 -0.33781493 -0.20363611
000090 84 e0 25 bf 3c d5 0a 3e be 88 d7 bd a9 f6 73 be
       -0.6479571 0.13557905 -0.105241284 -0.23824562
0000a0 48 a4 94 be 46 71 f4 be 12 78 11 3e 80 bb 02 3d
       -0.29031587 -0.4774267 0.1420596 0.031917095
0000b0 ac 21 b9 bd 5b 2a ab bd 13 d1 eb bd e4 82 0c bf
       -0.090396255 -0.08357688 -0.11514487 -0.54887223
0000c0 42 89 81 bd 64 71 23 3c 7d 7b 86 be 3f d8 9e bb
       -0.06325008 0.009975765 -0.2626609 -0.004847556
0000d0 71 3a d3 be 0b 39 a4 bd fe d4 e2 be d8 91 ed bd
       -0.41255525 -0.080186926 -0.44303125 -0.11600083
0000e0 22 e2 c5 bd 45 32 19 be e3 28 b3 be 7a 28 02 3e
       -0.09662272 -0.14960583 -0.34992132 0.12710753
0000f0 6a 23 64 3d fd ef ce 3e e7 f7 9c be 7c 51 32 be
       0.055697836 0.40417472 -0.30657884 -0.17413896
000100 fc fd b0 3e d3 20 98 bd 6d e5 06 be c5 66 14 3d
       0.34568775 -0.07428136 -0.13173456 0.03623082
000110 af 75 55 be 93 69 99 b9 07 a1 93 bd ba 23 30 3e
       -0.20845674 -0.00029261093 -0.07208448 0.17201129
000120 69 91 c8 be a2 45 bd be 14 f6 e0 be 65 4e dc bd
       -0.3917344 -0.36967188 -0.43937743 -0.1075714
000130 c1 0f 42 be 97 9d 6a 3e 4f a1 f7 be e1 02 98 be
       -0.18951322 0.22911678 -0.48365256 -0.29689696
000140 ad dc 2d 3e 66 70 bc 3d e1 cd 97 3d e3 10 4e bf
       0.16978712 0.09201126 0.07412315 -0.8049452
000150 f7 76 30 3e 21 36 13 bf 3b df dd 3c a5 f4 00 bf
       0.17232881 -0.5750447 0.027083984 -0.503733
000160 b9 f9 28 3e 7c 93 d0 3d 45 4f b9 be c7 8e 78 be
       0.16501512 0.101843804 -0.3619329 -0.24273215
000170 7e e3 1c 3e 39 8d 24 bd a2 3d c6 3e 67 06 a3 bd
       0.15321156 -0.040173743 0.38718897 -0.079602055
000180 84 dd 4b 3d 7a 2d 3b bd 95 35 46 be 80 72 22 be
       0.0497718 -0.045697667 -0.19356377 -0.15863991
000190 81 a9 da 3d 7e a6 93 3c 88 dd c4 3d 60 e5 de be
       0.106768616 0.018023726 0.09612566 -0.43534374
0001a0 81 23 7c bd a7 d0 2c be 16 b5 19 3d 8d 12 f4 be
       -0.061557297 -0.1687647 0.037526213 -0.47670403
0001b0 4d a8 18 be 8f 02 06 bf e5 29 6c bf b4 cb c6 bd
       -0.14907952 -0.52347654 -0.92251426 -0.09706822
0001c0 0b 20 ad be 25 7c 8e be df 81 06 3d 4b c9 81 bd
       -0.3381351 -0.2782909 0.0328387 -0.06337222
0001d0 1e 93 6d be 33 44 88 3d 90 be 41 bf 3a a8 46 be
       -0.23200652 0.06653633 -0.756814 -0.19400111
0001e0 b5 50 76 bd a8 05 b5 3e 61 4d c5 3d ec 92 72 3e
       -0.060135562 0.35355878 0.096338995 0.23688859
0001f0 50 a2 75 be 5e c5 4b be a0 db 10 bf 13 87 19 3e
       -0.23987699 -0.19899508 -0.5658512 0.14992933
000200 56 01 80 bd 79 e4 92 3c 85 df 53 3d 82 e2 26 3e
       -0.06250255 0.01793121 0.051726837 0.16297343
000210 92 07 b3 be f7 bb 6a 3e f1 cf f1 3c fa 6e cc 3c
       -0.34966713 0.22923265 0.0295181 0.024955261
000220 50 c0 41 3e f1 68 c0 be 09 d8 c2 3d 26 b4 82 3e
       0.18921018 -0.37580064 0.09513862 0.25528067
000230 41 3b 2e 3c 84 f3 49 3b 2f 9f 50 be cf fe 46 be
       0.010634244 0.0030815313 -0.20373224 -0.1943314
000240 79 1a b1 bd 9c 82 5a 3d d1 a3 0a 3e 7b 84 11 bd
       -0.086476274 0.053347215 0.13539053 -0.035526734
000250 c4 c4 7d 3d c5 e3 bb 3d d7 95 75 3c db 92 aa 3d
       0.06195523 0.09174303 0.014989338 0.08328792
000260 78 bd da 3d 78 e0 71 3c e6 2f 60 3e 3f a6 ae bc
       0.106806695 0.01476299 0.21893272 -0.021319507
000270 3d 89 0e bd 48 53 7e be 00 ce 33 3e 4d ab 4b be
       -0.03479885 -0.24836457 0.17559052 -0.19889565
000280 7e 6d 09 3a 89 1a 9a 3e 0d 62 00 be fb 0c 67 bd
       0.0005242451 0.3009837 -0.12537403 -0.056408864
000290 90 03 ec 3e f3 d3 5b 3e ac 19 2f bc bd ce 58 3b
       0.46096468 0.21467571 -0.010687273 0.003308221
0002a0 38 ad d1 3e 1e cd 76 3d ef d7 1c 3e 7c 14 d2 bd
       0.40952468 0.06025421 0.15316747 -0.10257813
0002b0 f9 95 ef bd 94 4e 67 3e b6 3f 28 be 96 2b 01 3e
       -0.11698527 0.22588569 -0.16430554 0.12614283
0002c0 78 02 04 3d d3 ca 11 bf 47 14 8d bd 8c 57 8a be
       0.032228917 -0.5695011 -0.06888633 -0.27019918
0002d0 ce 01 33 be b7 44 f2 bd 02 fa 8a be 7a 3e 55 be
       -0.17481157 -0.118295126 -0.27143866 -0.20824614
0002e0 b9 5e 6f bc 0d 79 da bb e2 bc 80 3b 8e 02 a5 3c
       -0.014609986 -0.0066672624 0.0039287666 0.02014282
0002f0 ac 53 43 3e ef 02 d3 bb 0f 20 9b 3d a0 3c 81 bd
       0.19074887 -0.0064395587 0.07574474 -0.063103914
000300 b2 56 98 bd d8 c2 15 bd 90 b8 b3 3e 13 59 25 be
       -0.07438411 -0.03656277 0.35101748 -0.1614726
000310 32 6d e3 3d 6b ff d1 bd 32 01 a3 bd 1a b0 3c 3d
       0.11104812 -0.10253795 -0.07959212 0.04606638
000320 e0 14 29 3e 36 42 0d bb 4b 84 16 bf 91 84 21 3e
       0.1651187 -0.0021554357 -0.58795613 0.15773226
000330 2a e7 99 3e 38 71 3f bd bf b2 16 be 20 2b 14 be
       0.30059177 -0.046738833 -0.14716624 -0.14469576
000340 36 c1 95 bd f2 db fa 3c 63 17 69 be df 9f 22 3e
       -0.07312243 0.030622456 -0.22762828 0.15881298
000350 e8 71 ce 3d 5d 38 99 be ac a7 b5 bd 2d 0d 5f be
       0.1008032 -0.29925814 -0.088698715 -0.2178237
000360 f6 05 a9 bd 80 55 f3 bb 45 5b 03 bc 6a 15 f0 3e
       -0.0825309 -0.007425964 -0.008017366 0.46891338
000370 f6 0d b1 bd c5 df b1 3b 35 bf 53 3e a1 11 8d bc
       -0.08645241 0.0054282867 0.20678408 -0.01722032
000380 6c b9 6c 3c f4 20 64 be 76 30 34 be a9 3e 86 3e
       0.014448505 -0.22278196 -0.17596611 0.2621968
000390 e8 f9 1c be 0d 11 00 3c df 58 43 be 8f e0 9c 3c
       -0.15329707 0.007816565 -0.1907687 0.019150047
0003a0 50 e6 66 3c 31 74 fe 3b 8a 20 ec bc 19 99 e6 bd
       0.014092997 0.007765316 -0.02882411 -0.1125967
0003b0 06 79 34 be 3a ca f6 3d 18 ea 58 bd 94 34 06 be
       -0.17624292 0.120502904 -0.052957624 -0.13105994
0003c0 9f 66 d2 bd 1e 18 b7 bd 35 83 ba be 34 e7 23 bd
       -0.1027348 -0.08940147 -0.36428228 -0.040015414
0003d0 70 2b 67 be 8e 83 e8 3e 17 89 84 be da ed 00 3e
       -0.22575164 0.45412868 -0.2588584 0.12590733
0003e0 89 ce 91 3d 73 44 4e 3e 6f ad 07 be 29 6c 5b 3e
       0.071194716 0.20143299 -0.13249753 0.21427979
0003f0 25 c3 97 3d 54 77 5f 3d d6 17 40 be b9 7a ef 3e
       0.07410268 0.05455716 -0.18759093 0.46773317

hidden_layers.1.bias f4 [128]
000000 8a 89 99 3c f7 84 08 be a7 67 29 3e 22 87 30 be
       0.018742342 -0.13331972 0.16543446 -0.17239049
000010 3c 1e 83 bc ad 5e ee bc cc 83 e1 3c 4c 21 20 be
       -0.016005628 -0.02909788 0.027528666 -0.15637702
000020 b1 91 3f bd 94 7d c8 bb 61 e8 d0 bd 6a 1c 08 be
       -0.0467698 -0.0061184857 -0.10200573 -0.13292089
000030 c0 98 48 3d d8 3e 39 be bc 89 41 bd c3 0b 3c be
       0.0489738 -0.18090379 -0.047250494 -0.18363862
000040 23 3b a8 3d dc 24 1e bd fe 48 b6 bd 9e 6c 31 be
       0.082144044 -0.03860937 -0.08900641 -0.1732659
000050 24 de 56 bd de 09 05 be e0 d9 48 be 5e 36 9b bd
       -0.052457944 -0.12992045 -0.19614363 -0.07578729
000060 c3 1e ca 3c a5 8b 07 be 27 99 c0 bc 92 0b 9a bd
       0.024672871 -0.13236864 -0.023510529 -0.07521738
000070 32 18 1a 3e 86 c0 23 3d 06 43 77 be 0a 2e cf bc
       0.15048292 0.039978527 -0.24146661 -0.025290508
000080 0e 4d 19 be 31 57 c2 bd ed e0 8e 3c ce 67 07 3e
       -0.149708 -0.09489287 0.017441237 0.13223192
000090 72 55 67 be 5a f9 d1 bd d9 f2 ab bd 01 03 85 be
       -0.22591189 -0.10252638 -0.08395929 -0.25978854
0000a0 47 9c 73 bb a5 17 ac 3d 2d e5 07 3e 9c 73 03 be
       -0.0037172006 0.08402947 0.13271017 -0.1283707
0000b0 40 42 01 bc 6c 6e 71 bd c1 25 3f be 33 ed bd bd
       -0.00788933 -0.058943197 -0.18666746 -0.09273758
0000c0 a9 9f fd bd 89 fc 3d be 95 4a 48 3d fa 32 dd bd
       -0.123839684 -0.18553366 0.048899252 -0.10800739
0000d0 15 e0 e1 3c c2 30 ee bc 06 c0 5d 3e 94 0a 25 3c
       0.027572671 -0.029075984 0.21655282 0.010073323
0000e0 0b a3 d3 bd 65 71 34 bd 67 d3 2a bd de 6f 6f bd
       -0.10333832 -0.044053454 -0.041705515 -0.058456294
0000f0 a3 47 18 be 70 81 46 bd 32 0a d1 bd 41 57 8e 3c
       -0.14871077 -0.048463285 -0.10207023 0.01737559
000100 f7 9e 78 be c6 da 7a 3d e9 c1 04 be 80 4e 21 bd
       -0.2427939 0.061243795 -0.12964596 -0.039381504
000110 0e d0 37 3e 4f 38 9e 3d 98 14 21 be f4 f1 18 3c
       0.1795046 0.07725584 -0.15730512 0.00933503
000120 92 bc 16 be 8c 0d be 3d bd ed b0 bc 58 7a 74 bd
       -0.14720371 0.092799276 -0.021597737 -0.05968699
000130 0b bb b2 bd 6b 8e 0a be 83 4d 08 3d 12 d1 f9 bd
       -0.08727082 -0.1353089 0.033277046 -0.1219808
000140 b6 4d 90 be 73 c1 ab 3d e8 9f 6d 3d 41 85 22 bd
       -0.2818429 0.08386507 0.058013827 -0.039677862
000150 da f3 97 bd fd 96 db 3c 02 10 8b 3d 91 81 0b 3e
       -0.07419558 0.026805395 0.067901626 0.13623644
000160 fe 71 31 be 87 80 c7 bd 01 1f 50 be 2c d5 b9 3e
       -0.17328641 -0.097413115 -0.20324327 0.3629545
000170 a4 53 1b 3d 71 f8 2a be cc 70 d6 bb e9 54 ef bd
       0.037921563 -0.16696335 -0.006544208 -0.11686117
000180 17 e2 52 be 9c a4 91 bd c6 44 e4 3d d8 b5 66 be
       -0.20594059 -0.07111475 0.1114593 -0.22530305
000190 30 3a e4 bd 56 de 46 3e 2b fd 86 3e 08 35 0c be
       -0.11143911 0.19420752 0.26365027 -0.13692105
0001a0 2e 55 54 bd a0 71 4a 3e b5 18 e0 bc a6 8b b7 bd
       -0.051839046 0.19769907 -0.027355531 -0.08962183
0001b0 07 db 5b 3d 38 ea 58 bd c0 fa db bd 0a 73 f5 3c
       0.053675678 -0.052957743 -0.10741186 0.029962081
0001c0 88 af fd bb da eb c8 3d d5 43 6d bd a4 85 cc 3e
       -0.007741872 0.0981061 -0.057926018 0.3994571
0001d0 06 ed 04 be 99 02 3f 3e 48 30 63 3e ea d7 3b 3e
       -0.12981042 0.18653335 0.22186387 0.18344083
0001e0 69 10 34 be 1d a9 b3 3c 50 50 26 3e b2 39 f4 bc
       -0.17584385 0.021931225 0.16241574 -0.029812668
0001f0 cb 56 17 be 83 ec 49 bc 1c 70 b5 bd 94 cb b6 bd
       -0.14779203 -0.012324455 -0.08859274 -0.08925548

hidden_layers.2.weight f4 [64, 128]
000000 48 d9 df 3d f6 b1 a1 3d 94 c1 44 3d 89 6d 02 be
       0.10930115 0.078952715 0.048036173 -0.12737097
000010 2a 39 42 bd 22 4d a3 3d 09 df b0 bc 36 6c 57 3e
       -0.047417797 0.07973696 -0.021590726 0.21037373
000020 93 df 18 bd f1 b0 b2 3e 16 df a6 3e 28 8a 10 bd
       -0.037322592 0.3490062 0.32592076 -0.035288006
000030 79 ce 0f bf 07 ad e1 be ad 74 64 be d2 bb 98 bd
       -0.5617443 -0.44077322 -0.22310133 -0.07457699
000040 87 0d ac bd 70 97 98 bd d5 00 a9 3d 79 5b 9b be
       -0.08401018 -0.074507594 0.08252112 -0.30343226
000050 72 56 08 bf 12 11 a1 3b 3a f0 b2 3c ee ed cf be
       -0.53256905 0.004915365 0.021843065 -0.40611213
000060 8a 5a 18 be 2d db b3 3d 2e 4e bd 3d d9 8d d2 bd
       -0.14878288 0.08782039 0.09243427 -0.102809615
000070 5b 7d d4 3d c5 6e f8 bd a7 a0 53 be 1e 32 a1 be
       0.10375472 -0.121305026 -0.20666753 -0.3148355
000080 fe 99 95 3e df 03 71 3b ea bf db bd fc 3f eb 3d
       0.2921905 0.003677599 -0.10729964 0.114868134
000090 7d 6f 0d be c6 82 2a bd 97 ca b0 bd b9 27 be bd
       -0.1381206 -0.04162862 -0.08632391 -0.0928492
0000a0 3a 61 fc bd 75 98 09 3e 4f c5 92 bc 3d 3c 90 bd
       -0.12323232 0.13437064 -0.01791635 -0.070427395
0000b0 1d 2c e8 bc fe c3 9d 3e f0 b9 c5 bd e1 22 12 3e
       -0.028341347 0.30813593 -0.096546054 0.14271118
0000c0 5e de d1 3d 6b af f7 3e 4c 6f de 3d e5 8a b4 bd
       0.10247491 0.4837602 0.10861072 -0.088155545
0000d0 2d f0 19 3e a2 a1 5a 3e 88 45 23 bd 7d b3 4b bd
       0.15033026 0.2135072 -0.039861232 -0.04973172
0000e0 20 40 9a be 64 47 80 bd e0 f6 40 bd 19 3d af 3e
       -0.30127048 -0.06263617 -0.04711044 0.342263
0000f0 d1 02 d8 3d 5b 18 cf be ff 17 06 bd e6 64 3d 3e
       0.10547412 -0.4044827 -0.03273773 0.18495521
000100 0f 29 bf bd 99 3c 4f bd 6f 0a c4 bc b4 a6 40 be
       -0.09334003 -0.0505949 -0.023930756 -0.18813592
000110 a3 2b bb bd 11 dd 87 3e d2 d0 e6 be c1 4a 25 be
       -0.091391824 0.26535848 -0.45081192 -0.16141798
000120 01 50 ce bc be f7 e8 be 73 aa db 3d 15 a0 ab bc
       -0.025184633 -0.45501512 0.1072587 -0.020950356
000130 19 39 8d bd 81 19 f6 3e 16 0b 43 3e ff 06 33 bd
       -0.06895656 0.48066333 0.19047198 -0.043707844
000140 bb 11 00 be 11 b4 1a 3d 26 92 87 be 11 ce 7a be
       -0.12506764 0.03776938 -0.2647869 -0.2449267
000150 60 9d 8f 3e b0 b4 57 be 79 54 23 be 4f ae 98 be
       0.28049755 -0.2106502 -0.15950193 -0.29820487
000160 5f 98 d1 bd 74 8a 56 3e de f3 33 be d5 99 6f bd
       -0.102341406 0.20951253 -0.17573497 -0.058496315
000170 f6 b0 cf bd 30 61 97 be ae a5 15 3e 3f 99 88 3d
       -0.101411745 -0.29566336 0.14613983 0.066698544
000180 3e 76 16 be 3d 04 23 bd 55 38 3a be 0c 56 6c be
       -0.14693543 -0.039798964 -0.18185551 -0.230797
000190 dc 91 3d be 71 84 92 bd f6 f4 67 3d 79 ff 90 3e
       -0.18512672 -0.071541674 0.056630097 0.2831991
0001a0 1f ca d7 be d3 c1 4d be 79 31 00 bf 33 46 d8 bd
       -0.42146394 -0.2009347 -0.5007549 -0.105602644
0001b0 7c 35 81 be cc d1 8c bc cc 97 b7 3d 54 08 89 be
       -0.25236118 -0.017189883 0.089645 -0.26764166
0001c0 32 5a c7 3d 9c ff 83 be 9e 74 05 bf fd c0 bf 3d
       0.09734 -0.25780952 -0.5213107 0.093629815
0001d0 d9 cb 86 3e 4a 41 02 be 92 66 26 be 5f 6d 7d be
       0.26327398 -0.12720218 -0.16250065 -0.24748753
0001e0 0f 8d 30 3f cf 6b e1 3d 54 55 51 3e b3 52 e9 bd
       0.6896524 0.11006891 0.20442706 -0.11392727
0001f0 8b b4 37 bd eb 38 8d 3e e1 38 49 3d 68 4d 4f 3e
       -0.044849914 0.27582487 0.04912651 0.20244372
000200 26 a0 00 3d 81 f4 ac bd 5b bf 41 3d 52 1e 39 3e
       0.03140273 -0.08445073 0.04730163 0.18077973
000210 55 cc d3 be 7c 50 95 3e 29 75 bb 3e 0e 23 1d bd
       -0.4136683 0.29162967 0.36612824 -0.03836351
000220 c7 0d ce be cc 9d bc bd c6 f1 69 3d d0 a7 c9 3d
       -0.40244886 -0.09209785 0.05711534 0.09846461
000230 79 9d e1 ba 43 ee 13 3f d0 bc b2 be 87 5c a1 be
       -0.0017213068 0.57785434 -0.34909678 -0.31515905
000240 01 86 3c 3d fd 27 8f 3d 92 e7 81 3e f0 8e c7 3d
       0.046026234 0.06990049 0.25371987 0.0974406
000250 c4 e7 bc be b7 5a 26 be 70 2b fe bc 4f 50 91 3e
       -0.36895573 -0.16245542 -0.031026572 0.28381583
000260 f9 55 06 bf fa 9f 6b 3e a7 18 b0 be 0a 6a e8 bc
       -0.52474934 0.23010245 -0.34393808 -0.028370876
000270 7b 2a 5e 3d 70 e2 83 be c3 88 8f be f8 e1 cb 3d
       0.05423973 -0.25758696 -0.28034028 0.099552095
000280 55 5c b7 3e c8 65 6c be 8c 1b 95 3e bc ec ab be
       0.3581263 -0.23085701 0.2912258 -0.33579051
000290 57 c5 49 3f 99 b0 7f 3e f5 d8 1c bd bb ad 52 3c
       0.7881674 0.2496971 -0.038292844 0.012858803
0002a0 ce 6a 19 bf 95 4a 49 3e c0 0f 18 3e 98 66 66 bd
       -0.59928596 0.19657357 0.14849758 -0.056250185
0002b0 0c 01 b9 3d 55 98 e7 bd e7 7c 62 be 6f e3 d2 be
       0.09033403 -0.11308352 -0.22117959 -0.41189143
0002c0 6b 1c e7 3e b6 08 b5 bd ab 16 d2 3d 6b 18 0f bd
       0.4513887 -0.08839552 0.1025823 -0.034935396
0002d0 05 3f 83 bc 7e dd 25 bd 52 0c 40 3d 37 02 c5 3d
       -0.016021261 -0.040494435 0.04688675 0.09619563
0002e0 fa 9d ba bd c2 a7 6c 3d ef 2e de bd c5 ee 7b be
       -0.09112163 0.057777174 -0.108487956 -0.24602802
0002f0 b1 dd 86 bd 04 74 09 bf c3 cf 54 3b f5 c3 cf 3d
       -0.06585253 -0.5369265 0.0032472468 0.10144798
000300 2e 9e a8 bb 90 51 24 be 6c d2 d0 3d a7 9a 00 bc
       -0.0051458096 -0.16046739 0.10196385 -0.007849372
000310 a9 cd 75 bd 8d 7b 4a be 03 fe 2b be d6 c1 04 3e
       -0.060010586 -0.19773693 -0.16796117 0.12964568
000320 59 30 b4 be 17 29 be bc b2 71 de 3e 5b 1c 15 3e
       -0.35193136 -0.023212953 0.43446118 0.14561598
000330 63 78 26 3e dc 2b dd 3c 65 c6 3f be 27 ad 22 be
       0.16256861 0.026998453 -0.18728025 -0.15886365
000340 10 dc 05 be ce 92 41 3d 64 93 88 bd 05 f3 48 3f
       -0.13072228 0.047259144 -0.066687375 0.7849582
000350 56 2c 18 3d 10 b6 c8 3e b2 27 c7 bc 35 d9 2f 3e
       0.037151657 0.39201403 -0.02431092 0.17172702
000360 63 9c 8f bc ae 79 e7 bc 26 2a b6 bd 99 69 9d bd
       -0.017530626 -0.028256264 -0.08894758 -0.07686157
000370 4d cd 8f bd e8 09 c1 be 6e 8a 9c 3e 43 c2 3a 3e
       -0.0702158 -0.3770287 0.30574363 0.18238167
000380 bf e4 3f be db 55 a3 bd 70 9e c5 3d 2a cd 6a 3d
       -0.18739603 -0.0797536 0.0964936 0.057324566
000390 32 f1 69 bd 54 9d a1 3d dc e7 33 be 6e fc 34 3d
       -0.057114787 0.07891336 -0.17568916 0.04418605
0003a0 92 f7 34 bc d6 c5 b6 be a6 b5 48 3d 50 d2 72 3e
       -0.0110453535 -0.35697812 0.04900136 0.2371304
0003b0 a8 b7 b2 3d 68 2f 65 3e 9b 66 77 3e 0b a7 40 3d
       0.08726436 0.22381365 0.24160235 0.047034305
0003c0 5a 31 44 3e 48 7e 8c bd 7b 83 06 3d 1b ec 80 3d
       0.19159451 -0.06860024 0.032840233 0.062950335
0003d0 df 2d 8c 3d be 5f 08 be d0 fe 25 be 1e a6 b2 3e
       0.06844687 -0.13317773 -0.16210485 0.34892362
0003e0 a8 f6 96 be 91 aa f6 3e d1 62 3c 3e cf be db 3d
       -0.2948506 0.48177007 0.1839707 0.10729753
0003f0 a5 2a a8 3e 32 df ff bc 51 57 a1 3e 24 43 c3 3c
       0.32845035 -0.031234358 0.3151193 0.023835726

hidden_layers.2.bias f4 [64]
000000 d6 7c a7 bd 9c 67 95 3e b9 9f 2b 3f 34 72 a4 3e
       -0.081781074 0.2918061 0.6704059 0.3211838
000010 55 bf 10 3e ec a5 ab bd c5 5f 35 3f 49 72 8a 3d
       0.14135487 -0.083812565 0.7084926 0.067600794
000020 29 b7 20 3e c0 94 3f 3f 35 0e a1 be ba d8 4b 3f
       0.1569487 0.7483635 -0.31456152 0.79627573
000030 9f ab a3 3d 9e ae 55 3d e4 b6 9f be b4 be e1 bd
       0.079917185 0.05216848 -0.31194222 -0.11022702
000040 c8 ed d6 3c a3 ed 7b bd 02 24 e1 3d 3b f8 34 3f
       0.02623643 -0.061505925 0.10993196 0.7069127
000050 4b 41 a3 bd 70 d9 4b 3f ad 2c 89 3d 33 ce 34 3f
       -0.07971438 0.7962866 0.06697974 0.70627135
000060 a2 6e 9b 3e 5b 1f ae bc 2d 9f b7 be f9 a6 8f bc
       0.30357844 -0.021255186 -0.3586363 -0.017535673
000070 c3 a3 37 3e 47 1b 34 3f 1b c7 3d 3f 6c 5a 48 3d
       0.17933564 0.7035412 0.74131936 0.048914358
000080 79 64 8d bd 5b 5c 06 be ff a3 06 3b 3e d8 16 be
       -0.06903929 -0.13121168 0.0020544527 -0.14730927
000090 d1 91 03 3e c9 8a c8 3d f3 a1 ce be 20 ca b7 bc
       0.12848593 0.09792096 -0.40357932 -0.022435248
0000a0 cf 1f 3e be 1c 80 a3 3e b4 87 af 3d 35 3d 41 bd
       -0.18566822 0.31933677 0.08570805 -0.047177512
0000b0 31 38 bd 3e f7 10 42 3f 82 41 10 be 30 e8 84 be
       0.36956933 0.75807136 -0.14087489 -0.25958395
0000c0 ca 6f d6 bd ae 57 dd 3e 92 51 64 bb c6 9c 06 be
       -0.10470541 0.43230957 -0.0034838659 -0.13145742
0000d0 ca 34 3f 3f 27 60 da bd 79 0f f3 3d 1a df c4 be
       0.74689925 -0.10662871 0.118681855 -0.38451463
0000e0 d8 03 f8 3e 45 fd c0 3d 74 16 fb bd be ac 9b 3e
       0.48440433 0.09423307 -0.12260142 0.3040523
0000f0 a2 91 be bd 75 2d 33 3f 7c 69 4f 3d 6c 20 5b 3d
       -0.09305121 0.69991237 0.050637707 0.053497717

output.weight f4 [4, 64]
000000 53 5b 10 3e 41 28 c7 3c 0e f7 7b 3e a7 c5 7e 3e
       0.14097337 0.024311187 0.24605963 0.24880086
000010 7d 34 64 3e b8 05 9b 3d db 2e 8b 3e cc 21 29 3d
       0.22285648 0.0756945 0.27184185 0.041291997
000020 42 bd 3e 3e 99 e9 91 3e bc 6d 3c be fa 63 83 3e
       0.18626884 0.28498533 -0.18401235 0.25662214
000030 a5 7f 5f bf c4 3c 18 3f 03 ae f7 be 11 19 98 bd
       -0.87304145 0.5946772 -0.48374948 -0.07426656
000040 cb bb b6 3d 2e f9 43 3d a0 2b 27 bf f8 6f 4e 3e
       0.089225374 0.04784506 -0.6530094 0.201599
000050 a4 c9 cc 3c 9c 69 78 3e 11 95 4b bf e8 00 29 3e
       0.024998493 0.24259037 -0.7952433 0.16504252
000060 70 67 11 3e 41 87 93 be 82 77 7c be 15 8a 03 3e
       0.14199615 -0.28814128 -0.24654964 0.12845643
000070 8a 6e 30 3e 3e d9 9c 3e 85 1e 52 3e c4 d7 20 3d
       0.17229667 0.30634493 0.20519455 0.03926827
000080 96 0a 9e bd dc 68 a0 bc ff 55 7b 3e 03 b7 d7 3d
       -0.07716863 -0.01958125 0.24544524 0.105329536
000090 75 b4 61 3d 8b 89 9c bc ca 9e e2 be 75 4f 0c 3e
       0.055103738 -0.019108554 -0.4426177 0.13702185
0000a0 f3 dc f7 be f2 11 1e 3e d6 16 21 bd 2b 8b eb be
       -0.48410758 0.15436533 -0.03932842 -0.46004614
0000b0 0b b8 8a 3e 4b 5f 85 3e ae e4 dc bb 57 1c 0f bf
       0.2709354 0.26049265 -0.006741128 -0.5590262
0000c0 bb 23 ac bc 7e 78 3a 3e 2a 6c 4f 3e 6c 31 4e 3e
       -0.021013131 0.18210027 0.20256105 0.2013604
0000d0 59 c2 6f 3e 38 1c 8b 3d d0 37 92 3e ef f3 b4 be
       0.23413981 0.06792492 0.28558207 -0.35342357
0000e0 0b 51 dc 3d 5f 9b c3 3e af c4 6c 3c f1 8d e4 3d
       0.10757645 0.38204476 0.01445119 0.11159886
0000f0 28 40 72 3e 62 95 6f 3e 0c f3 29 bd 51 ca 9f be
       0.23657286 0.23396829 -0.041491553 -0.31209043
000100 c6 5f 87 3e 11 7c 8f 3e 33 3c 1b 3e ed 20 f4 3d
       0.26440257 0.28024343 0.15159683 0.119203426
000110 ec 48 64 3e 98 ee 38 3e ad 54 f4 3d 24 85 3a 3d
       0.22293442 0.18059766 0.11930213 0.04553713
000120 56 50 2b 3e b8 f4 82 3e 19 96 8a 3d 25 3d 7c 3e
       0.16729864 0.2557733 0.0676691 0.246327
000130 32 1b bb bd a9 54 7b 3e 96 59 bf bd 41 9f e6 3d
       -0.091360465 0.24544014 -0.09343259 0.11260844
000140 87 6a 62 bc 07 76 b2 bd db d3 85 3e ee 8b 99 3e
       -0.013819343 -0.08713918 0.26138195 0.2998957
000150 38 13 d5 3b 5f 1a 8e 3e 16 2d ba be 62 9f ac 3e
       0.006502535 0.27754495 -0.36362523 0.3371535
000160 74 f6 d9 3d b0 d9 28 bf c9 f2 0e be ac 9d 91 3d
       0.1064271 -0.65957165 -0.13959803 0.07110152
000170 6a fa d2 3e 67 33 aa 3e a9 42 73 3e d0 30 16 3e
       0.41206676 0.33242342 0.23755898 0.14667058
000180 09 d4 2a 3e b0 ef 54 bd 4b 66 24 3e b1 4d fa 3d
       0.16682447 -0.051986396 0.16054647 0.1222185
000190 f6 0a c1 3d d2 62 1b be d7 90 67 be 61 2c 35 3e
       0.09425919 -0.15174416 -0.22613846 0.1769271
0001a0 b3 58 26 bf 20 d2 69 3e 82 f2 f8 3d d6 ad af be
       -0.64979094 0.22834063 0.1215563 -0.34312314
0001b0 e2 1f b8 3e 79 eb 11 3e ee 51 cd bc e0 43 7a be
       0.35961825 0.14249982 -0.025063481 -0.24439955
0001c0 3c af a3 bd 50 f1 ca 3d 91 c1 b2 3e 0d e6 1b 3d
       -0.07992408 0.09909308 0.34913304 0.03806119
0001d0 a4 5e 74 3e 50 f4 63 bd 3d 01 f8 bc 3d 56 85 be
       0.23864228 -0.055652916 -0.030274028 -0.26042357
0001e0 b6 f5 1e 3e 47 97 a7 3e ce c6 97 bd 3f 10 3a 3e
       0.15523419 0.32732603 -0.07410966 0.1817026
0001f0 bc 10 85 bd 43 ed 90 3e cb db c3 3e c3 44 67 3e
       -0.064973325 0.28306016 0.38253626 0.22584824
000200 fc c5 a3 be 4c ad 94 3e 8d 60 33 3e 11 ef c9 3d
       -0.31986988 0.29038465 0.175173 0.098600514
000210 cb a1 fb 3d 92 66 37 bf 2e 00 90 3e 4d c8 0c bf
       0.12286719 -0.71640885 0.28125137 -0.54993135
000220 55 3b 7e 3e 23 b9 3d 3e 34 b6 32 3e e0 47 81 3e
       0.24827321 0.18527655 0.17452317 0.2525015
000230 bf 1a c4 be e3 de ac 3e 7d ae aa be 5a ac 3e bf
       -0.38301656 0.337638 -0.3333625 -0.7448174
000240 c9 1f 91 3e 35 0a af 3d 0c 2a c9 3e 3a 94 a1 3e
       0.28344563 0.08546869 0.39289892 0.315584
000250 77 d8 ea 3c c1 2f 95 3e 32 34 0c bf 49 e4 6f 3e
       0.028667672 0.29137996 -0.54767144 0.23426928
000260 32 1c 5d 3e 8d b6 a8 3e c1 79 17 3e cf eb e2 bd
       0.21592787 0.32951775 0.14792539 -0.11080133
000270 b2 64 28 bf 2d eb 19 3e a9 56 9a 3e 1b 19 d1 be
       -0.6577865 0.15031119 0.3014424 -0.40839466
000280 18 63 3d be 37 1d e0 3d 6e 08 a0 3e fc 8a 53 be
       -0.18494833 0.10943072 0.3125643 -0.20658487
000290 19 6b b5 be fe 06 51 3e ec 3b 0a bf c4 9d 6b 3e
       -0.35433272 0.20412824 -0.53997684 0.23009402
0002a0 9f 53 22 bd a1 c4 09 3e 9b cb 53 3e aa c8 f4 3d
       -0.03963053 0.13453914 0.20683138 0.11952336
0002b0 fa d1 83 3d 74 82 98 3e 6a c1 d9 bc 5f d3 9c be
       0.06436534 0.29787028 -0.026581485 -0.30630013
0002c0 4f 1a 90 3d 06 a1 71 3e e6 94 95 3e e4 1f d7 3e
       0.07036268 0.23596582 0.29215163 0.42016518
0002d0 ac a8 3b 3e 33 52 da bd 33 74 21 3e c3 d9 64 be
       0.18326062 -0.106602095 0.15766983 -0.22348695
0002e0 c8 3a 73 3e 36 bf a2 3e b7 d1 53 3d 77 da 81 3e
       0.23752892 0.31786507 0.05171367 0.25361988
0002f0 37 4c 97 3d 81 82 01 3e 90 c1 56 3e 32 20 1c be
       0.07387584 0.1264744 0.20972276 -0.15246657
000300 d7 8f 77 3e 79 94 c1 3e 44 1e 87 3e ef 57 23 3e
       0.24175964 0.37808588 0.26390278 0.15951513
000310 72 f8 82 3e 7b 46 ec 3e e5 5c a4 3e c6 81 f9 be
       0.25580174 0.46147522 0.32102123 -0.48731822
000320 cd 0c 3a bf b8 f1 48 3e 8e ae b7 3d 09 c4 98 3e
       -0.7267578 0.19623458 0.089688405 0.29837063
000330 b6 cc b2 be 14 98 2c 3e ac da 43 bf 09 36 c4 be
       -0.34921807 0.16854888 -0.7650554 -0.38322476
000340 df 99 5d 3e 3f a0 f3 3c 3a 28 8a 3e f5 85 30 3e
       0.21640728 0.029739497 0.26983815 0.172386
000350 2a 13 41 bd c9 bb 88 3e 21 cd 1b bf 74 49 8f 3e
       -0.047137417 0.2670577 -0.60859877 0.27985728
000360 d2 b4 57 3e 11 d2 0d 3f 00 75 82 be 80 23 bc 3e
       0.21065071 0.5539866 -0.2547989 0.36745834
000370 ae 0f da 3e fa 3b 34 3e fa 63 6c 3e 13 d7 b6 3e
       0.42590088 0.17601004 0.23085013 0.35710964
000380 37 31 f7 be b0 9a 5d 3d b4 f3 4c be 82 26 64 bf
       -0.48279735 0.0541026 -0.2001484 -0.8912126
000390 38 bd 88 be 29 92 04 be 55 1b 88 bd 9f cd bc 3e
       -0.26706862 -0.1294638 -0.06645838 0.36875626
0003a0 c1 42 08 bf f7 97 34 3d 36 d6 0d be 08 8a 9e be
       -0.5322686 0.044090237 -0.13851246 -0.30964684
0003b0 01 c0 4e 3e 7d 2e 77 3e 4e 45 34 bd cc 94 da bd
       0.20190431 0.24138828 -0.044011407 -0.10672912
0003c0 7d ee 04 3e 12 2c 86 3e 3f b3 37 be e5 fa 92 bf
       0.12981601 0.26205498 -0.1793947 -1.1482817
0003d0 31 c7 7b 3e c8 fc 1c bd 78 ef af be 97 70 c8 be
       0.24587704 -0.03832701 -0.34362388 -0.391484
0003e0 a3 74 87 3d 3d 60 9f 3e b1 50 ca 3d d8 a3 19 3e
       0.066140436 0.3112811 0.09878672 0.15003908
0003f0 de 53 e1 bd d4 4e 94 3e 2e 39 a2 3e ce 61 db 3e
       -0.110023245 0.2896639 0.3168425 0.42848057

output.bias f4 [4]
000000 b6 46 0f 3f 0a 33 d4 3e 21 c2 e3 3e ca d0 d0 3e
       0.5596727 0.4144519 0.44484046 0.40784293

state_value.weight f4 [1, 64]
000000 94 ec 58 3d e4 0b 6f 3d c8 94 b2 bd 3c 6d cf 3d
       0.052959993 0.05836095 -0.08719784 0.10128257
000010 30 92 53 3c d0 50 08 bc c0 de 1a bc f0 d0 1d bc
       0.012913272 -0.008320048 -0.009452522 -0.009632334
000020 a0 d9 67 bc 44 64 2b bd 98 a5 96 3c c0 a2 08 bd
       -0.014151007 -0.041843668 0.018389508 -0.033358335
000030 b0 45 cf 3d 84 3b 2f bd 00 ea ea bd 20 c8 fd 3d
       0.10120714 -0.042781368 -0.11470413 0.123916864
000040 2c 26 97 3d aa 3f b6 bd bc 27 ca 3d 5c e7 de bd
       0.073803276 -0.08898862 0.0987086 -0.10883972
000050 14 c0 7e bd 1c a5 84 bd f0 fb a9 3c 78 fc 0a 3d
       -0.0621949 -0.064768046 0.020750016 0.03393218
000060 1c f6 50 bd fc c2 2c bd b4 4f 89 bd 4c 2e c4 3d
       -0.05101596 -0.04217814 -0.06704655 0.09579143
000070 4c 51 79 3d a0 96 34 3c a0 a6 de 3b 60 d3 fe 3b
       0.060868546 0.01102224 0.0067947656 0.0077766627
000080 28 72 eb bc c8 eb 67 bd a4 89 e6 3d 4c 04 48 bd
       -0.028740957 -0.056621343 0.112567216 -0.048832223
000090 a4 b5 9d bd c0 50 4c bc c4 b5 1d 3d 96 c3 da bd
       -0.07700661 -0.012470424 0.038503423 -0.10681836
0000a0 f4 f1 0b 3d e0 29 c3 bb bc f8 6d bd 88 80 80 3c
       0.03416629 -0.0059559196 -0.05809854 0.015686288
0000b0 50 39 4c 3c 76 da f6 bd 44 c0 70 3d 0c 1e 43 3d
       0.012464836 -0.12053387 0.05877711 0.047636077
0000c0 ba 31 93 bd dc be 21 3d e4 f8 86 bd e6 62 be 3d
       -0.07187219 0.03948866 -0.06590441 0.09296207
0000d0 50 97 64 bd 90 4c 37 3d 10 50 25 3d c0 97 eb bb
       -0.055808365 0.04475075 0.040359557 -0.007189721
0000e0 10 87 8c bd ac 11 73 3d ac a8 04 3d 0c d8 6d bd
       -0.06861699 0.059343025 0.03238742 -0.058067366
0000f0 d0 fd 8d bc 88 d8 53 3d 46 f4 d7 bd f8 f0 95 3c
       -0.017332941 0.051720172 -0.10544638 0.01830338
