results/64_128_64_0_False_True/checkpoint.pth (torch_old, 78927 bytes, 9 tensors)

hidden_layers.0.weight f4 [64, 37]
00000000: 99a0 bf3e a618 bcbe 9071 91be 7cc9 b5be
00000010: c649 8bbf c93a f63d d193 90bd 38a2 b63d
00000020: 8176 253e 4a3b 4b3d c5ad a8bd 380f 27bd
00000030: 80c4 53bd dd09 29be d5e7 b43b b07c 743c
00000040: eb79 9c3d 960c 223e dfb7 3fbe e9fd 8fbe
00000050: fe6f 953d 581b 503e 0160 4abd 60b2 c13d
00000060: 331c 22bd a5e7 52be 4686 263e e8d3 7d3d
00000070: cfce 96bc 5780 0a3b d000 c5bd ea90 353e
00000080: 04be d13b db9a e5be 112a 1bbd 5ebe 89bc
00000090: 0b67 b5ba 3b07 9e3d 37d0 b73d ab34 923d
000000a0: 3c23 c1bc 3ecc 18bd f785 733c 9564 83be
000000b0: 29bf 4fbe ec40 58bc a57b 973e c342 333e
000000c0: 9c51 0ebe 874c d5bd ffef b73d 27b4 343e
000000d0: 28f6 c5bb 15e8 6ebd bd29 ce3d adad 7f3d
000000e0: f7b8 04bd e2d4 05be b7e6 82be d4ba d4bd
000000f0: 8faa e03c 995a 623e 3f86 2ebe 03ce f5bd
00000100: 30d4 103e b7c9 213d 1c67 2c3e 4f0f bfbd
00000110: f0d9 6d3d ae55 783e a788 093d e3e5 ad3e
00000120: 85bc 8f3d 920c 053d f5c8 a93e b537 933d
00000130: bfce 62be 9904 14bf 5ee6 cbbe 758f a0be
00000140: 9677 01be 8c26 ba3d c69f 5a3e 2404 10bd
00000150: f010 58be f117 023e a4e7 65be 7135 45bc
00000160: a831 fd3d 9e51 c7be e5be 043e e421 44be
00000170: 8395 983e 2eb1 5c3e 0c33 cebe 2336 ccbd
00000180: 81f1 123e 50f5 883d d147 0ebe b18e 21be
00000190: 41ea 253e 90b7 0d3e bd1b eabe 121b 813e
000001a0: 6351 dfbe d71f d93c 1722 72be 7c75 be3a
000001b0: 756c babd 1b04 14bc 4a3b 4bbd 46b2 853e
000001c0: 83b2 e53b 640c c93d 1e7c 533e 0975 9dbe
000001d0: 72d1 d23c be93 1e3d bd44 e83d 38a7 7138
000001e0: 2baa f83d 1a7d 0ebe fa53 753c ba68 903e
000001f0: b620 cabd 56ff 95be bc56 0c3e 6e41 55be
00000200: 15ba ba3d 30b7 95be 73d6 c7be 92ea 573d
00000210: 9d11 713b 1b7e ebbc 7692 4e3e 7b96 a0bc
00000220: 51ba 4d3d 2b31 a43d 8e02 b73d 1efb f63d
00000230: 7e78 273e 474c 6e3e 5a68 ad3d 5dfd eabc
00000240: 8cc3 26bd 6d95 de3d c17e 153e 3ce1 1abd
00000250: 5f23 0f3d 39d1 75be 67d2 71be 14a1 dfbc
00000260: abdf 45be 9d06 ffbd 6486 833e 3f3c d03c
00000270: 7612 88be 5cfd b73c 3f25 49bd 988c 973c
00000280: 6ddc 08be 229b b6bd 64b2 a3be c4d6 9bbe
00000290: 79b6 88be ee46 373e 35cc 90be 2c2e d0be
000002a0: d7b1 53be f8ef 57bd 38ce bb3d 131f 033c
000002b0: 5877 adbe e52f 59be 9e42 cabd 5907 943e
000002c0: 6ac3 0dbf 116e 3abf 404c 323d 2326 8fbe
000002d0: 69e1 a73d 1ec6 653c a4a0 133e 72db c53d
000002e0: 7b35 49bb 406f 503d bb0f 5d3c 3874 a7bc
000002f0: c304 c8bd 74f1 0b3e e422 a93e c901 cbbd
00000300: 2cdc d0be fdd5 1fbe 73c1 88bf 355b 23bd
00000310: 3ba7 bcbd e4bc 963d 4b09 d1bd 4417 ba3d
00000320: abe8 333d 0407 453d 4f17 49bd f658 173d
00000330: 428b c9bb 8978 073e a077 f53d 8a11 f53d
00000340: 3441 f83d 5415 213e 7d05 823d ae19 2dbd
00000350: 550e 723c a8e2 083e 2483 f03d a2ac 213e
00000360: 9dbf 3d3d be65 82be 510e 21bd b795 7dbe
00000370: 66b9 bb3b d603 b93d 9864 0a3e eba7 0ebc
00000380: ade6 46be a75f fa3d 2808 95be 9a48 02be
00000390: 7f95 643d 3d4a 50bc e17e bb3c e026 cd3e
000003a0: a6e9 203e 23ae 7b3d 1ff4 a93d af8f 593c
000003b0: 1386 a03e c380 1bbd e3fc 7bbc 6d7e d1bb
000003c0: d26d a13d f35e 123e 3527 a7bd dc3b 5bbb
000003d0: d57e bb3d 9b84 d33b 2793 a13e 9750 ffbd
000003e0: 774c d4bd 8167 113e 694d 1f3e 1991 623e
000003f0: 7965 963e 9c5b 97bd 93ba f4bd f8cb 8dbe
0.37427214 -0.36737555 -0.28406954 -0.35505283 -1.0881889 0.12022931 -0.07059444 0.089176595
0.16158487 0.04961709 -0.08236269 -0.040785998 -0.05170107 -0.16507669 0.0055208006 0.014922306
0.076404415 0.15825114 -0.18722485 -0.28123406 0.072967514 0.20322931 -0.049407963 0.094578505
-0.039577674 -0.20596178 0.16262159 0.061969668 -0.01840916 0.0021133625 -0.096192956 0.17731062
0.0064008255 -0.44844708 -0.037881915 -0.016814407 -0.0013839913 0.07716223 0.08975261 0.07138952
-0.023576371 -0.037304156 0.014863483 -0.25662675 -0.20287766 -0.013199072 0.2958652 0.17505936
-0.13898319 -0.10414987 0.089813225 0.17646848 -0.006041307 -0.0583268 0.10066555 0.06242149
-0.03240296 -0.1306949 -0.25566646 -0.10387197 0.027425079 0.22104873 -0.17043398 -0.12002184
0.14143443 0.03949901 0.16836208 -0.09329092 0.05806917 0.24251434 0.033577587 0.33964452
0.07018379 0.03248269 0.3316113 0.0718836 -0.2214918 -0.57819515 -0.39824194 -0.3135945
-0.12643275 0.090893835 0.21350011 -0.0351602 -0.21100211 0.12704445 -0.22451645 -0.012036667
0.12362987 -0.38929456 0.12963445 -0.19153553 0.29801568 0.21551964 -0.4027332 -0.09971263
0.14349939 0.06687415 -0.13894583 -0.15777089 0.16202642 0.13839555 -0.45724288 0.25215966
-0.4361678 0.02650444 -0.23645817 0.0014530863 -0.09102718 -0.009034182 -0.04961709 0.26112574
0.0070098056 0.098168164 0.20652816 -0.30753353 0.025734637 0.038715117 0.11341236 5.7614612e-05
0.12141832 -0.1391491 0.014973635 0.282049 -0.0986952 -0.29296368 0.13704962 -0.2082574
0.091175236 -0.29241323 -0.390308 0.052713938 0.003678418 -0.028746655 0.20173058 -0.019603005
0.050226513 0.080171905 0.08936034 0.120596156 0.16354558 0.23271285 0.08467169 -0.028685266
-0.04071383 0.108683445 0.14599134 -0.037812456 0.034945842 -0.24005593 -0.23615418 -0.027298488
-0.19323604 -0.12452433 0.2568847 0.025419353 -0.26576585 0.022459678 -0.049107786 0.018499658
-0.13365336 -0.08916308 -0.3197204 -0.3043729 -0.26701716 0.17898151 -0.28280798 -0.40660226
-0.2067331 -0.052719086 0.091701925 0.008003014 -0.33880115 -0.21209677 -0.098759875 0.28911856
-0.55376303 -0.728242 0.04352975 -0.27958784 0.081972905 0.014024286 0.14416748 0.096609965
-0.0030702043 0.050887346 0.01349252 -0.02044116 -0.09766533 0.13666326 0.33034432 -0.0991245
-0.40792978 -0.15608974 -1.0684036 -0.039881904 -0.09211584 0.07360247 -0.102068506 0.09086469
0.04392306 0.048102394 -0.049094494 0.036950074 -0.006150634 0.13229574 0.11985707 0.11966236
0.121218115 0.15730792 0.06348703 -0.04226082 0.014773925 0.13367712 0.11743763 0.1578851
0.046325315 -0.25468248 -0.039320294 -0.24764143 0.0057288883 0.09033935 0.13514936 -0.008707027
-0.19423933 0.122252755 -0.29107785 -0.12723008 0.055806633 -0.012713012 0.022887649 0.40068722
0.1571413 0.061445367 0.082985155 0.013278886 0.3135229 -0.037964594 -0.015380117 -0.006393245
0.07882275 0.14294033 -0.08161775 -0.0033452427 0.09155051 0.006455017 0.3155758 -0.12466543
-0.10366147 0.1419964 0.15556873 0.22125663 0.29374292 -0.0739052 -0.11949649 -0.27694678

hidden_layers.0.bias f4 [64]
00000000: 8646 f73d c616 8bbd 191d febd d987 6bbc
00000010: 3686 263e 4ba1 b3bc 0aff 8fbd e9c7 063e
00000020: 546d d5bc 2eb6 0abe 22cc 213e 8c69 ce3d
00000030: fb52 293e aad4 e23c 9b38 71bd b831 05bd
00000040: 50b1 fd3b d862 55bd e665 08bd 0702 47be
00000050: 4e5d 063c 134c 963c 1d75 973c a50b afbd
00000060: 9169 aebd 6d48 1e3e e6ef bcbc 6fd3 54be
00000070: 8065 3e3e f699 203e 94bf cdbd fc9e 54be
00000080: df59 143e 4807 5dbd 900f 08be fc47 5b3c
00000090: 64b3 03be 70ce a53c f80c 08bd 3d3e 16be
000000a0: 2624 d3bd e642 54bd b61c a0bd 37eb 0d3e
000000b0: b9ce 5e3c 4258 16be c4d0 93bc 4e93 1abe
000000c0: d9e9 1dbd f9de c83c d0a9 2fbe ac82 f93d
000000d0: 99c1 483d 98d3 62bd 1b4c 4cbe ee65 0a3c
000000e0: 37ef 8b3d e304 05bd 050d a5bd 7cde 14be
000000f0: c721 733d dbaa 323b d851 573d 8b00 8e3c
0.12073998 -0.06791453 -0.12407894 -0.01437565 0.16262135 -0.021927496 -0.07031067 0.13162197
-0.026053108 -0.13546059 0.15800527 0.10078725 0.16535561 0.027689297 -0.058891874 -0.03251812
0.0077420846 -0.052096218 -0.033300303 -0.19434367 0.0082009565 0.018346822 0.018488461 -0.08547143
-0.08516229 0.15457316 -0.023063611 -0.2078378 0.18593407 0.15683731 -0.10046306 -0.20763773
0.14487408 -0.053962022 -0.13287187 0.013383862 -0.12861401 0.020240039 -0.033215493 -0.1467218
-0.10309629 -0.05182161 -0.07817976 0.13859259 0.013599091 -0.14682105 -0.018043883 -0.15095255
-0.038553093 0.024520384 -0.17154622 0.12183127 0.049012754 -0.055377573 -0.19950907 0.0084471535
0.06832736 -0.032475363 -0.08059124 -0.14537996 0.059358384 0.0027262482 0.052568287 0.017334243

hidden_layers.1.weight f4 [128, 64]
00000000: 9382 b9bd 0cc1 cb3c 5ad5 513e bbb4 023e
00000010: 907d 013e d59f dbbb f6c9 b73d 9fc4 133e
00000020: feac 34be f55f 233e 850c 873c f215 9bbd
00000030: 3b2d 40be 08a3 2b3e ba7a 4abe 1b9d 32be
00000040: 68f4 9abd 9ac9 d7be d148 bc3c f5eb 073e
00000050: 3ad8 2bbe 4719 b6bd 620e ed3c de9d 9dbb
00000060: 50c4 a4bd a2cc 893d 3034 403e 40e5 b8be
00000070: 1f7c 04bc 76e0 3d3c 8faf b9bc cc25 00be
00000080: e2fd 9dbd bd3c fc3b 39fd 793d c95b 14be
00000090: 747d b5bd 3f10 1cbe 71fe 7b3d 1f77 e63c
000000a0: eb1d 72be 4939 84be b3c4 23bc e106 17bd
000000b0: 8fde c43d 838c 4e3d 2033 64be 637b 11be
000000c0: da42 c9bd e2de 59bd 5460 96bd 1f81 9cbd
000000d0: 00a9 e7be 67a4 09be 8038 22be d7da 9fbd
000000e0: 0c8f 8cbd db48 dd3d 1f2b b2be c4be ca3d
000000f0: aaf6 62bd 6cb9 993d 5c5b 85bc a369 04bd
00000100: a053 ac3d f957 d53d dd85 c93d 4f0f f93d
00000110: ddd9 513c 0178 1f3e e107 e43c fe6a 263e
00000120: b58b 2b3d 7163 a9bd 9e56 d63c 15fe e93d
00000130: 248e 56be 0dca 703d 4feb 11be d2d0 533e
00000140: aa76 483d b711 09bb 4bde 40be 79d3 9e3d
00000150: fb7f 033e 338d 8abe f614 203e 16b4 f6be
00000160: ac77 fa3d 5010 ba3d b15d b1bd eafc c7be
00000170: a19b 243e 650c 2abc 2db6 01be a693 c63c
00000180: bce1 fbbd 63ba 1fbe 4061 b13c 2c2d 1d3e
00000190: 6a5f 56bd e6a3 833d 6932 223e 67fb 4fbd
000001a0: ba51 fb3b c94f 24bd 385d 3b3d 5136 1fbd
000001b0: cd92 57bd 0ff0 51bd b4aa bebd fdfa 303d
000001c0: 5a49 15be 7ab9 35be 589c 75bb 2721 143e
000001d0: eb30 003b becf cfbd e272 85bd 3fd8 33bd
000001e0: cb31 08be de09 50bd dbce 413e b701 68bd
000001f0: d93e a6bd 761c 733d 7530 05be eade 8c3c
00000200: 0c0c 4abe 1d5f 45be 9324 583e fcd1 14be
00000210: b723 16be 3e8b 153d 1b63 863b af41 03be
00000220: e90c 7cbd 627e 0cbe 9621 233e b5f7 00be
00000230: 8786 5fbd a124 ae3d 6ef8 683b 8ac0 acbc
00000240: c94b 82bd 8832 f23c e6a5 f7bd 0622 52bd
00000250: 7ec7 883d b75f 643e 4947 4f3d 6506 c4bd
00000260: a14c 0ebe 218b 7a3e 7f08 9e3d a382 18be
00000270: f268 88be 6956 373e db61 1fbe 67b7 12be
00000280: cf46 89be d3af fdbd 3616 1ebe f2af e03d
00000290: 0af5 0e3e 6e00 763d cede 90bd bb44 a53c
000002a0: 1d2d 843e 7a4b babe ef77 6abe b504 01bf
000002b0: fa3c 0b3d 9bb3 0bbe c33a 8bbe 25f4 c5bd
000002c0: b039 53be 8a58 c2bd ac72 54be dc3c 2bbd
000002d0: a4b0 73be 394b 973d ccaa 47be db2a f2be
000002e0: e8a5 2b3e 13a3 10be e649 7c3d e5d8 193b
000002f0: dd0e c3be 9a04 d6be ef7e ae3c e4d6 6a3d
00000300: 1019 a43c 8ed0 76be 535f 833e 4f6e 6bbe
00000310: 3547 9e3c e1d7 073c 6536 83bd 3f95 a6bc
00000320: 328b 49be 6d2f f7bd f6fb bb3c c5cc 3d3e
00000330: 1a28 cebd 0c0f 433d dc94 893e 1f1d dcbd
00000340: e175 873c 6167 e33d d5e6 66bc 5abf b13d
00000350: adc2 063e 9ae0 783e 8661 d03c 064f 4a3a
00000360: 82c6 f13d d69f d9bd 477c edbd 337b a23c
00000370: 6321 483e 4e2d 62be 09fc e2bd 2626 4b3c
00000380: 0ac6 a4bd 13e1 88bd 29ce d03c 165e 453e
00000390: f7f1 92bd e328 843d 400e 0b3c 487f 473e
000003a0: 63f9 0b3e cd49 f03c 4bb9 033e efd2 a8bd
000003b0: 7364 3d3c b91f c83c 141f 9ebd d1af 8b3d
000003c0: e888 0cbc afb8 923c cdeb 40be 9578 343d
000003d0: eff9 7f3c 572d 7c3e f082 4fbd 49f6 9a3b
000003e0: e9f8 f3bd 7d4e 71be 38b8 a9bb 7507 6e3e
000003f0: 90b9 35be df20 24be e0f6 84be 5e0a fab9
-0.09058108 0.024872325 0.20491543 0.12764256 0.12645555 -0.006702403 0.08974068 0.14430474
-0.17644116 0.15954573 0.016485462 -0.07572545 -0.18767254 0.1676141 -0.19773379 -0.17442743
-0.07566148 -0.42145997 0.02298394 0.13273604 -0.16781703 -0.0889154 0.028937522 -0.004810079
-0.08045256 0.06728484 0.18769908 -0.36112404 -0.008086233 0.01158916 -0.02266672 -0.12514418
-0.0771444 0.0076976703 0.061032508 -0.14488138 -0.08861819 -0.15240572 0.06152195 0.028132973
-0.23644225 -0.25824955 -0.009995627 -0.036871795 0.09612762 0.05042697 -0.22285128 -0.14207225
-0.09827204 -0.053191073 -0.07342592 -0.076418154 -0.45246124 -0.13441621 -0.15841866 -0.07805412
-0.068632215 0.10804912 -0.34798524 0.09899667 -0.05541102 0.075060695 -0.016278915 -0.032327306
0.08414388 0.1041717 0.098399855 0.12161123 0.01280829 0.15573122 0.027835788 0.16251752
0.041881282 -0.0827092 0.02616435 0.114254154 -0.2095266 0.05878644 -0.1424992 0.20685127
0.048941292 -0.00209151 -0.18834798 0.07755179 0.1284179 -0.2706085 0.15632996 -0.4818427
0.12229857 0.090851426 -0.08660448 -0.39060146 0.16074993 -0.010378932 -0.12667151 0.024240326
-0.12298915 -0.15598445 0.021652818 0.15349263 -0.052337088 0.064277455 0.15839542 -0.050776865
0.0076696547 -0.04011515 0.045743197 -0.03887016 -0.052630235 -0.05125433 -0.09309903 0.04320811
-0.14578763 -0.17746535 -0.0037477221 0.14465772 0.0019560407 -0.101470456 -0.06516053 -0.0439074
-0.13300245 -0.05079066 0.18926565 -0.05664226 -0.08117456 0.059353314 -0.13006766 0.017196137
-0.19731158 -0.19274564 0.21107702 -0.14533228 -0.14662062 0.036509745 0.0041011698 -0.12818025
-0.06153575 -0.13720086 0.15930781 -0.12594493 -0.054571655 0.0850308 0.0035548466 -0.021087904
-0.06362111 0.02956511 -0.120921895 -0.05130198 0.06678675 0.22302137 0.050605092 -0.09571532
-0.13896419 0.24467136 0.07716464 -0.14893584 -0.26642567 0.17904057 -0.15564673 -0.14327775
-0.26811835 -0.123870514 -0.1543816 0.10971059 0.13960662 0.060059004 -0.070737466 0.020174375
0.2581567 -0.3638571 -0.22897314 -0.5039781 0.0339937 -0.13642733 -0.2719327 -0.096657075
-0.20627475 -0.09489544 -0.20746869 -0.041806087 -0.23797852 0.073873945 -0.19498748 -0.4729832
0.16762507 -0.14124708 0.061593913 0.0023475226 -0.38097277 -0.41800386 0.021300761 0.057333842
0.020031482 -0.24102995 0.25658664 -0.22991298 0.019321064 0.008291216 -0.06406859 -0.020334838
-0.19682005 -0.120695926 0.022947293 0.18535145 -0.100662425 0.04762177 0.26871383 -0.10747742
0.016535701 0.11103702 -0.014093121 0.086790755 0.131602 0.24304429 0.025437128 0.0007717464
0.118054405 -0.106261894 -0.1159597 0.019834137 0.19543986 -0.22087595 -0.11083228 0.012399232
-0.080455855 -0.066835545 0.02548893 0.19274172 -0.071750574 0.06453111 0.008487284 0.19482148
0.13669352 0.029332066 0.12863652 -0.082433574 0.0115595935 0.024429189 -0.077207714 0.06820644
-0.008577563 0.01791033 -0.18839951 0.04406031 0.015623554 0.24626671 -0.05066198 0.0047290665
-0.1191271 -0.23565097 -0.0051794313 0.23245032 -0.17746568 -0.16028164 -0.259696 -0.0004769144

hidden_layers.1.bias f4 [128]
00000000: d6f3 29bd 5b5e 1c3d 8a09 3a3d 140e cbbd
00000010: d149 e53d 3e84 7f3d 051e 9d3d 05d0 cbbd
00000020: 0f69 8abd b3db 0b3e 1d14 b43d 7f01 cdbd
00000030: c482 af3c eadf ffbd 2b33 183d 4b3c f5bd
00000040: 00c0 a33d 0f2a 21bd c333 053e 9498 6ebd
00000050: a299 acbd 0df3 703d 5d36 fdbd cb33 89bd
00000060: 612e 493b dfe0 95bd b740 e63c a2e7 813d
00000070: bc60 ef3c 2a07 a23b 019c 84bc 24c7 4f3d
00000080: 98c9 13be 82f6 b73d 2da1 e33d f414 833d
00000090: b31b b8bd 8a7a abbb a5f2 54bc 6354 f9bd
000000a0: 3203 093d 95bd ff3c 99f1 ebbc 3f6e cd3d
000000b0: 4a5c d4bc 3c1f e93d 0005 87bd 1fc5 02be
000000c0: 2c2d 61bc 8a78 bfbd 99fa f13d beb1 2cbd
000000d0: 1d08 013e 7919 e3bd 0b90 913d 19ca 6d3d
000000e0: d268 d1bd 3546 c0bd 7a80 24bb 6bdc 50bc
000000f0: 2bcc 13bd 4aba 643d 0faa 45bd 97f8 523e
00000100: f317 0f3b e177 40bd d5f1 b03d bc63 fabd
00000110: 9aee 47bd a6ee 6b3c f1b8 09be 7863 2b3e
00000120: fb77 f3bd f8b9 8f3d 2708 91bc 3f53 0ebe
00000130: 4d42 b93d 6890 d3bc 5d09 e0bc fada 31bc
00000140: 6adf 21be f8a8 9c3d d35a b13d e819 a03c
00000150: 0352 9e3d 415d 993d 22b8 a93c c9e2 983c
00000160: ef31 a5bd 55d6 8bbc 3be7 92bd 9f0d a03d
00000170: 4ffe 4c3d 09f9 a6bb fbff e5bd ce36 04be
00000180: 9b5b 1dbe 2b1e e83c 6e05 863d 1ab0 1cbe
00000190: 0754 f3bc 6402 f93d fc64 063c c9fd 88bd
000001a0: 7f9d 2abd f3f0 ad3d b389 713d e5ae 403d
000001b0: 9d8a f3bc 8e64 1cbc 78c6 05bd 18c9 ddbc
000001c0: 98b1 04be 2f4f dd3d b4f5 593c c6cb 0c3e
000001d0: 0fd6 f3bd b567 b13d 5a16 e53d dcc0 c03d
000001e0: f563 d0bd 7eac 78bd 8f9c 2c3e a597 2cbd
000001f0: 4030 aabb 44f4 8f3c 7df7 88bd 4095 a23d
-0.041492306 0.038175922 0.045419253 -0.099147946 0.1119572 0.062381975 0.076717414 -0.09951786
-0.067583196 0.13658027 0.08792899 -0.10010051 0.021424659 -0.1249388 0.037158173 -0.119743906
0.079956055 -0.03934675 0.13008027 -0.05825098 -0.08427741 0.05882554 -0.123638846 -0.06699332
0.003069781 -0.073182814 0.02810703 0.063430086 0.029220931 0.0049447017 -0.01618767 0.050727025
-0.1443237 0.089825645 0.11114726 0.06400481 -0.08989658 -0.0052331137 -0.012997304 -0.121742986
0.033450313 0.03121833 -0.028801726 0.100307934 -0.025922913 0.113829106 -0.065927505 -0.12770508
-0.01374368 -0.09349163 0.11815376 -0.042161696 0.12600751 -0.11088843 0.07107552 0.058054063
-0.10225071 -0.09388391 -0.0025100992 -0.012747864 -0.03608338 0.05584172 -0.048257884 0.20602642
0.0021834343 -0.046989325 0.08639876 -0.12226054 -0.048811533 0.01440016 -0.13449456 0.16737163
-0.11888119 0.070178926 -0.017704083 -0.13898943 0.09045849 -0.025825694 -0.027348215 -0.010855431
-0.15807882 0.07649416 0.086599015 0.019543603 0.07730486 0.0748849 0.020717684 0.018662827
-0.08066165 -0.017069975 -0.0717301 0.07815098 0.050047215 -0.0050956053 -0.11230465 -0.12911531
-0.15366976 0.028334698 0.065440044 -0.15301552 -0.029703153 0.12158659 0.0082027875 -0.06689031
-0.041654106 0.08493223 0.05896921 0.047041792 -0.029729182 -0.0095454585 -0.032659978 -0.027073428
-0.12958372 0.10806119 0.013303209 0.13749608 -0.11906063 0.08662359 0.11185904 0.09411785
-0.10175315 -0.060711376 0.16856597 -0.042136807 -0.00519374 0.01757253 -0.0668783 0.079386234

hidden_layers.2.weight f4 [64, 128]
00000000: 1439 103e da33 b63b d3fa 873d 7b34 003e
00000010: 64e9 fbbd a709 06bc 1693 2fbe 62f1 d3bc
00000020: 6134 c13d 26c4 363d ad15 fc3c 1d5e 43ba
00000030: 03da 65be 30f6 253c f597 ba3c fb69 d83d
00000040: ef16 1b3e c76b a1bd 6ac4 963d b8d4 2bbe
00000050: 8419 d13d 0c9e 8bbd 87fa 21be 779f ed3c
00000060: 7f9c a43d 9e15 dcbc 0854 d4bd 38fb 51bd
00000070: 5451 7f3e c23a 803d deeb 94bd 5186 d5bd
00000080: 94d8 493e 071a 01be 3e65 1b3d 5569 823e
00000090: 068d 0ebd 6986 8b3b 8888 24bd 8025 2dbe
000000a0: 915d a3bc 1d46 ab3d 4ff0 ae3d a291 f5ba
000000b0: 0b91 793e cd2e 773d a6d5 b2be c061 c6bd
000000c0: bc95 f8bd ebfc 163e 7c92 443e 597d 0bbd
000000d0: 3c02 be3d 4b71 2d3d 2694 69bd 7340 073e
000000e0: 404a 373d e1f7 74be c23f 453e f468 f83b
000000f0: 0856 8d3d e13c 533d fe2c 103e f393 65bc
00000100: 3c15 9fbc 2695 643e 9b80 99bd 31b1 c63e
00000110: b87b 49be d3eb a3bc 5d20 22be a0fe c33d
00000120: 34ca 993d 0261 d13c bb56 96bb 9008 1b3e
00000130: f72c 373c e112 e03d c4cc 0ebe baf3 a03d
00000140: ff71 033e 75bc 6f3d 09c4 d1bd 49fd 7b3e
00000150: 72ea af3d 59e2 1cbe 64fd 5c3d a819 be3d
00000160: 290c 823e 64fd 02be 5090 65be 32d0 323d
00000170: f615 d03d 78c1 c1bd 1e17 a4bd 8c11 8bbd
00000180: 1aee 693d b125 82bd 8457 923c 6bed 013d
00000190: d363 91bd 7a7b af3d 89ed 6cbe 396c 013d
000001a0: 55af 2e3e 8e9e 5ebd 2767 a5be 4bd9 ca3d
000001b0: 36a9 03bc 0761 3ebe e6ce 37bc 8a87 81bd
000001c0: 1569 93bd f5ac 4e3e d871 8abe be09 c9bc
000001d0: 2f16 783e e9f5 0a3d bacb c9bd 1575 61bd
000001e0: 00e4 003e cb4e 85bc 19f0 79bd 6d3f 4bbe
000001f0: 78c9 aebc da4a 41bd fe72 08be 5299 56bd
00000200: a8c6 9b3d 2a7b 9fbd 2b7f 03be 12b8 c73d
00000210: a94a 76bd 75c8 473d d602 9dbe 2ad4 0d3e
00000220: cbbf bebc e96a 893d 80a1 943d a7fa 1b3e
00000230: 8790 76bd 6ac3 69be b2e6 c2be 29b9 9d3d
00000240: 816f 22be 0e92 6f3d e217 b13d 1270 d8bc
00000250: 4cdc 8bbc 2559 d8bd f0c9 0f3d 7c1a 35bc
00000260: c190 a53b e585 2bbe 0735 67bd 60b7 2a3d
00000270: 4142 7cbd ff17 183e 1276 a63c 08bf f83d
00000280: 14e9 cd3d 4d4d dc3b 2134 8d3d 676f 2d3a
00000290: 9859 983d 006c 34be ef61 193e a864 60be
000002a0: ed28 cebd 25b9 993c 2960 a1bd cf72 c4bc
000002b0: 0750 513e 77df 08bc 41b3 b63d ad82 f1bc
000002c0: b102 413d 473e d13c 94d2 c7be dec8 82be
000002d0: 6ff6 a43d 71a2 583e 2e47 723e a0d9 473e
000002e0: 2069 cc3d 13f1 2fbe b400 ea3d d09f 41bc
000002f0: a808 70be 30a6 5e3d d783 02bd 9bbe cb3d
00000300: ca22 1e3e 1d86 1bbd 4186 963d 6ea6 9c3e
00000310: 6477 19be 3fcf 16bc 96c3 50be a717 2f3e
00000320: 2d48 08bd 792a 8f3e 465d de3d eca5 f83d
00000330: 7cc2 bdbe 9d4b 373d d54d 09be 489b 1bbe
00000340: 1c6b 23be 211b e33d af02 6e3d cb09 893d
00000350: 6c1f 4fbe aa3d 873d ca87 3f3c 5352 47bd
00000360: 797c 49bd d469 403e f807 bbbd a822 f3bd
00000370: 1f2c 3bbe ebb6 da3c c538 99be 23f5 b33c
00000380: 56d3 aabd d4b5 183d dcf4 e0bc 07ed 383d
00000390: e95b 393d d628 8fbd b879 14be 1c2d ef3d
000003a0: 4521 17be 5d0a 9ebd bed4 ff3b f486 aebd
000003b0: 89e4 723d 15c6 8e3c ccf5 98bd 63b5 46be
000003c0: 472e 0c3d 3ddd f0ba df8b 53be 183e 003e
000003d0: 796a 8fbe f81b 88bd d2a5 213d 91b8 4b3b
000003e0: e6de 4f3d 17b9 52be 9157 b03c eca9 fd3d
000003f0: d063 53bd 91d9 ae3d e415 c83c c97f 183d
0.14084274 0.0055603804 0.06639638 0.1252002 -0.12300375 -0.008181012 -0.17145953 -0.025871936
0.094338186 0.044620655 0.030772055 -0.00074526836 -0.22446446 0.010129496 0.022777537 0.10567089
0.15145467 -0.07881885 0.07361682 -0.16780365 0.10209945 -0.068172544 -0.15818225 0.029006703
0.08037662 -0.026865777 -0.1036759 -0.05126497 0.24933368 0.06261207 -0.072715506 -0.104260094
0.19711524 -0.12607585 0.03793835 0.25470987 -0.03480246 0.0042579663 -0.04016927 -0.16908836
-0.019942077 0.083629824 0.08541929 -0.0018735419 0.24371736 0.060347367 -0.34928626 -0.09686613
-0.121379346 0.14744918 0.19196504 -0.034055088 0.0927777 0.042344373 -0.05702605 0.13208179
0.044748545 -0.23922683 0.19262603 0.0075808708 0.06901175 0.05157173 0.14079663 -0.014012325
-0.019419305 0.2232252 -0.07495233 0.3880706 -0.19676101 -0.02000991 -0.15832658 0.0957005
0.0750927 0.025558952 -0.004587976 0.15139985 0.011180154 0.10941101 -0.139453 0.07858987
0.12836455 0.058529336 -0.10242469 0.2460834 0.08589639 -0.1532072 0.05395259 0.09282237
0.25399902 -0.12791973 -0.22418332 0.04365558 0.10160439 -0.09460729 -0.08012222 -0.06790456
0.057111837 -0.06354845 0.017863996 0.03172056 -0.07099118 0.08568473 -0.23137487 0.03159735
0.17059071 -0.05435043 -0.32305261 0.099047266 -0.0080359485 -0.185917 -0.011218762 -0.0632468
-0.07197777 0.20183165 -0.2703998 -0.024540778 0.24227212 0.033925924 -0.09853311 -0.0550433
0.12586975 -0.016272923 -0.06101999 -0.19848414 -0.021336302 -0.047190525 -0.13325116 -0.05239231
0.0760625 -0.077871636 -0.1284148 0.097519055 -0.060129795 0.048775155 -0.30666226 0.13850465
-0.023284813 0.067098446 0.07257366 0.15232335 -0.060196426 -0.22828451 -0.38066632 0.07701332
-0.15862848 0.058488898 0.086471334 -0.026420627 -0.01707282 -0.10563878 0.035104692 -0.011053678
0.0050526564 -0.16750295 -0.056447055 0.041678786 -0.061586622 0.14852904 0.020319972 0.12145811
0.10054222 0.006723082 0.068947084 0.00066160265 0.07438964 -0.17619324 0.14978765 -0.21913397
-0.100664 0.018765042 -0.07879669 -0.023980526 0.20440684 -0.008354059 0.08920909 -0.029481256
0.047121707 0.025542391 -0.39027846 -0.25543875 0.08054816 0.21155716 0.23659965 0.19516611
0.099809885 -0.17181806 0.11425915 -0.011817887 -0.23440802 0.054357708 -0.031864014 0.099484645
0.15442958 -0.037969697 0.07349826 0.30595726 -0.1498695 -0.009204685 -0.2038711 0.17098866
-0.033271957 0.27962092 0.10857634 0.12141022 -0.37062442 0.044749845 -0.13408597 -0.15195954
-0.15958828 0.11089159 0.058108028 0.06691321 -0.2022683 0.06603558 0.0116900895 -0.048662495
-0.049190972 0.1879037 -0.09132379 -0.118718445 -0.1827855 0.02669855 -0.29926124 0.021967476
-0.083410904 0.03728278 -0.027460508 0.045147922 0.045253668 -0.06990211 -0.14499557 0.11678526
-0.14758785 -0.077168204 0.0078073433 -0.08521834 0.05929998 0.017428437 -0.07468757 -0.19405131
0.03422382 -0.0018376481 -0.20658825 0.12523687 -0.2801092 -0.066459596 0.03946478 0.0031085352
0.050749682 -0.20578419 0.02152613 0.12385926 -0.05160886 0.08537591 0.0244245 0.03723124

hidden_layers.2.bias f4 [64]
00000000: 733f 2abd eced 023e c78d 5b3e bf1c 0e3d
00000010: f48c 72bd 4508 babd 72c9 253e af76 7dbd
00000020: 81c6 573d add4 823e c17d cc3b 027f a33e
00000030: 19a3 c6bb 5e23 6ebd cd5b bbbc 2722 09be
00000040: b8ee ea3b cfb9 d63d 2971 b13c 07bd 833e
00000050: 6989 353d c2a8 7c3e 39b4 663d 557a 0dbc
00000060: 607d a03d 42cf 36bd 2662 00be 2ec6 a63d
00000070: 97a1 783a 638c 703e 56d1 9a3e ce3c 323c
00000080: 6a7f 9f3d e55c c3bc 1730 24bd 0e39 93bd
00000090: fe45 cbbc cbb5 b2bd c0d0 9abd aa5f 1d3d
000000a0: 8844 98bd 0322 353e b33d 28bc dd4c ac39
000000b0: 3690 033e 0845 a63d d099 adbd a3a6 31bc
000000c0: b239 aa3c 3c6e 513e d5a8 f03d 864f 45bd
000000d0: a5fb 2e3e f475 92bd 91a6 0dbe 8ee0 fb3d
000000e0: 6a76 023e 6e98 08bd d45e 8bbd 72c5 573d
000000f0: ce64 61bd c2ab 583e 34bd 0c3d 44f5 8b3c
-0.041564416 0.12786072 0.21440803 0.034695383 -0.059216455 -0.090836085 0.16190127 -0.061880764
0.052679542 0.25552884 0.006240577 0.31932837 -0.006061923 -0.058139198 -0.022870922 -0.13391934
0.007169571 0.10484659 0.021660404 0.25730154 0.044320498 0.24673751 0.056324217 -0.008635123
0.078364134 -0.04463125 -0.1253744 0.081432685 0.0009484528 0.23491053 0.30237836 0.010878755
0.07787974 -0.023848007 -0.040084925 -0.07188617 -0.024813648 -0.087260805 -0.07559347 0.03842131
-0.07434946 0.17688756 -0.0102686165 0.00032863664 0.12847981 0.081186354 -0.08476603 -0.010842952
0.020779464 0.20452207 0.11750952 -0.048171543 0.17088182 -0.07151404 -0.13833071 0.1229869
0.12740484 -0.033348493 -0.068051964 0.052678533 -0.055027775 0.2115927 0.034360126 0.017084725

output.weight f4 [4, 64]
00000000: b3cd c73d 0182 3cbd cc9e 183e c1fb 87bd
00000010: b65d 973d 700b 603d 6796 e13e 01dc 1fbe
00000020: 74ab 043e 9379 343e c5bf 98be 6144 0c3e
00000030: 3fd0 84be f03d 8bbd fe9d 9cbc 34fe 8d3d
00000040: 8982 db3c 0dec 443e 62f3 c5be 4def d23d
00000050: 0dd5 683e 8adb 173e 7689 d4be 0ed7 ba3d
00000060: eef5 023e 4035 46bc d62e 2dbe d792 b43d
00000070: e504 ce3d c4b4 303e b29b f03d 69ab 4cbe
00000080: ee51 dd3d e19b 6ebe b7ea 543d 5ab0 473d
00000090: 4e82 e93b 8a83 ce3c 71bb 4cbe eb33 04bf
000000a0: 8cbc c8bd e1df 083e f6f5 b5bd 8ec6 1abe
000000b0: d826 823e a6d3 853d 9f19 33bc 7674 af3b
000000c0: 73fe d8be 8190 083e c528 abbe 128f 9d3d
000000d0: f1c3 013e cf99 ca3d 638d 35be 1046 173d
000000e0: 39e7 d63d 4353 f13d 491b 063d 2bd2 743d
000000f0: 3ad4 c43d 4a91 9c3d b1b6 8fbe e1c9 00bd
00000100: 8a45 7b3e c66a 183e ccb2 8fbd bda2 17bf
00000110: bdc4 33be e784 bd3e 96ba 343e 308e bb3d
00000120: c5c0 49bd 5aa0 213e 505b 103e cafe 693d
00000130: 170e 213d 0759 6bbd d192 d4be f750 8abd
00000140: bfa5 dd3c d7de b13d b989 0a3e 69e0 4d3e
00000150: c2ae 843e 0d6d 5b3e ffdb d33d 7ce8 913e
00000160: a927 2f3e 7b9a 01be d956 acbd 4db5 c1bd
00000170: d916 213e d4bf 023e 086d 0c3e a4fd 03bf
00000180: befe 503e 1a39 33be a2be f0bd 0b34 c13c
00000190: 318d 9b3d a106 8bbd 2b03 c93c c3d5 533e
000001a0: be51 d2bd df2f 023e d557 553e 7620 ad3d
000001b0: d736 8fbc d7c4 12be 04a9 44bd 42bb 82bd
000001c0: 9e46 62be 5e50 1b3e 6c45 3d3e 9eb1 0cbe
000001d0: dd87 823e b8b5 72bd 929b 8dbe a774 1e3e
000001e0: 61db 683e ba60 103e a883 a8bd 3487 1bbd
000001f0: 1272 86bd 3cfe bf3d 0fd2 be3e e1c5 823b
00000200: 1e3d 84bd a95d f33c 163e 793d 18f0 b43d
00000210: 45cc 403d aaa3 a2be a737 833e d807 4cbd
00000220: b437 c73d 4e06 583d e9c1 f0bd 7e9e 143e
00000230: d622 87bc 29ca 71be 5e5a b2be b98c 92be
00000240: 4116 043f 4854 4a3e 429d 4c3e c87e 643e
00000250: be84 563e 4230 853e d66e 3c3c 0fc8 063e
00000260: 34e3 073e 3214 3d3c e51e e73c a415 5cbe
00000270: 864e 333c 118b 8e3c a808 5b3e 28b2 84be
00000280: d811 6f3e 6f72 023d 317f 913e e5c6 13bd
00000290: 4543 b73c edae 773d 0041 72be 17aa 2f3b
000002a0: 3e07 c4bd bdb9 ac3d ad48 003e c981 353e
000002b0: d0f3 e43c c4fd 0e3d 6e2a a9b9 b068 93bd
000002c0: 06fa 4d3e 72b5 a4bd 449a 543e 2d6b aa3d
000002d0: 468d 9f3c 1cde 17be 8c83 093e 505e 283e
000002e0: 5f6a 483d aea2 fe3e 1643 0c3d e20e 64bd
000002f0: 44e5 e33d 1d67 23bc 373c b23d 1bc9 ddbe
00000300: 4b62 923d 84f8 3a3e 2f60 3b3e f1a6 ebbe
00000310: 9a3c 793e 8b04 683e cf72 803e 13f0 e13c
00000320: 082f 3fbe edc5 d53c 296b 343e 19dd 713e
00000330: a940 16bc bc42 b8be bb15 28be 42b7 c2be
00000340: 0552 813e d7ac 453e c5b8 26bd 7109 8ebb
00000350: a3a1 e3be e450 393e f8b3 e2be 8e36 9a3e
00000360: 6de2 153e 9a95 af3e 319d 083e e3c6 fb3d
00000370: 528d d43e 2aec 6a3b e4dd 0e3e ea61 86bc
00000380: b534 90bd 6572 2f3e e336 27be c0a3 b9bd
00000390: 1423 7fbe 9b29 b6bd 8b65 86be 2968 8f3e
000003a0: 33a0 8fbd 3bd3 0bbd 01fa d5be 5382 a43d
000003b0: e8e5 01bd dfd9 b23e ddce 8dbd 6ac5 6a3c
000003c0: 7ffd 8ebc ff01 043e ae33 b5bd afbc 8bbe
000003d0: 530c 143e 9cf9 3ebd 43f7 813d 6fc8 403d
000003e0: 19a3 883d 2cc5 853d 56cc ae3d e3a2 ab3d
000003f0: b31e afbc 059b 523e c25b 843e 664b bd3e
0.09756031 -0.04602242 0.14904326 -0.06639815 0.07390921 0.054698408 0.4406006 -0.15611269
0.12956029 0.17624502 -0.2983381 0.1369796 -0.2594013 -0.06798923 -0.019118305 0.06933251
0.026795642 0.19230671 -0.3866225 0.10299549 0.22737522 0.14829841 -0.41511124 0.0912305
0.12789127 -0.012097657 -0.16912398 0.0881707 0.10059527 0.17256457 0.117484465 -0.19987263
0.108066425 -0.2330165 0.051981654 0.048752166 0.007126129 0.025209207 -0.19993378 -0.5164172
-0.098015875 0.13366653 -0.08884804 -0.15114805 0.2542026 0.06534509 -0.0109314015 0.0053544594
-0.4238163 0.13336374 -0.33429542 0.07693304 0.12672402 0.09892618 -0.17729716 0.03693205
0.10493321 0.11783459 0.032740865 0.059770744 0.096107915 0.07644899 -0.2806907 -0.031442527
0.24538246 0.14884481 -0.07016525 -0.59232694 -0.17555518 0.3701546 0.17649302 0.091579795
-0.049256105 0.15783826 0.14097333 0.05712775 0.039320078 -0.05745795 -0.41518262 -0.06753724
0.027056573 0.086850815 0.135291 0.20105137 0.2591458 0.21428318 0.10344695 0.28497684
0.17104973 -0.12656586 -0.084150024 -0.094584085 0.15731372 0.12768489 0.13713467 -0.515589
0.20409676 -0.17502251 -0.1175511 0.023584386 0.075952895 -0.06788374 0.024537643 0.20687012
-0.10269497 0.12713574 0.20834287 0.08453457 -0.017482204 -0.14332901 -0.04801275 -0.06383373
-0.22097251 0.15167376 0.18483514 -0.1373963 0.2549428 -0.05925533 -0.27657753 0.15474187
0.22739936 0.14099398 -0.082282364 -0.037970737 -0.06564726 0.09374663 0.37269637 0.003990874
-0.0645697 0.029707747 0.060850225 0.08834857 0.047069807 -0.3176549 0.25628397 -0.049812168
0.097274214 0.052740388 -0.117557354 0.14513585 -0.016496103 -0.23612274 -0.3483457 -0.28622988
0.51596457 0.19758713 0.19981864 0.22313988 0.20949075 0.2601338 0.011501035 0.13162254
0.13270265 0.0115404595 0.028212974 -0.2149263 0.010944014 0.017400296 0.21390021 -0.25917172
0.2334665 0.031847414 0.28417352 -0.036078352 0.022370944 0.060469557 -0.23657608 0.0026804262
-0.09571694 0.08433864 0.12527724 0.1772529 0.02794829 0.03490998 -0.00032265804 -0.07197702
0.20114908 -0.080424204 0.20761973 0.083212234 0.019476544 -0.14830822 0.13429087 0.16442227
0.04892957 0.4973349 0.034243666 -0.055678256 0.11127713 -0.009973315 0.08702891 -0.43317494
0.07147654 0.18258864 0.1829841 -0.46025804 0.24339524 0.22657983 0.25087592 0.027580297
-0.18670285 0.026095355 0.17619003 0.23619498 -0.00917069 -0.35988414 -0.1641454 -0.3803044
0.25257888 0.19304214 -0.040703554 -0.0043346216 -0.44459257 0.18097264 -0.4427793 0.30119747
0.14637156 0.34293824 0.13341214 0.12293794 0.4151407 0.003584633 0.13951832 -0.016404111
-0.07041303 0.17133482 -0.16329531 -0.09064436 -0.24915725 -0.08894654 -0.26249346 0.28009155
-0.070129775 -0.034136992 -0.417923 0.0803267 -0.031713396 0.34931847 -0.06924222 0.014329294
-0.01745486 0.12891386 -0.08847748 -0.27292392 0.14457826 -0.046624765 0.063459896 0.04706615
0.066717334 0.06531748 0.08535068 0.083806776 -0.021376943 0.20566948 0.25851256 0.36971587

output.bias f4 [4]
00000000: a640 c03d 8e08 953d c6e3 323e 1b62 bf3d
0.09387331 0.07277022 0.17469701 0.09344884

state_value.weight f4 [1, 64]
00000000: 94ec 583d e40b 6f3d c894 b2bd 3c6d cf3d
00000010: 3092 533c d050 08bc c0de 1abc f0d0 1dbc
00000020: a0d9 67bc 4464 2bbd 98a5 963c c0a2 08bd
00000030: b045 cf3d 843b 2fbd 00ea eabd 20c8 fd3d
00000040: 2c26 973d aa3f b6bd bc27 ca3d 5ce7 debd
00000050: 14c0 7ebd 1ca5 84bd f0fb a93c 78fc 0a3d
00000060: 1cf6 50bd fcc2 2cbd b44f 89bd 4c2e c43d
00000070: 4c51 793d a096 343c a0a6 de3b 60d3 fe3b
00000080: 2872 ebbc c8eb 67bd a489 e63d 4c04 48bd
00000090: a4b5 9dbd c050 4cbc c4b5 1d3d 96c3 dabd
000000a0: f4f1 0b3d e029 c3bb bcf8 6dbd 8880 803c
000000b0: 5039 4c3c 76da f6bd 44c0 703d 0c1e 433d
000000c0: ba31 93bd dcbe 213d e4f8 86bd e662 be3d
000000d0: 5097 64bd 904c 373d 1050 253d c097 ebbb
000000e0: 1087 8cbd ac11 733d aca8 043d 0cd8 6dbd
000000f0: d0fd 8dbc 88d8 533d 46f4 d7bd f8f0 953c
0.052959993 0.05836095 -0.08719784 0.10128257 0.012913272 -0.008320048 -0.009452522 -0.009632334
-0.014151007 -0.041843668 0.018389508 -0.033358335 0.10120714 -0.042781368 -0.11470413 0.123916864
0.073803276 -0.08898862 0.0987086 -0.10883972 -0.0621949 -0.064768046 0.020750016 0.03393218
-0.05101596 -0.04217814 -0.06704655 0.09579143 0.060868546 0.01102224 0.0067947656 0.0077766627
-0.028740957 -0.056621343 0.112567216 -0.048832223 -0.07700661 -0.012470424 0.038503423 -0.10681836
0.03416629 -0.0059559196 -0.05809854 0.015686288 0.012464836 -0.12053387 0.05877711 0.047636077
-0.07187219 0.03948866 -0.06590441 0.09296207 -0.055808365 0.04475075 0.040359557 -0.007189721
-0.06861699 0.059343025 0.03238742 -0.058067366 -0.017332941 0.051720172 -0.10544638 0.01830338
