results/64_128_64_0_False_False/checkpoint.pth (torch_old, 78927 bytes, 9 tensors)

hidden_layers.0.weight f4 [64, 37]
0	0xbd41c2d6	-0.04730495
1	0x3c2ec0be	0.0106660705
2	0xbd0677e8	-0.032829195
3	0xbe0b7f9c	-0.13622898
4	0x3c97ba15	0.018521348
5	0x3e4664b6	0.19374356
6	0xbf0810a0	-0.5315037
7	0x3e3d5b29	0.18491806
8	0xbd577f7c	-0.052611813
9	0xbdd110c4	-0.10208276
10	0xbdb61387	-0.08890443
11	0xbde53a46	-0.111927554
12	0x3b961af9	0.004580852
13	0xbe7f2fbf	-0.24920557
14	0xbe55cc30	-0.20878673
15	0x3e500219	0.203133
16	0xbe3fe7ec	-0.18740815
17	0x3d8ef644	0.06980565
18	0xbde2753b	-0.11057516
19	0x3cfecc9d	0.031103427
20	0xbc9fbf1d	-0.01950031
21	0x3d375f1f	0.04476845
22	0xbd233558	-0.039845794
23	0x3e9dad44	0.30796254
24	0x3e476697	0.19472729
25	0xbe7360b4	-0.23767358
26	0x3e4dfb18	0.20115316
27	0xbdaa3d90	-0.08312523
28	0x3e02c194	0.12769157
29	0x3e287e8a	0.16454521
30	0xbdaa3331	-0.08310545
31	0x3bd85882	0.006602348
32	0xbe41476b	-0.188749
33	0x3bda6ed4	0.006666044
34	0x3e36642b	0.17811649
35	0xbe255a3a	-0.161477
36	0xbc0337bd	-0.0080088945
37	0x3e778bce	0.24174425
38	0x3d91dd0d	0.0712224
39	0xbd09708f	-0.03355461
40	0xbec1bb9e	-0.37838453
41	0xbe4a38aa	-0.19748178
42	0xbd71e0e8	-0.059052378
43	0xbe4e081c	-0.20120281
44	0xbd12c85b	-0.035835605
45	0xbe93b73a	-0.28850728
46	0xbdc24f34	-0.09487763
47	0x39857762	0.00025456684
48	0xbe55d555	-0.20882161
49	0xbd4222df	-0.047396537
50	0x3e4065dc	0.18788856
51	0xbee623be	-0.44949144
52	0xbde1b90a	-0.110216215
53	0xbc82d38c	-0.015970014
54	0x3e0326a8	0.12807715
55	0xbdc9e84e	-0.09858762
56	0xbe0f52cb	-0.13996427
57	0xbe1e6b91	-0.15470721
58	0xbe535d86	-0.20641145
59	0xbd59bd41	-0.053159002
60	0xbd41c564	-0.047307387
61	0xbe69786a	-0.2279984
62	0xbed60a76	-0.41804856
63	0x3e0c41b4	0.13696939
64	0x3e79491b	0.24344294
65	0xbea6b7c6	-0.32562083
66	0xbd99f369	-0.0751713
67	0xbd478764	-0.048713103
68	0xbe7b8029	-0.24560608
69	0x3e9a58f0	0.3014598
70	0xbeb0fcf0	-0.34567976
71	0xbf311c14	-0.6918347
72	0xbe2f67dd	-0.17129464
73	0x3d5896e7	0.052878287
74	0x3cf3e204	0.029770859
75	0x3ec881f0	0.39161634
76	0xbe4acc1e	-0.19804427
77	0xbe8bb524	-0.27286637
78	0x3ce5e8eb	0.028065166
79	0xbd0878f3	-0.03331847
80	0xbeb31b2d	-0.3498167
81	0x3e370c55	0.17875798
82	0x3d4f1440	0.05055642
83	0xbedb300a	-0.42810088
84	0xbd8a9255	-0.06766192
85	0xbdf1b7c2	-0.11802627
86	0xbd064e04	-0.032789245
87	0x3dae63ba	0.08515115
88	0x3dd845b8	0.10560173
89	0xbdf52f31	-0.11971892
90	0x3e1c731e	0.15278289
91	0xbbf975eb	-0.007612934
92	0x3cc58a41	0.024113776
93	0xbdaf1184	-0.08548263
94	0xbe920620	-0.28520298
95	0xbd049cd5	-0.03237613
96	0x3cef932c	0.029244982
97	0x3dd6bf40	0.10485697
98	0xbdea45f8	-0.11439127
99	0xbe62dac2	-0.22153762
100	0x3e90a2c0	0.28249168
101	0x3dc6a5f8	0.09699625
102	0xbe2c916a	-0.16852346
103	0xbe36b03b	-0.17840664
104	0xbe7b5f1c	-0.24548
105	0x3a21b653	0.0006168831
106	0xbe6d34e1	-0.23164703
107	0xbdb453a8	-0.08805019
108	0xbdd30dad	-0.10305343
109	0xbd1452b6	-0.03621169
110	0xbd910bee	-0.070823535
111	0x3e8f084b	0.27936015
112	0xbea83287	-0.3285105
113	0x3e861643	0.2618886
114	0x3cd53299	0.026025103
115	0xbebacba1	-0.36483482
116	0xbdde9d17	-0.10869806
117	0xbb911162	-0.004427121
118	0x3e56f2cb	0.20991056
119	0x3d8fb0d2	0.07016148
120	0x3e3ea3da	0.18617192
121	0xbdbbfac3	-0.091786884
122	0xbe7e631f	-0.24842499
123	0x3e91e66c	0.2849611
124	0xbd51cbda	-0.0512198
125	0xbe691460	-0.22761679
126	0xbd4e2315	-0.050326426
127	0xbddeda94	-0.10881534
128	0x3d9a0d3e	0.07522057
129	0xbe073da9	-0.13207115
130	0xbe4d40a6	-0.20044193
131	0x3ccdad75	0.025107125
132	0xbdcaf413	-0.09909835
133	0x3ce4c00d	0.027923608
134	0x3e0c02dc	0.13672966
135	0x3dc7a900	0.09749031
136	0xbe785195	-0.24249871
137	0x3de53025	0.111908235
138	0x3e9ee661	0.3103514
139	0x3d8584aa	0.06519444
140	0x3d416c74	0.04722257
141	0x3eb43ad5	0.35201135
142	0x3e357ad4	0.17722636
143	0xbe061219	-0.13092841
144	0xbe7bf500	-0.24605179
145	0x3d4f9a65	0.05068435
146	0x3e38ef7f	0.1806011
147	0xbcdfde41	-0.027327659
148	0xbe277b50	-0.16355634
149	0xbdfd7127	-0.12375098
150	0x3d3df0a2	0.046372063
151	0xbe72754b	-0.23677556
152	0x3cdb077a	0.026736964
153	0x3e6a7879	0.22897519
154	0xbe7ec2c1	-0.2487898
155	0xbe85d33d	-0.26137725
156	0xbe113c0f	-0.14183067
157	0xbf7e661c	-0.99374557
158	0xbe02b44f	-0.12764095
159	0xbd0824bf	-0.03323817
160	0xbcc3dba6	-0.023908447
161	0x3d2079b8	0.03917858
162	0xbed223b3	-0.4104286
163	0xbe8618ef	-0.26190898
164	0x3cf718dc	0.030163221
165	0x3d597f22	0.05309976
166	0x3ca6e664	0.02037353
167	0xbb2e0fa7	-0.0026559622
168	0xbdc8f3e8	-0.098121464
169	0xbd26ef89	-0.040755782
170	0x3e140c9e	0.14457938
171	0xbd94b211	-0.07260526
172	0xbd014acb	-0.03156547
173	0xbda54a4f	-0.08070814
174	0xbc167484	-0.009183053
175	0x3e06e98f	0.13175033
176	0x3d845128	0.06460792
177	0xbe117424	-0.1420446
178	0x3d248a13	0.04017074
179	0xbdd565ed	-0.104198314
180	0x3d83899c	0.06422731
181	0x3e191398	0.1494888
182	0x3e88918e	0.2667355
183	0x3dd4d4a1	0.10392118
184	0x3d125126	0.03572192
185	0x3dd89ae0	0.10576415
186	0xbe66e820	-0.22549486
187	0xbe56af40	-0.2096529
188	0xbe232c16	-0.15934786
189	0x3d9e4469	0.07727892
190	0x3d15f47b	0.036610108
191	0xbe6a5c76	-0.22886834
192	0xbdad880e	-0.08473216
193	0xbe1bf505	-0.15230186
194	0xbed8fd3c	-0.42380702
195	0xbea99834	-0.33123934
196	0xbe3066c4	-0.17226702
197	0x3dc49d61	0.0960033
198	0xbdf11688	-0.117718756
199	0xbe20d0b3	-0.15704612
200	0xbde90ac7	-0.11379009
201	0x3d6a6f58	0.057235092
202	0xbe11162d	-0.14168616
203	0xbe0b4232	-0.1359947
204	0xbdf026c0	-0.11726141
205	0x3ddc6d4e	0.10763036
206	0xbd95fa63	-0.07323148
207	0x3d9f3569	0.07773859
208	0xbd7bd2d7	-0.06148037
209	0xbdf7ca47	-0.12099128
210	0x3d30a77d	0.04312848
211	0xbe5835c6	-0.21114263
212	0xbdfb39f4	-0.12266913
213	0xbe8076be	-0.25090593
214	0x3d4dd3d5	0.050250847
215	0xbe27e522	-0.16396001
216	0x3cfd34de	0.030908998
217	0x3da7e545	0.081980266
218	0xbe91a0ab	-0.28442892
219	0xbf0eec41	-0.55829245
220	0xbe8fe077	-0.2810094
221	0x3dbad14f	0.09121954
222	0xbbe2ccce	-0.0069213873
223	0xbe572bc4	-0.21012789
224	0xbdec64f3	-0.11542692
225	0x3e00312d	0.12518759
226	0xbd2436b7	-0.040091243
227	0x3df7f140	0.12106562
228	0xbe238685	-0.15969284
229	0xbe961028	-0.293092
230	0xbe45a845	-0.19302471
231	0x3e24b5f6	0.16085038
232	0x3e07040b	0.13185136
233	0x3dab1622	0.08353831
234	0xbdbd79dd	-0.09251759
235	0xbe9ea7eb	-0.30987486
236	0x3e42e0d4	0.19031078
237	0xbe2f82e4	-0.17139775
238	0xbe6bc518	-0.23024404
239	0x3dc7a248	0.097477496
240	0xbdedbf89	-0.11608798
241	0x3e2cb447	0.16865645
242	0xbdc1b6fa	-0.09458728
243	0xbd6fa9c8	-0.058511525
244	0x3e588260	0.21143484
245	0xbec0443f	-0.37552068
246	0x3da9b3bc	0.08286235
247	0xbdd8c842	-0.10585071
248	0xbd28d559	-0.04121909
249	0xbe64dcc4	-0.2234984
250	0xbda8b34e	-0.08237325
251	0x3d833211	0.06406034
252	0x3e81c1e0	0.25343227
253	0xbe9f3070	-0.31091642
254	0xbe49d41d	-0.19709821
255	0xbe14cbfe	-0.14530942

hidden_layers.0.bias f4 [64]
0	0x3d9419aa	0.072314575
1	0xbd586764	-0.052832976
2	0xbe3650cb	-0.17804258
3	0xbd893914	-0.0670034
4	0x3e34a211	0.17639948
5	0xbe10cefd	-0.1414146
6	0xbde943cb	-0.113898836
7	0x3d934998	0.07191771
8	0xbcc73e3f	-0.024321673
9	0xbe2974de	-0.16548488
10	0x3d76a4ba	0.06021569
11	0x3e4c19e0	0.19931746
12	0x3dcd6a7a	0.100300744
13	0x3e0363d8	0.12831056
14	0xbdcfb404	-0.10141757
15	0xbd9bd852	-0.07609619
16	0xbb786270	-0.003790047
17	0xb9664161	-0.00021958865
18	0xbc050fc9	-0.008121439
19	0xbe16fb71	-0.14744355
20	0xbe36c1af	-0.17847322
21	0x3c818ec5	0.015815148
22	0xbd4113cb	-0.047138017
23	0xbca04971	-0.01956627
24	0xbca28f4a	-0.019843716
25	0x3e518713	0.20461683
26	0x3ca6c368	0.020356849
27	0xbe19148c	-0.14949244
28	0x3e0b96cf	0.13631748
29	0x3db7cd01	0.08974648
30	0xbd6f9168	-0.05848828
31	0xbe484f4e	-0.19561502
32	0x3e604369	0.21900715
33	0xbd70cce3	-0.058789145
34	0xbe3923b1	-0.18080021
35	0x3da570b4	0.08078137
36	0xbdc34df4	-0.09536353
37	0xbd5fa958	-0.05460486
38	0xbdc116d7	-0.094281845
39	0xbd3f0d2a	-0.046643414
40	0xbd0677b4	-0.032829
41	0xbd02c37f	-0.03192472
42	0xbe1e5350	-0.15461469
43	0x3e0f570c	0.1399805
44	0xbcf9c868	-0.030491069
45	0xbdd6d9f3	-0.10490789
46	0xbbfe7c92	-0.007766315
47	0xbda7e36f	-0.081976764
48	0xbe43b343	-0.19111352
49	0x3d479a33	0.04873104
50	0xbded7151	-0.11593879
51	0x3e2249f4	0.15848523
52	0x3cabc38f	0.020967273
53	0xbd88f16f	-0.06686675
54	0xbe2fd0f8	-0.17169559
55	0xbd02109e	-0.03175413
56	0x3da5dbd5	0.0809857
57	0xbc0aaeb5	-0.008464505
58	0xbdebecc3	-0.11519768
59	0xbdd823d5	-0.105537094
60	0xbc93f0d6	-0.018059175
61	0x3c01e1ec	0.007927399
62	0x3d43ec04	0.047832504
63	0xbc34f769	-0.011045315

hidden_layers.1.weight f4 [128, 64]
0	0xbd7d4152	-0.061829872
1	0x3d4f7c39	0.050655577
2	0x3e30b1c1	0.17255308
3	0x3e227900	0.1586647
4	0xbebff82a	-0.37494022
5	0x3c15f763	0.00915322
6	0xbe5dbeda	-0.21654835
7	0x3c1dd6be	0.009633718
8	0xbe2a6ae4	-0.16642338
9	0x3cea3c51	0.028593214
10	0xbe8a06d9	-0.2695835
11	0xbd95d471	-0.073159106
12	0xbe056798	-0.13027799
13	0x3e5807a2	0.21096662
14	0xbe43f943	-0.19138055
15	0x3e0baea3	0.13640837
16	0xbcf8296b	-0.030293187
17	0x3e7bfea2	0.24608853
18	0x3d560f6b	0.052260797
19	0x3def9636	0.11698572
20	0xbe079e87	-0.13244067
21	0x3de288ff	0.11061286
22	0x3d81ad5d	0.063318945
23	0x3e24ef5b	0.16106932
24	0x3d074c6b	0.033031862
25	0xbe0d7bb1	-0.13816716
26	0x3e0ca2aa	0.13733926
27	0xbeae4c06	-0.34042376
28	0x3cd46899	0.025928782
29	0xbdf9a320	-0.12189317
30	0x3eb048fd	0.34430686
31	0xbd09a031	-0.033600036
32	0x3d9e288e	0.07722579
33	0x3e406176	0.18787178
34	0x3c21bed8	0.009872161
35	0x3d1829c1	0.037149195
36	0xbe2420ce	-0.16028139
37	0x3e35afdf	0.17742871
38	0xbd9cb736	-0.07652132
39	0xbd626d5f	-0.055280086
40	0xbea53728	-0.32268643
41	0xbdb64194	-0.08899227
42	0x3dbbae6c	0.09164128
43	0xbd2f7d7c	-0.04284428
44	0x3dd6ddcb	0.104915224
45	0xbe52347b	-0.20527832
46	0xbe970952	-0.29499298
47	0xbc932e5a	-0.017966438
48	0xbe6d4189	-0.23169531
49	0x3d93fb8b	0.072257124
50	0xbe23b5a5	-0.1598726
51	0xbdcb0fe2	-0.09915139
52	0x3df96e4b	0.1217924
53	0xbd3873ca	-0.0450323
54	0x3c832f10	0.016013652
55	0xbcaf2285	-0.021378765
56	0xbea7b0aa	-0.3275197
57	0xbde8c007	-0.11364751
58	0xbeb06f59	-0.34459952
59	0xbc81f98e	-0.015866067
60	0x3e633353	0.22187547
61	0x3e3fdd2c	0.18736714
62	0xbdebaa21	-0.11507059
63	0x3d96cb81	0.07363034
64	0xbea7b2ea	-0.32753688
65	0x3e814498	0.25247645
66	0xbe89ab3a	-0.26888448
67	0x3e1f59ad	0.15561552
68	0x3d328c36	0.043590747
69	0xbe03ee0e	-0.1288378
70	0xbf31de0f	-0.6947946
71	0x3c395126	0.011310851
72	0xbe31a4f9	-0.17348088
73	0xbec87480	-0.39151382
74	0xbd11995a	-0.035546638
75	0x3d91ef5b	0.071257316
76	0xbe63ff6e	-0.22265407
77	0x3dcd80c3	0.10034325
78	0xbe375b04	-0.17905813
79	0xbd4e1cdd	-0.050320495
80	0x3e072c16	0.13200411
81	0x3d078267	0.033083346
82	0x3c64e6a0	0.013971001
83	0xbe15fc0e	-0.14646932
84	0x3e5a7376	0.21333107
85	0xbdeb3fe0	-0.114867926
86	0x3de935f0	0.11387241
87	0xbd84a7da	-0.06477328
88	0xbd17088e	-0.036873393
89	0xbe058545	-0.1303912
90	0x3d942d75	0.07235233
91	0xbe1beab2	-0.15226248
92	0x3e8ad90b	0.27118716
93	0x3cb80f2a	0.022468168
94	0xbd924a35	-0.0714306
95	0xbdc11b46	-0.0942903
96	0xbdd8ff1d	-0.10595534
97	0x3df02a0b	0.11726769
98	0x3e3a76bd	0.18209358
99	0xbecd0fdc	-0.40051162
100	0x3e1df5d8	0.15425813
101	0x3dfa0cb7	0.122094564
102	0xbd2c806b	-0.042114656
103	0xbda99086	-0.08279519
104	0xbdd44525	-0.10364751
105	0x3d3299b4	0.043603614
106	0xbe2e5c31	-0.17027356
107	0xbcac3e13	-0.021025693
108	0x3e1fb2ee	0.155956
109	0xbe981922	-0.29706675
110	0xbe705c57	-0.23472725
111	0xbd7dcd2e	-0.061963253
112	0xbe51f3a6	-0.20503101
113	0xbe199a4b	-0.15000264
114	0xbe93f401	-0.28897098
115	0x3df9f2fd	0.122045495
116	0xbde0cdff	-0.10976791
117	0xbe2f2bdb	-0.17106573
118	0xbe793155	-0.24335225
119	0xbd9bd468	-0.07608873
120	0xbea8477a	-0.32867032
121	0xbd4e64c8	-0.05038908
122	0x3e0d5cf1	0.13804986
123	0xbd68a76c	-0.05680029
124	0xbe444319	-0.1916622
125	0x3cee13b3	0.029062128
126	0x3e00e7ba	0.12588397
127	0xbe0d632e	-0.13807365
128	0xbe586718	-0.21133077
129	0xbe21655d	-0.15761323
130	0xbd8bc5be	-0.06824826
131	0x3d8263ca	0.063666895
132	0xbcb499b7	-0.022045953
133	0x3d7a26e2	0.061072238
134	0xbdd23c87	-0.10265451
135	0xbe67c74f	-0.22634624
136	0x3dfc6daa	0.12325604
137	0xbd8bf9fd	-0.06834791
138	0xbdcd3547	-0.100199275
139	0x3d493c27	0.04912963
140	0x3e1047d6	0.14089903
141	0x3c96f94d	0.018429423
142	0x3d2a5483	0.041584503
143	0x3e287d7f	0.16454123
144	0xbdd223d4	-0.1026074
145	0x3e31d289	0.17365469
146	0xbcb97000	-0.022636414
147	0x3dc58416	0.09644334
148	0xbdf3a229	-0.11896164
149	0x3d8cac6f	0.068688266
150	0xbdcac662	-0.0990112
151	0xbd9de156	-0.07708995
152	0x3d259af4	0.040430978
153	0x3e468bb9	0.19389237
154	0x3dd7cc81	0.10537053
155	0x3daea0e5	0.08526782
156	0xbdfe6110	-0.12420857
157	0xbc964bf6	-0.018346768
158	0x3e5639d5	0.20920499
159	0x3d6fcace	0.05854302
160	0xbdb2eece	-0.08736955
161	0x3ca6eedc	0.020377569
162	0xbe1a0595	-0.15041192
163	0xbe102f5a	-0.14080563
164	0x3daa5755	0.083174385
165	0x3d8c6fad	0.06857238
166	0xbdc9b8b8	-0.098496854
167	0xbcbd701f	-0.023124753
168	0x3dac09fa	0.084003404
169	0xbd0c53fb	-0.034259778
170	0xbd6b4cf6	-0.057446443
171	0xbe927d9e	-0.28611463
172	0x3ce3fd02	0.027830604
173	0x3c29124c	0.010319304
174	0x3cdf1b4a	0.027234692
175	0xbdf83c10	-0.12120831
176	0xbdcaa7ad	-0.09895263
177	0xbd8cae6c	-0.06869206
178	0xbdd785a3	-0.10523536
179	0x3dea5253	0.11441483
180	0xbe785f57	-0.2425512
181	0x3dd1e350	0.102484345
182	0xbe83e98b	-0.25764117
183	0xbe555a99	-0.20835342
184	0xbc7dc56f	-0.015488966
185	0xbd7869d0	-0.060647786
186	0x3e134642	0.1438227
187	0x3c428606	0.011872774
188	0x3d276ddf	0.040876266
189	0xbcb6d173	-0.02231667
190	0xbd2fe56b	-0.0429434
191	0x3dc14c7b	0.094384156
192	0x3d66ff32	0.056395717
193	0xbe90858a	-0.28226882
194	0x3e65d9c6	0.22446355
195	0xbea342da	-0.3188694
196	0xbe2be14c	-0.16785163
197	0xbc362e14	-0.011119384
198	0x3cfd9b91	0.030957969
199	0xbe0813f6	-0.13288864
200	0xbe1edf4f	-0.15514873
201	0x3d180ad4	0.0371197
202	0xbd32c80b	-0.043647807
203	0x3e19fc45	0.1503764
204	0x3d368d8b	0.04456858
205	0x3db18e42	0.08669712
206	0xbe1acf32	-0.15118101
207	0xbe4e9d23	-0.2017713
208	0xbdd3fe90	-0.10351288
209	0x3c4a7c47	0.012358732
210	0xbe1ec418	-0.15504491
211	0xbe1b2db6	-0.15154156
212	0x3cb741c9	0.022370236
213	0xbddce5ff	-0.10786056
214	0xbd5a9bad	-0.05337112
215	0xbdba36ff	-0.09092521
216	0x3e2044df	0.15651272
217	0x3dbd3964	0.09239462
218	0x3e1175ad	0.14205046
219	0x3d9cd4b6	0.07657759
220	0x3d7705da	0.060308315
221	0xbb1bd94a	-0.0023780637
222	0xbd62f785	-0.055411834
223	0xbdfea4f2	-0.124338046
224	0xbe49d9c2	-0.19711974
225	0xbd9df2b0	-0.077123046
226	0xbd1e8608	-0.03870204
227	0x3d199315	0.037493784
228	0xbc381a05	-0.011236672
229	0xbd993c89	-0.07482249
230	0xbcb18d2a	-0.021673758
231	0xbdd07555	-0.10178629
232	0x3c6df473	0.014523613
233	0x3d9d861d	0.07691596
234	0x3d6a7e2f	0.057249244
235	0xbe33ccb3	-0.17558555
236	0x3d1d9768	0.03847447
237	0x3dac8abc	0.08424899
238	0xbcb605f7	-0.022219641
239	0xbdb8b293	-0.09018435
240	0xb95233df	-0.00020046484
241	0x3d6243a7	0.0552403
242	0xbe040a7f	-0.12894629
243	0x3e959d7b	0.2922171
244	0x3dc25797	0.09489363
245	0xbe1d15b9	-0.15340318
246	0x3e422bdf	0.18962048
247	0xbddac62f	-0.10682332
248	0xbe72be58	-0.23705423
249	0x3c817452	0.015802536
250	0xbdb26a60	-0.08711696
251	0x3da6e33f	0.081488125
252	0xbe5ad733	-0.21371154
253	0x3d6ace84	0.057325855
254	0xbe4bf89d	-0.19919057
255	0xbe5bf915	-0.21481736

hidden_layers.1.bias f4 [128]
0	0xb8b28566	-8.512549e-05
1	0xbcc4d5b1	-0.024027677
2	0x3ce1f934	0.02758465
3	0xbd55dc63	-0.05221213
4	0x3de8c196	0.113650486
5	0x3d9a46e1	0.0753305
6	0xbd346d69	-0.044049654
7	0xbd59f7e9	-0.05321494
8	0x3d82a42b	0.06378969
9	0x3e3ff4f0	0.1874578
10	0x3d58013b	0.05273555
11	0xbd46df45	-0.04855277
12	0xbd853924	-0.06505039
13	0xbe1c8c68	-0.15287936
14	0x3c31603d	0.010826168
15	0xbe473da3	-0.19457106
16	0x3d314ac8	0.043284208
17	0x3d244254	0.040102318
18	0x3df73d51	0.12072242
19	0xbdcc1bfe	-0.099662766
20	0xbcce50c0	-0.025184989
21	0xbbcb1184	-0.0061971564
22	0xbe0813f1	-0.13288857
23	0x3c382d96	0.011241337
24	0xbcf0478c	-0.029330991
25	0xbd299e45	-0.041410703
26	0x3d20e079	0.039276574
27	0x3cd2a930	0.02571544
28	0xbd270c1c	-0.040783033
29	0x3df98995	0.12184445
30	0xbd5083b3	-0.05090685
31	0x3db4eccd	0.08834229
32	0xbdb70b2f	-0.0893768
33	0x3e227394	0.15864402
34	0x3d13b492	0.036060877
35	0x3d6defee	0.058090143
36	0xbde94181	-0.11389447
37	0xbc45b877	-0.012067906
38	0xbe129b0f	-0.14316963
39	0xbe22c3c9	-0.15894999
40	0x3d8ce6aa	0.06879933
41	0x3d9ce672	0.076611415
42	0x3d4170d6	0.04722675
43	0x3d7b1984	0.06130363
44	0xbcba4993	-0.022740161
45	0x3cd115ee	0.025523152
46	0xbda32e71	-0.07967842
47	0xbe03d690	-0.12874818
48	0x3c04a62a	0.008096257
49	0xbdc5fd8d	-0.096675016
50	0x3dfc534b	0.123205744
51	0xbdeba61d	-0.11506293
52	0x3e19b9ac	0.15012234
53	0xbd53ac7e	-0.051678173
54	0xbc573fdd	-0.013137785
55	0x3e3585cf	0.17726825
56	0xbd8a957c	-0.06766793
57	0xbdaf4778	-0.085585535
58	0x3dfa76e0	0.12229705
59	0xbd321ece	-0.04348641
60	0xbd10064f	-0.035162266
61	0x3def819a	0.116946414
62	0xbcaab577	-0.020838482
63	0x3dcebe9e	0.10094951
64	0xbd5942c4	-0.05304219
65	0xbcfe1cb7	-0.031019552
66	0xbc953078	-0.018211588
67	0xbdb53819	-0.088485904
68	0x3cb48951	0.022038134
69	0x3d57e847	0.05271175
70	0xbdf35c86	-0.11882882
71	0x3e02b227	0.12763272
72	0xbd5b1622	-0.053487904
73	0x3d2ee3c9	0.0426977
74	0x3c8c18f2	0.017101739
75	0xbd540401	-0.05176163
76	0x3e0f7176	0.14008126
77	0xbdf33b8b	-0.11876591
78	0xbd17e0f7	-0.037079778
79	0xbc8aedde	-0.016959127
80	0xbe15fc95	-0.14647134
81	0x3dc01b56	0.09380214
82	0x3cdc4574	0.026888587
83	0x3d83839a	0.064215854
84	0x3db092e1	0.08621765
85	0x3d4e41d2	0.05035574
86	0x3d6d7b7d	0.057979096
87	0x3b5a5343	0.0033313788
88	0xbdf51d73	-0.119685076
89	0xbc9850d0	-0.018593222
90	0xbc780faf	-0.015140458
91	0x3d6028b8	0.054726332
92	0x3db0fe38	0.086422384
93	0x3cb05098	0.021522805
94	0xbda49f02	-0.08038141
95	0xbe363340	-0.17792988
96	0xbe29babc	-0.1657514
97	0x3da673c3	0.081275485
98	0x3dda6eb1	0.10665644
99	0xbe137919	-0.14401664
100	0xbe21e35e	-0.1580939
101	0x3daffa26	0.08592634
102	0x3ce9fc43	0.02856267
103	0xbdfb1a4e	-0.122608766
104	0x3ba13f22	0.004920856
105	0x3dc5be1d	0.09655402
106	0x3da8ecd1	0.08248294
107	0x3d3bce16	0.045850836
108	0xbdbdea32	-0.09273185
109	0xbce8be47	-0.028411044
110	0xbd977193	-0.073947094
111	0x3c993bf8	0.018705353
112	0xbd85ea01	-0.06538773
113	0x3dc3415c	0.09533951
114	0x3cc7d3ba	0.024392951
115	0x3d10549e	0.035236947
116	0xbdbdd36b	-0.092688404
117	0x3d82798a	0.06370838
118	0x3dced998	0.101000965
119	0x3d715f69	0.05892888
120	0x3c31ee68	0.010860063
121	0xbda58dcd	-0.08083687
122	0x3db02a5e	0.08601831
123	0xbd8fd25b	-0.07022544
124	0xbd100a86	-0.035166286
125	0xbcee2787	-0.029071582
126	0x3c1da97f	0.009622931
127	0x3d8f56d9	0.06998987

hidden_layers.2.weight f4 [64, 128]
0	0xbd063ae3	-0.032771003
1	0xbe5b5233	-0.21418075
2	0xbdbb8c95	-0.09157673
3	0x3c8e6867	0.017383767
4	0x3dca8b92	0.09889902
5	0x3e2fc590	0.17165208
6	0xbe2fb374	-0.171583
7	0x3e7dced4	0.2478593
8	0x3dc131b6	0.0943331
9	0x3d629d48	0.055325776
10	0x3e5a3954	0.21310931
11	0xbd40e76b	-0.047095697
12	0xbe57de50	-0.21080899
13	0xbc4c4a24	-0.012468848
14	0xbd353a76	-0.044245206
15	0xbe227049	-0.15863146
16	0x3e865004	0.26232922
17	0xbe73353c	-0.23750776
18	0xbed2d861	-0.4118071
19	0xbe07d848	-0.13266098
20	0x3e0be792	0.13662556
21	0xbe104f13	-0.14092664
22	0xbde4c5e2	-0.11170556
23	0xbe347b1d	-0.17625089
24	0xbddb24cd	-0.107003786
25	0xbeb65ded	-0.35618535
26	0x3c55c053	0.013046342
27	0xbdaf4928	-0.08558875
28	0xbe269fb0	-0.16271853
29	0xbc23f075	-0.01000606
30	0xbeb12145	-0.34595695
31	0x3d5fe340	0.054660082
32	0xbebe4cfd	-0.37168112
33	0xbe354c92	-0.1770499
34	0x3e6b6c2f	0.22990488
35	0x3e2df4a7	0.16987859
36	0xbdf0e4ee	-0.11762415
37	0xbe2cadce	-0.16863176
38	0x3bb9b890	0.0056677535
39	0x3d04d149	0.032426152
40	0xbe8ca592	-0.2747007
41	0x3d998e5a	0.074978545
42	0x3d99299a	0.07478638
43	0xbd53a632	-0.051672168
44	0xbe549856	-0.20761237
45	0x3dbd700a	0.092498854
46	0x3e46f6cc	0.19430083
47	0xbdf40f49	-0.11916978
48	0xbd684fc6	-0.056716703
49	0xbe31f602	-0.17379001
50	0xbe0fddbb	-0.14049427
51	0xbd8cf8d5	-0.068833984
52	0xbc283987	-0.010267622
53	0xbe3b91eb	-0.18317382
54	0xbe777c8c	-0.24168605
55	0xbe9870c8	-0.29773545
56	0x3e79ad21	0.2438245
57	0xbe4a4b44	-0.19755274
58	0x3d30bbbd	0.04314779
59	0xbca92ab5	-0.020650247
60	0xbd939145	-0.07205442
61	0x3dea8bb1	0.11452425
62	0xbe688ccf	-0.22709964
63	0xbe0b5c2a	-0.13609377
64	0xbd15ace2	-0.036541827
65	0x3e6ef315	0.23334916
66	0xba878f15	-0.0010342324
67	0xbe26ff14	-0.16308242
68	0xbd5c47c9	-0.053779397
69	0xbe31fe26	-0.17382106
70	0x3ce9dfa6	0.028549027
71	0x3dc5a600	0.096508026
72	0x3e23a654	0.15981418
73	0xbdb53ac7	-0.088491015
74	0xbd86b6c6	-0.0657783
75	0xbecb2454	-0.39676154
76	0xbd3a1205	-0.04542734
77	0xbe938790	-0.28814363
78	0xbd5e1398	-0.054217905
79	0xbe382185	-0.17981537
80	0x3c4d74cd	0.0125400545
81	0xbcd98485	-0.026552448
82	0xbe0d7696	-0.13814768
83	0x3d5bf954	0.053704575
84	0xbe397c45	-0.18113811
85	0xbeb15fd3	-0.3464342
86	0xbde0a76d	-0.10969434
87	0x3e205e23	0.1566091
88	0x3df6ce10	0.12051022
89	0x3da85e01	0.08221055
90	0x3d992186	0.07477097
91	0x3b944698	0.004525017
92	0x3c8ab931	0.01693401
93	0xbd14602b	-0.036224525
94	0x3d96c6d3	0.073621415
95	0x3e4fa9c1	0.202796
96	0x3d4f9b7e	0.0506854
97	0x3d96aaeb	0.07356819
98	0xbe10382d	-0.1408393
99	0x3d9c05f2	0.076183215
100	0xbe0f9fc6	-0.14025792
101	0xbe614dd1	-0.22002341
102	0x3d2819ff	0.041040417
103	0xbc2a7abf	-0.0104052415
104	0xbe5dbdb7	-0.21654402
105	0xbdd566e3	-0.10420015
106	0xbe0baf93	-0.13641195
107	0xbd4348ef	-0.047676977
108	0xbc025e50	-0.007957056
109	0xbeac5aaa	-0.3366292
110	0x3cb53ee8	0.022124723
111	0x3e772c1a	0.24137917
112	0x3da6e709	0.08149535
113	0xbea214d4	-0.31656516
114	0xbca386b4	-0.019961692
115	0x3e42aad2	0.19010475
116	0xbd9f4dcc	-0.077785105
117	0xbea21c1c	-0.3166207
118	0x3de04f63	0.10952642
119	0xbe78ace9	-0.2428471
120	0xbdbdadaf	-0.09261643
121	0xbc23f2dd	-0.010006634
122	0x3e5e423c	0.21704954
123	0xba5d1590	-0.0008433694
124	0x3d3dffbb	0.04638646
125	0x3e231ae7	0.15928231
126	0x3cdee99a	0.027211
127	0xbda019f7	-0.078174524
128	0x3e6562ef	0.22401021
129	0xbe6fa815	-0.23403962
130	0xbcc794ba	-0.02436291
131	0x3ccf7223	0.02532298
132	0xbd12a90b	-0.035805743
133	0x3d6a8cd5	0.057263214
134	0x3de90bfb	0.11379238
135	0x3decd2f0	0.11563671
136	0x3cf9eca3	0.030508345
137	0x3db85b43	0.09001782
138	0x3d885123	0.066561006
139	0x3e9e7218	0.30946422
140	0x3dd35678	0.10319227
141	0x3e40c172	0.18823794
142	0xbddc50d7	-0.107576065
143	0x3dc61bda	0.09673281
144	0x3d95f5c5	0.073222674
145	0x3e4e732a	0.20161119
146	0x3e24e9b8	0.16104782
147	0xbc6e412c	-0.014541905
148	0x3e54ee40	0.2079401
149	0xbd622ff2	-0.055221505
150	0xbe646a58	-0.22306192
151	0xbd3f2457	-0.046665516
152	0xbde66e0d	-0.11251459
153	0x3e077825	0.13229425
154	0xbe49b61e	-0.19698378
155	0xbc1a6e22	-0.009425672
156	0xbdab674f	-0.08369314
157	0x3d87b418	0.06626147
158	0xbe824485	-0.254429
159	0x3e1bcf49	0.15215792
160	0xbd15d016	-0.0365754
161	0x3beae176	0.0071679903
162	0x3d2edfc5	0.042693872
163	0x3d80e9d4	0.06294599
164	0x3e034535	0.12819369
165	0xbe32c03d	-0.17456146
166	0xbd106174	-0.03524919
167	0xbe85c73a	-0.2612856
168	0x3cd647f5	0.026157359
169	0xbc771a0a	-0.015081892
170	0x3cafb45e	0.02144831
171	0x3d7aa441	0.0611918
172	0xbda300b4	-0.079591185
173	0x3cf32060	0.029678524
174	0x3d5aa5cf	0.053380784
175	0xbd1c6322	-0.038180478
176	0x3de983f3	0.114021204
177	0x3e242940	0.1603136
178	0xbe1972c2	-0.14985183
179	0xbaca8d06	-0.0015453405
180	0x3d058b2c	0.032603428
181	0x3e0010da	0.12506428
182	0x3e3f1b7f	0.18662833
183	0x3e2afaaa	0.16697183
184	0x3c876188	0.016525999
185	0x3ed5d76a	0.4176591
186	0x3d8bb2b5	0.06821195
187	0xbd28139b	-0.041034322
188	0xbee25365	-0.4420425
189	0x3c04a9ab	0.008097093
190	0xbe0eb651	-0.13936736
191	0x3d9983ec	0.07495865
192	0x3d4a4c4c	0.04938917
193	0x3dd69c7a	0.10479064
194	0x3e24f246	0.16108045
195	0x3df242c0	0.11829138
196	0xbda24d15	-0.079248585
197	0xbdaa7f0d	-0.08325014
198	0xbdb5d51e	-0.088785395
199	0x3d2576c5	0.04039647
200	0x3c044610	0.008073345
201	0x3e021254	0.12702304
202	0xbd0f1daf	-0.034940418
203	0x3dffe1c4	0.12494233
204	0xbd9de4fb	-0.0770969
205	0x3d3b680c	0.045753524
206	0xbd6d095a	-0.057870246
207	0xbe44636f	-0.19178556
208	0xbdcf1b75	-0.10112659
209	0x3d8c45d7	0.068492584
210	0x3d29c853	0.04145081
211	0x3dc2ac06	0.09505467
212	0x3d2ce9a2	0.042214997
213	0x3d723718	0.059134573
214	0x3d8ceac2	0.06880714
215	0x3e176d7f	0.14787863
216	0xbd0a3a98	-0.033747286
217	0x3db5aeec	0.08871254
218	0xbd944c32	-0.072410956
219	0x3d1491b0	0.03627175
220	0xbd69d7ba	-0.0570905
221	0x3d923b93	0.07140269
222	0x3d23478a	0.039863147
223	0xbdac3e83	-0.08410361
224	0xbe0b0d2e	-0.13579246
225	0x3e03c806	0.12869272
226	0xbcbeae14	-0.023276366
227	0x3cf40f3d	0.029792422
228	0xbd12d2f7	-0.035845723
229	0xbe73ab63	-0.23795848
230	0x3c96c2bd	0.018403405
231	0x3ce597c6	0.028026473
232	0xbdb32ce4	-0.087487966
233	0x3c85b783	0.016322857
234	0xbe1f05ff	-0.15529631
235	0xbd9827cb	-0.07429465
236	0x3dbdaf05	0.09261898
237	0x3e8179e4	0.25288308
238	0xbe0e06c2	-0.13869765
239	0x3ddea3f6	0.10871117
240	0x3d541d6f	0.051785883
241	0xbda22e8f	-0.079190366
242	0xbda4dda9	-0.08050091
243	0x3de2733e	0.11057137
244	0xbe12360f	-0.14278434
245	0xbd3f35d7	-0.046682205
246	0x3d9b19db	0.07573291
247	0x3eacad11	0.3372579
248	0xbcc9ffe9	-0.02465816
249	0xbdeceaaa	-0.11568196
250	0x3d62c81e	0.055366628
251	0x3de22430	0.110420585
252	0x3c5e10b9	0.013553792
253	0x3d9df44e	0.07712613
254	0x3dea84ac	0.114510864
255	0xbc0ef024	-0.008724246

hidden_layers.2.bias f4 [64]
0	0xbd93d006	-0.07217412
1	0x3e2a3d00	0.16624832
2	0x3e5b5883	0.21420483
3	0x3d8984a9	0.06714756
4	0xbb86465c	-0.004097743
5	0xbd88db9a	-0.06682511
6	0x3d403865	0.046928782
7	0xbba77fbb	-0.005111662
8	0x3d3788e9	0.044808302
9	0x3e9420af	0.28931186
10	0x3cde4c80	0.027136087
11	0x3e9d4bd6	0.3072192
12	0x3cb9b270	0.022668093
13	0xbdab64b0	-0.08368814
14	0xbd9c4bab	-0.0763162
15	0xbd984a9f	-0.07436108
16	0x3db442b6	0.088017866
17	0x3cbeeb43	0.02330554
18	0xbe03b2ab	-0.12861125
19	0x3e6db238	0.23212516
20	0x3d86751a	0.06565304
21	0x3d153ea6	0.0364367
22	0xbc3a27ae	-0.011361999
23	0x3e739dc7	0.23790656
24	0xbbb9f064	-0.0056744087
25	0xbd4e8880	-0.050423145
26	0xbe415fc3	-0.18884186
27	0x3ddbe1c1	0.107364185
28	0x3e3458e4	0.17612034
29	0x3e7b9b17	0.24570881
30	0x3d8c2589	0.06843097
31	0xbd88c9bf	-0.06679105
32	0x3d677bb6	0.056514464
33	0xbd89a301	-0.06720544
34	0xbd9f76cb	-0.0778633
35	0xbda93be7	-0.082633786
36	0x3af7f952	0.0018918908
37	0xbdcd0251	-0.100102074
38	0xbda9b56a	-0.08286555
39	0xbe21123c	-0.15729612
40	0xbda7912f	-0.081819884
41	0x3d8b010b	0.06787308
42	0x3d82fe2e	0.06396137
43	0xbdb34776	-0.087538645
44	0x3c33a756	0.010965189
45	0x3e8d1ac3	0.2755948
46	0xbe3f1606	-0.18660745
47	0x3d5c5dfe	0.053800575
48	0xbdfb98d8	-0.12285012
49	0x3d380781	0.04492903
50	0x3d3fe5bc	0.04684995
51	0xbdfb9b88	-0.122855246
52	0x3e41cf5f	0.18926762
53	0xbd4e0523	-0.050297868
54	0xbd0d0d50	-0.034436524
55	0xbdc7bf4e	-0.09753285
56	0xbd47873b	-0.04871295
57	0xbda4b064	-0.08041456
58	0xbd4df47e	-0.050281994
59	0x3ddffa91	0.109364636
60	0x3d800b7b	0.0625219
61	0x3e68b7c5	0.22726353
62	0xbd8c9ffb	-0.06866451
63	0x3df248d0	0.11830294

output.weight f4 [4, 64]
0	0x3df910c2	0.121613994
1	0x3c8442a5	0.01614506
2	0x3e241c4c	0.1602642
3	0x3e4fd9ca	0.20297924
4	0x3d915023	0.07095363
5	0xbd826589	-0.063670225
6	0xbe3163e1	-0.17323257
7	0xbe9f01c1	-0.31056026
8	0x3dfcdd9e	0.123469576
9	0x3e318eab	0.1733958
10	0xbeb66d1c	-0.3563012
11	0x3e252b46	0.16129789
12	0xbe984d80	-0.29746628
13	0x3e90f5fc	0.2831267
14	0x3dad052b	0.08448251
15	0x3de42c50	0.111412644
16	0x3d80bb7e	0.06285761
17	0x3d0b8a1e	0.034067266
18	0xbe5a19a5	-0.21298845
19	0x3dc64e27	0.09682875
20	0x3dfc4260	0.123173475
21	0x3dcd5398	0.1002571
22	0xbe6e1652	-0.23250702
23	0x3dd06a86	0.10176568
24	0x3d641fac	0.055694267
25	0xbe854b7d	-0.26034155
26	0xbe1121d4	-0.1417306
27	0x3daf7ede	0.0856912
28	0x3da5bf69	0.08093149
29	0x3e3cad94	0.1842559
30	0x3ea3af0c	0.31969488
31	0xbed85926	-0.42255515
32	0x3dd5acf7	0.10433381
33	0xbe6e50ac	-0.23272961
34	0xbd803c8d	-0.06261549
35	0xbb75c2c2	-0.0037500118
36	0x3dab4a6d	0.08363805
37	0x3c54f30d	0.012997401
38	0x3e1438d9	0.1447481
39	0xbe40e633	-0.18837814
40	0xbde360ee	-0.11102472
41	0x3d4a57fb	0.04940031
42	0x3c75829f	0.014984756
43	0xbe88cb81	-0.2671776
44	0x3ea8ece4	0.32993233
45	0x3e37bc83	0.17943005
46	0xbe97e6c2	-0.29668242
47	0x3ea5fe02	0.32420355
48	0xbe5967f9	-0.21231069
49	0x3d998041	0.074951656
50	0xbe32b017	-0.17449985
51	0xbcad1e3d	-0.021132583
52	0x3e008fab	0.12554805
53	0x3e0c9353	0.13728075
54	0x3d08c3c4	0.03338982
55	0xbd820f60	-0.06350589
56	0xbd036590	-0.03207928
57	0x3dc74f9c	0.09731981
58	0xbdd4b8f0	-0.103868365
59	0x3e320eb8	0.17388427
60	0x3e27349d	0.16328664
61	0x3db3fdca	0.08788641
62	0x3d95813a	0.07300039
63	0xbe828b69	-0.25496987
64	0x3ec285e6	0.3799278
65	0x3e2591be	0.16168877
66	0x3c665c28	0.014060058
67	0x3dda7091	0.106660016
68	0xbeb1bf75	-0.34716383
69	0x3e128b77	0.14311014
70	0xbec46c06	-0.38363665
71	0x3cf03bf4	0.029325463
72	0x3cedddc5	0.029036412
73	0x3e14220a	0.1446611
74	0xbc9b4915	-0.018955747
75	0x3d95d23e	0.07315491
76	0x3ec647a5	0.38726535
77	0x3e3d6230	0.18494487
78	0xbd853f3a	-0.065062
79	0x3e8a2791	0.26983312
80	0x3c9a033d	0.018800372
81	0xbea84c17	-0.32870552
82	0xbe08225d	-0.13294359
83	0x3e210b29	0.15726914
84	0xbe2c10ee	-0.16803333
85	0x3e9dea60	0.30842876
86	0x3df612e4	0.12015322
87	0x3e2de160	0.16980505
88	0xbdab62ba	-0.0836844
89	0xbe744177	-0.23853098
90	0xbebbf8c1	-0.36713222
91	0xbd978bbd	-0.073997
92	0x3de2f932	0.110826865
93	0x3e2181bd	0.15772147
94	0x3ecb4f23	0.39708814
95	0xbecd2c6c	-0.40072954
96	0x3ddd3aad	0.10802207
97	0xbe37e9f5	-0.17960341
98	0xbdcbd567	-0.09952813
99	0x3d04192c	0.03225057
100	0x3d1a7f2a	0.03771893
101	0xbdd5c8b5	-0.104386725
102	0x3e6de904	0.2323342
103	0x3dcd7a61	0.100331075
104	0xbdf382c6	-0.118901774
105	0x3e88bd46	0.26706904
106	0x3e1342c7	0.14380942
107	0xbb7b34f5	-0.0038331125
108	0xbe5775f8	-0.21041095
109	0x3d74079e	0.059577577
110	0xbe2cf71b	-0.16891138
111	0xbd57ad23	-0.05265535
112	0xbe90fb86	-0.28316897
113	0x3eb0469a	0.34428865
114	0x3edac9e7	0.42732164
115	0xbe03c4ec	-0.12868088
116	0x3e3f22f4	0.18665677
117	0xbeb7cac4	-0.35896885
118	0xbd527b5a	-0.05138717
119	0x3e565281	0.2092991
120	0x3ed24cb1	0.41074136
121	0xbee64551	-0.4497476
122	0xbf0315f9	-0.512054
123	0x3e2ae19b	0.16687624
124	0x3e0db469	0.13838352
125	0x3dfb3878	0.1226663
126	0x3ea07f1a	0.3134697
127	0x3e15413a	0.14575663
128	0xbcb8e074	-0.022567965
129	0x3d9a65ef	0.075389735
130	0x3d6067bd	0.054786433
131	0x3c868cb8	0.016424522
132	0xbdd88ce2	-0.10573746
133	0xbe4d3fc2	-0.20043853
134	0x3ea3ccb3	0.3199211
135	0xbd5255ed	-0.051351476
136	0x3e92369b	0.28557286
137	0x3d992022	0.07476832
138	0xbe8e35fb	-0.2777556
139	0x3ddd0f9a	0.107939914
140	0xbe2feee8	-0.17180979
141	0xbe4e63bd	-0.20155235
142	0xbeb4c4f7	-0.35306522
143	0xbe9149b8	-0.28376555
144	0x3eb85f9b	0.3601044
145	0x3ec54a91	0.38533452
146	0x3dae5f24	0.085142404
147	0x3e649ae7	0.22324716
148	0x3eba4efa	0.3638838
149	0x3e20935a	0.1568121
150	0xbea39338	-0.31948256
151	0x3e2f7178	0.17133129
152	0x3e16c9dd	0.14725442
153	0xbec1c1b6	-0.37843102
154	0x3daae4d0	0.08344424
155	0xbd77d5cb	-0.060506623
156	0x3d5c6548	0.053807527
157	0xbc8cfd8c	-0.017210744
158	0x3ea50931	0.32233575
159	0xbe826d14	-0.25473845
160	0x3d02546b	0.03181879
161	0x3e629396	0.22126612
162	0xbe217df8	-0.1577071
163	0xbd61094a	-0.0549405
164	0x3e87ca75	0.2652165
165	0x3d65b189	0.056077514
166	0x3dbf99d7	0.093555145
167	0x3db9f19b	0.09079286
168	0xbda14b21	-0.07875658
169	0x3de87de2	0.11352135
170	0x3dff61b0	0.12469804
171	0xbea4a9be	-0.32160753
172	0x3d1a9890	0.03774315
173	0x3e2bd8f3	0.16781978
174	0x3a85f9b6	0.0010221514
175	0xbdc991bd	-0.098422505
176	0x3ea9600a	0.33081084
177	0xbd058f4f	-0.032607373
178	0x3d32bbc7	0.04363611
179	0x3e333436	0.17500386
180	0xbbb613e8	-0.005556572
181	0xbcc8d476	-0.024515372
182	0x3f103ba4	0.56341004
183	0x3e0e38a4	0.13888794
184	0x3cbb4b1a	0.02286296
185	0x3e5452bd	0.20734687
186	0x3dde0111	0.10840047
187	0xbd04a082	-0.032379635
188	0x3cd4df7c	0.025985472
189	0xbccd24d2	-0.025041971
190	0xbe0601a4	-0.13086563
191	0xbefbf490	-0.49210024
192	0x3ec79fb8	0.38989043
193	0x3dcc72b2	0.09982814
194	0x3e1afd2e	0.15135643
195	0xbe514d3a	-0.20439616
196	0x3e52f0a8	0.20599616
197	0x3d0ea93d	0.034829367
198	0x3e46f5b8	0.19429672
199	0xbc677303	-0.014126542
200	0xbde551eb	-0.11197265
201	0x3d1fa8f8	0.0389795
202	0xbe32dc13	-0.17466764
203	0x3e5a7dde	0.21337077
204	0x3e06087f	0.13089179
205	0x3c87ee71	0.01659319
206	0xbe4cc171	-0.19995667
207	0xbcfbd054	-0.030738987
208	0x3e083b68	0.13303912
209	0x3e911288	0.2833445
210	0xbe43421d	-0.19068189
211	0x3b22efb6	0.0024862117
212	0x3d92f475	0.07175533
213	0x3e92b519	0.28653792
214	0xbee388b8	-0.44440246
215	0x3e597bf2	0.21238688
216	0x3e953a0f	0.29145858
217	0xbd1a8510	-0.037724555
218	0x3de22c32	0.11043586
219	0x3e362cd4	0.17790538
220	0x3e54e1a4	0.207892
221	0xbcbe0cc5	-0.023199448
222	0x3e79081c	0.243195
223	0xbd833d50	-0.06408179
224	0xbdeb2f5c	-0.114836425
225	0x3e10522c	0.14093846
226	0xbed207d6	-0.41021603
227	0xbd9be48c	-0.07611951
228	0xbca5aea2	-0.020224873
229	0xbd5afb7b	-0.053462487
230	0xbec1c4d6	-0.37845486
231	0x3e47b6f8	0.19503391
232	0xbddd01fe	-0.107913956
233	0xbe0930a4	-0.13397461
234	0x3d029d1a	0.031888105
235	0x3d76f650	0.060293496
236	0x3db98e55	0.09060351
237	0x3e123258	0.14277017
238	0xbd272dbb	-0.040815096
239	0x3c3227a7	0.010873712
240	0xbe75feff	-0.24023055
241	0x3e9ae787	0.30254766
242	0xbe86267b	-0.26201233
243	0xbefbe847	-0.4920065
244	0x3e14b65f	0.14522694
245	0xbe06f0e8	-0.13177836
246	0xbf12459e	-0.5713748
247	0xbe2689a5	-0.16263445
248	0x3ea209c0	0.31648064
249	0xbda44193	-0.0802032
250	0x3ea58ac8	0.32332444
251	0x3e8606a1	0.26176932
252	0xbd996c84	-0.07491401
253	0x3e2528f1	0.16128899
254	0x3d7ef4bf	0.062245127
255	0x3ddcb73a	0.10777135

output.bias f4 [4]
0	0x3df62a82	0.120198265
1	0x3dff6895	0.12471119
2	0x3e32a0b7	0.1744412
3	0x3ddd0394	0.10791698

state_value.weight f4 [1, 64]
0	0x3d58ec94	0.052959993
1	0x3d6f0be4	0.05836095
2	0xbdb294c8	-0.08719784
3	0x3dcf6d3c	0.10128257
4	0x3c539230	0.012913272
5	0xbc0850d0	-0.008320048
6	0xbc1adec0	-0.009452522
7	0xbc1dd0f0	-0.009632334
8	0xbc67d9a0	-0.014151007
9	0xbd2b6444	-0.041843668
10	0x3c96a598	0.018389508
11	0xbd08a2c0	-0.033358335
12	0x3dcf45b0	0.10120714
13	0xbd2f3b84	-0.042781368
14	0xbdeaea00	-0.11470413
15	0x3dfdc820	0.123916864
16	0x3d97262c	0.073803276
17	0xbdb63faa	-0.08898862
18	0x3dca27bc	0.0987086
19	0xbddee75c	-0.10883972
20	0xbd7ec014	-0.0621949
21	0xbd84a51c	-0.064768046
22	0x3ca9fbf0	0.020750016
23	0x3d0afc78	0.03393218
24	0xbd50f61c	-0.05101596
25	0xbd2cc2fc	-0.04217814
26	0xbd894fb4	-0.06704655
27	0x3dc42e4c	0.09579143
28	0x3d79514c	0.060868546
29	0x3c3496a0	0.01102224
30	0x3bdea6a0	0.0067947656
31	0x3bfed360	0.0077766627
32	0xbceb7228	-0.028740957
33	0xbd67ebc8	-0.056621343
34	0x3de689a4	0.112567216
35	0xbd48044c	-0.048832223
36	0xbd9db5a4	-0.07700661
37	0xbc4c50c0	-0.012470424
38	0x3d1db5c4	0.038503423
39	0xbddac396	-0.10681836
40	0x3d0bf1f4	0.03416629
41	0xbbc329e0	-0.0059559196
42	0xbd6df8bc	-0.05809854
43	0x3c808088	0.015686288
44	0x3c4c3950	0.012464836
45	0xbdf6da76	-0.12053387
46	0x3d70c044	0.05877711
47	0x3d431e0c	0.047636077
48	0xbd9331ba	-0.07187219
49	0x3d21bedc	0.03948866
50	0xbd86f8e4	-0.06590441
51	0x3dbe62e6	0.09296207
52	0xbd649750	-0.055808365
53	0x3d374c90	0.04475075
54	0x3d255010	0.040359557
55	0xbbeb97c0	-0.007189721
56	0xbd8c8710	-0.06861699
57	0x3d7311ac	0.059343025
58	0x3d04a8ac	0.03238742
59	0xbd6dd80c	-0.058067366
60	0xbc8dfdd0	-0.017332941
61	0x3d53d888	0.051720172
62	0xbdd7f446	-0.10544638
63	0x3c95f0f8	0.01830338
