results/64_128_64_0_False_False/checkpoint_final.pth (torch_old, 78921 bytes, 9 tensors)

hidden_layers.0.weight f4 [64, 37]
0	0x3e00e76c	0.1258828
1	0x3e7b3036	0.2453011
2	0xbeadfcd1	-0.33981946
3	0xbe5594f8	-0.20857608
4	0x3e2d1142	0.16901115
5	0x3e19d4dc	0.15022606
6	0xbebacc16	-0.3648383
7	0x3e1f9c06	0.15586862
8	0xbe2347fa	-0.15945426
9	0xbf1e0e27	-0.61740345
10	0xbb5e58c5	-0.0033927422
11	0xbd4afcde	-0.04955756
12	0xbebef3cf	-0.37295386
13	0xbd51bf72	-0.051207967
14	0xbc36457b	-0.011124964
15	0x3e460215	0.19336732
16	0xbdddb68f	-0.10825836
17	0xbc011fc0	-0.007881105
18	0xbe62e47b	-0.22157471
19	0x3e8514fa	0.25992566
20	0x3e03045a	0.12794629
21	0xbd66d453	-0.056354832
22	0x3e524aaf	0.20536302
23	0xbded95f6	-0.116008684
24	0xbcada034	-0.021194555
25	0xbda75117	-0.081697635
26	0xbd98f970	-0.074694514
27	0x3e7a52cc	0.24445647
28	0xbf5731df	-0.8406047
29	0xbf07d3e8	-0.5305772
30	0xbe863511	-0.2621236
31	0x3ed68383	0.4189721
32	0xbe011d06	-0.12608728
33	0xbe4eb323	-0.20185523
34	0x3e971eff	0.29515836
35	0xbd880411	-0.066414006
36	0xbdb17431	-0.0866474
37	0x3e4ba7d6	0.19888243
38	0x3e586ecb	0.21136014
39	0x3e0b709b	0.13617174
40	0x3cdb9e6f	0.026808945
41	0x3bd0f7b6	0.0063771857
42	0x3ea63e95	0.3246962
43	0xbf674ec7	-0.9035458
44	0xbeec6ea8	-0.46178174
45	0xbf08596f	-0.53261465
46	0xc012131e	-2.2824168
47	0x3d802563	0.06257131
48	0x3e159aff	0.14609908
49	0x3d80038b	0.06250676
50	0x3e02869c	0.12746662
51	0x3df9c153	0.12195077
52	0x3e1c0498	0.15236127
53	0x3dc2afc4	0.09506181
54	0x3e1a269b	0.1505379
55	0x3d6ab276	0.0572991
56	0x3e0be46d	0.13661356
57	0xbd4aa63e	-0.049474947
58	0xbd2386eb	-0.03992359
59	0x3d816293	0.0631763
60	0xbc3623dc	-0.011116948
61	0x3dab7aa5	0.08373002
62	0xbbfb3ad2	-0.007666924
63	0x3a9c3fd9	0.0011920884
64	0x3e12c059	0.14331187
65	0x3e686fc9	0.22698893
66	0x3e2b0564	0.16701275
67	0x3e1e6e16	0.15471682
68	0x3dd1341d	0.10215018
69	0x3e90c8f3	0.28278312
70	0xbdb870e1	-0.09005905
71	0xbec35e9d	-0.38158122
72	0xbc9f422b	-0.019440731
73	0xbc9175be	-0.01775634
74	0x3f34e820	0.70666695
75	0xbe01a7ab	-0.12661617
76	0xbf351767	-0.70738834
77	0xbee2d232	-0.4430099
78	0xc011c775	-2.277799
79	0xbae00b15	-0.0017093146
80	0x3c4f2b67	0.012644625
81	0x3e556ff5	0.2084349
82	0x3af9461b	0.0019018085
83	0x3bd3977d	0.006457268
84	0x3bf52488	0.0074811615
85	0x3d3b7079	0.04576156
86	0x3e08137a	0.1328868
87	0xbdccffd7	-0.10009735
88	0x3d9fb8ec	0.07798943
89	0xbc812f51	-0.015769633
90	0x3d142997	0.036172476
91	0x3e1383c3	0.14405732
92	0x3eabbcd4	0.33542502
93	0x3ecef698	0.4042251
94	0xbb7e99f4	-0.0038849087
95	0x3d8b8631	0.06812704
96	0x3bf45c8f	0.007457323
97	0x3d024e50	0.031812966
98	0xbde5ef49	-0.11227281
99	0x3dfe7f05	0.12426571
100	0x3e2998f7	0.16562258
101	0xbd021145	-0.03175475
102	0x3e1bc7bb	0.1521291
103	0x3d03e13e	0.03219723
104	0x3ca19511	0.0197244
105	0xbd4fb931	-0.05071372
106	0xbd9b9848	-0.07597405
107	0xbd0bcd10	-0.03413111
108	0xbc5407b9	-0.012941294
109	0x3cf67f29	0.030089932
110	0xbc82dd59	-0.015974687
111	0xbd7c0b37	-0.061534133
112	0xbbbabbe0	-0.005698666
113	0xbd26a9d1	-0.040689293
114	0x3ed764b7	0.42069027
115	0xbeb06cd5	-0.34458032
116	0xbba5c0f0	-0.0050584003
117	0x3e473c12	0.19456509
118	0xbe617342	-0.22016624
119	0x3eca4fd1	0.3951402
120	0xbd9803d0	-0.07422602
121	0x3e58e1aa	0.21179834
122	0xbe9a61af	-0.30152652
123	0x3e304d5b	0.17217009
124	0xbec50a07	-0.38484213
125	0xbe0dfc3b	-0.1386575
126	0x3c698ad5	0.014254292
127	0xbf42ab1c	-0.7604234
128	0x3d262657	0.040563907
129	0xbd113438	-0.03545019
130	0xbd29a3b8	-0.0414159
131	0xbdeb65af	-0.11494004
132	0xbf14b8cd	-0.58094484
133	0x3ea84d1a	0.32871324
134	0xbf2e3809	-0.6805425
135	0x3e048783	0.12942319
136	0xbe5a7fad	-0.21337767
137	0xbe92ecdc	-0.28696334
138	0x3e07e6d3	0.13271646
139	0x3e796196	0.24353632
140	0xbd97ab01	-0.07405663
141	0x3dc070f0	0.09396541
142	0xbea0013b	-0.3125094
143	0xbe52ec57	-0.20597969
144	0xbe9ae787	-0.30254766
145	0xbfc219a4	-1.5164075
146	0x3ea020f9	0.31275156
147	0xbd659f6a	-0.056060232
148	0xbdfecc2d	-0.12441287
149	0xbd5070a4	-0.050888672
150	0xbe8b72b1	-0.2723594
151	0x3def4eba	0.11684938
152	0x3d0884b3	0.033329677
153	0x3eb70f46	0.3575384
154	0xbcd599ff	-0.026074408
155	0xbe9c0be1	-0.30477813
156	0xbee4b79f	-0.44671342
157	0xbfae2c8a	-1.3607342
158	0x3dec8e67	0.115505986
159	0x3e4ac2f3	0.1980093
160	0xbe556985	-0.20841034
161	0xbea4a1d9	-0.3215473
162	0xbf0df319	-0.5544906
163	0xbe0cc049	-0.13745226
164	0xbc9f3549	-0.019434588
165	0x3e3411e1	0.17584945
166	0xbde50a3e	-0.11183594
167	0xbbe1afef	-0.006887428
168	0xbd02056a	-0.031743445
169	0xbcaf5f29	-0.02140768
170	0x3bb24d53	0.0054413467
171	0x3e5a0632	0.21291426
172	0x3e4f2f80	0.20232964
173	0xbe1e1806	-0.15438852
174	0x3d9d0090	0.07666123
175	0x3e3d32bc	0.18476385
176	0x3e87fcbb	0.26560006
177	0x3e4e2ce7	0.20134316
178	0xbd81116c	-0.06302151
179	0x3df541bc	0.119754285
180	0x3d65898e	0.056039385
181	0x3e254e51	0.16143157
182	0x3eb1c79d	0.34722605
183	0xbc02e131	-0.00798826
184	0xbd15f8fa	-0.036614396
185	0x3da94c85	0.08266548
186	0xbe173f36	-0.14770207
187	0xbc4724bc	-0.012154754
188	0xbcbb2ee6	-0.022849511
189	0x3c26bc2d	0.010176701
190	0x3e93b94a	0.28852302
191	0x3e156ee6	0.14593086
192	0xbde2188d	-0.11039839
193	0xbf2c31bd	-0.67263395
194	0xbf810078	-1.0078268
195	0xbe468015	-0.19384797
196	0x3cd38829	0.025821762
197	0x3d814544	0.063120395
198	0xbd7b117b	-0.061295968
199	0x3e8123bf	0.25222585
200	0x3e14051d	0.14455076
201	0xbbbe6ab5	-0.0058110603
202	0xbdabf7b4	-0.08396855
203	0xbe0933bd	-0.13398643
204	0x3e36a07e	0.1783466
205	0x3e262b8b	0.16227548
206	0xbd886ccb	-0.066613756
207	0x3e506c91	0.20353915
208	0x3d474d09	0.04865745
209	0x3d5601dd	0.05224787
210	0x3e10c6ae	0.1413829
211	0xbd15e225	-0.03659262
212	0xbca386e5	-0.019961784
213	0xbe11e181	-0.14246179
214	0x3d881965	0.066454686
215	0x3cb21bf8	0.021741852
216	0xbd6d0e3d	-0.057874907
217	0x3d8dad07	0.06917768
218	0x3d203886	0.039116405
219	0x3ebea740	0.37236977
220	0x3d51a29f	0.05118048
221	0x3dc858af	0.0978254
222	0xbd8b65f3	-0.06806555
223	0xbef257c6	-0.4733259
224	0x3dda0111	0.10644735
225	0x3e6700de	0.22558925
226	0xbdc330c9	-0.095307894
227	0xbf06f371	-0.5271521
228	0xbf1ac941	-0.6046334
229	0x3cb0088f	0.021488456
230	0x3e95c3bf	0.29250905
231	0x3e2278ba	0.15866366
232	0x3dff5bea	0.12468703
233	0xbe75c13d	-0.23999496
234	0x3d799184	0.06092979
235	0x3db5101b	0.088409625
236	0x3e1fcd8d	0.15605755
237	0xbe14c2d5	-0.14527448
238	0xbd8fb653	-0.070171975
239	0xbde65cf8	-0.11248201
240	0x3e402148	0.18762696
241	0xbe83116e	-0.25599235
242	0xbec103c9	-0.376982
243	0x3d88a010	0.066711545
244	0x3ea6fe78	0.3261602
245	0xbf06aef5	-0.52610713
246	0x3ef75ff6	0.483154
247	0xbe9ae1c8	-0.30250382
248	0xbef31d0c	-0.47483099
249	0x3de77a93	0.11302676
250	0x3d515a3e	0.051111452
251	0x3bea999a	0.007159424
252	0x3db03307	0.08603483
253	0xbe5032ea	-0.20331922
254	0xbd4c376e	-0.04985755
255	0xbe461aad	-0.19346114

hidden_layers.0.bias f4 [64]
0	0x3d2c6ef6	0.042098008
1	0x3db9fc1d	0.0908129
2	0xbd810438	-0.06299633
3	0xbdc4d585	-0.09611038
4	0x3e2ca8b9	0.16861238
5	0xbd598f84	-0.053115383
6	0xbe519555	-0.20467122
7	0xbb692fb4	-0.0035581412
8	0xbd5e0a43	-0.054209005
9	0xbe194407	-0.14967357
10	0x3de437cb	0.11143454
11	0x3e0869e1	0.1332164
12	0x3dcfdec8	0.10149914
13	0x3e0cb1da	0.1373972
14	0xbde652ad	-0.11246238
15	0xbdb507a1	-0.08839346
16	0x3d6adee3	0.057341468
17	0xbd8a6c8e	-0.067589864
18	0xbdb8085c	-0.089859694
19	0xbe7544ce	-0.23952028
20	0xbe8029ab	-0.2503179
21	0xbcb23a45	-0.0217563
22	0x3d5714a4	0.05250992
23	0xbe6300a1	-0.22168209
24	0xbda5d2a9	-0.08096821
25	0x3d88534b	0.06656512
26	0x3d615b1f	0.05501854
27	0xbe0e7f1b	-0.13915674
28	0x3e2495a1	0.16072704
29	0x3cc32e7d	0.023825878
30	0xbd9a9ec5	-0.07549814
31	0xbe29454a	-0.16530338
32	0x3d983c71	0.07433403
33	0x3cc6adf6	0.024252873
34	0xbdc59f72	-0.096495524
35	0xbc87d4ee	-0.016581025
36	0xbd46da1b	-0.048547845
37	0x3d9ae1f3	0.07562628
38	0xbd0acffb	-0.033889752
39	0x3cdc71df	0.026909767
40	0xbd38e336	-0.04513856
41	0x3dbb6643	0.09150364
42	0xbd6dde9f	-0.058073636
43	0x3cecdd8a	0.028914232
44	0xbd1cb9c4	-0.038263097
45	0xbe24901b	-0.16070597
46	0xbd233474	-0.039844945
47	0xbd4a4f88	-0.049392253
48	0xbdedb549	-0.11606843
49	0x3da7851e	0.08179687
50	0xbda9b4dd	-0.0828645
51	0x3b8ed3a0	0.0043587238
52	0xbda61055	-0.08108584
53	0xbd27176c	-0.04079382
54	0xbe001c77	-0.12510858
55	0xbda54648	-0.08070046
56	0x3dfd8d7e	0.12380503
57	0xbd8992ce	-0.06717454
58	0x3d33dd0f	0.04391199
59	0xbda63c0c	-0.08116922
60	0x3d1db003	0.038497936
61	0x3dac96dc	0.08427212
62	0x3d144189	0.03619531
63	0xbbcf0897	-0.0063181627

hidden_layers.1.weight f4 [128, 64]
0	0x3c5d6cc6	0.013514703
1	0x3e29b873	0.16574268
2	0x3e282bc0	0.1642294
3	0xbe270399	-0.16309966
4	0x3dc3abe5	0.09554271
5	0x3de8fa22	0.11375834
6	0x3e82caa5	0.2554523
7	0xbe803554	-0.25040686
8	0x3e0d60a8	0.13806403
9	0x3e193c3d	0.14964385
10	0xbeb9365d	-0.36174288
11	0xbf562a78	-0.8365855
12	0xbc455cb4	-0.012046028
13	0x3da4499d	0.08021853
14	0xbe189d0a	-0.14903656
15	0x3e604e2e	0.21904823
16	0xbe8a58ae	-0.27020782
17	0xb8f2ffd0	-0.00011587108
18	0xbe97d4ae	-0.2965445
19	0x3e462644	0.19350535
20	0xbe8eb94e	-0.2787575
21	0xbe2f0d6d	-0.17094965
22	0x3e7545dc	0.2395243
23	0xbeb0177f	-0.34392926
24	0xbe7b57c9	-0.24545206
25	0xbb1aac7d	-0.0023601346
26	0x3e6032a6	0.21894321
27	0xbc1da453	-0.0096216975
28	0xbdd91eb8	-0.10601562
29	0xbf10f3d4	-0.5662205
30	0x3dcdec4c	0.10054836
31	0x3c8bc2b7	0.01706062
32	0x3e58a612	0.21157101
33	0xbb4a3b14	-0.0030857967
34	0xbe25f557	-0.16206871
35	0xbe3cc89b	-0.184359
36	0xbea103a3	-0.31448087
37	0x3e5922fa	0.21204749
38	0x3e646895	0.2230552
39	0xbe23523c	-0.15949339
40	0xbe845e2d	-0.258531
41	0x3e1a3d05	0.1506234
42	0x3ec16b90	0.37777376
43	0xbe91783d	-0.28412047
44	0xbdf4b870	-0.11949241
45	0xbe802bab	-0.25033316
46	0xbdd3728a	-0.10324581
47	0xbe7de450	-0.24794126
48	0xbec50b17	-0.38485023
49	0xbd19fc9f	-0.037594434
50	0xbe5466a8	-0.20742285
51	0xbe2ad35c	-0.1668219
52	0xbd6b09e2	-0.05738247
53	0x3d88ba8c	0.06676206
54	0x3e849efb	0.25902542
55	0xbc6d3a3b	-0.014479215
56	0x3dab2c05	0.083580054
57	0xbee0447c	-0.4380225
58	0xbe5b04b0	-0.21388507
59	0x3e4107a4	0.18850571
60	0xbd2db5b3	-0.04240961
61	0x3e12c271	0.14331986
62	0xbf3c51ad	-0.7356213
63	0xbc8b505b	-0.01700609
64	0xbeccf29b	-0.40028843
65	0x3ebb2087	0.36548254
66	0xbe74bb4a	-0.2389957
67	0x3d93a082	0.07208349
68	0x3d26ec72	0.040752836
69	0x3e1a645d	0.15077348
70	0x3e24a5d6	0.16078886
71	0xbf3de4f8	-0.74177504
72	0xbcb11614	-0.021616973
73	0xbd96dc2c	-0.07366213
74	0xbd6ca5d9	-0.057775352
75	0xbf3cf055	-0.7380422
76	0xbc4a6668	-0.012353517
77	0x3d9ffa3b	0.078113995
78	0xbe0c5aed	-0.1370656
79	0xbe1f3915	-0.15549119
80	0x3e10ee47	0.14153396
81	0x3d328049	0.043579374
82	0xbde0800e	-0.109619245
83	0xbd6204c6	-0.055180334
84	0xbdcc89e9	-0.09987242
85	0xbea75ad5	-0.32686487
86	0x3a07112c	0.00051524
87	0xbc8a1efb	-0.016860476
88	0x3e062880	0.13101387
89	0xbe27c76b	-0.16384666
90	0xbf66f74c	-0.90221095
91	0x3e53594d	0.20639534
92	0xbe7f7e05	-0.24950416
93	0x3d336ea3	0.043806683
94	0x3ca6034a	0.02026524
95	0x3d0fbe8c	0.03509383
96	0x3db47d65	0.088129796
97	0xbd3c8db9	-0.046033595
98	0xbe6544ef	-0.22389577
99	0x3edb917f	0.42884442
100	0x3d544bea	0.05183021
101	0xbd8eb1e2	-0.06967522
102	0x3e6b3bfe	0.22972104
103	0xbe9f59fe	-0.31123346
104	0xbe94d152	-0.2906595
105	0x3db5e775	0.088820376
106	0x3ea87c9b	0.32907566
107	0xbd5fe3df	-0.054660674
108	0xbdd30111	-0.10302938
109	0xbd52b436	-0.051441394
110	0x3d7c2781	0.06156111
111	0xbe67e25f	-0.22644947
112	0xbc06a7da	-0.00821873
113	0xbe07885f	-0.13235615
114	0xbd7ee915	-0.062234003
115	0x3c77fd7e	0.015136121
116	0xbe45f2ef	-0.19330953
117	0xbe0b6436	-0.13612446
118	0xbe955df0	-0.2917323
119	0xbe4a1878	-0.19735897
120	0xbe8be462	-0.2732268
121	0xbdbc0e2d	-0.09182391
122	0x3e8dc252	0.27687317
123	0xbebc31af	-0.36756656
124	0x3be721d1	0.007053592
125	0xbdadad5b	-0.084803306
126	0xbd5a086c	-0.053230688
127	0x3cdea128	0.027176455
128	0xbcf3d74f	-0.029765753
129	0x3d953e0f	0.07287227
130	0x3dc0852c	0.094004005
131	0xbecd9373	-0.40151557
132	0x3e935a0b	0.28779635
133	0xbe82d06d	-0.2554964
134	0xbdb9b881	-0.090683945
135	0x3e22cc5f	0.15898274
136	0xbc842787	-0.01613213
137	0xbdc7d4cf	-0.09757387
138	0x3d330cd3	0.043713402
139	0xbdb675e7	-0.08909207
140	0xbd632dce	-0.055463605
141	0xbe342aff	-0.17594527
142	0xbe914d33	-0.2837921
143	0xbeb00198	-0.34376216
144	0xbe7fb48b	-0.24971215
145	0x3e116bc4	0.14201266
146	0xbd36053a	-0.04443858
147	0xbd0152ae	-0.03157299
148	0xbe0cdf8f	-0.13757156
149	0xbc816e66	-0.015799712
150	0x3c97c950	0.01852861
151	0xbea0809c	-0.3134812
152	0xbe07f68f	-0.13277648
153	0xbdd5fa43	-0.10448124
154	0x3dbbf7d7	0.09178131
155	0x3e957800	0.29193115
156	0xbe0b59d0	-0.1360848
157	0xbe63ff81	-0.22265436
158	0xbe4857e7	-0.19564782
159	0x3ddd1345	0.10794691
160	0xbf04d912	-0.51893723
161	0xbd2b805b	-0.041870456
162	0xbebf17c7	-0.37322828
163	0xbe3e1d9d	-0.18565984
164	0x3ec7d956	0.39033002
165	0x3e1302fa	0.14356604
166	0x3dd88e3b	0.10574003
167	0xbd5e5bc8	-0.05428675
168	0x3d55d9d6	0.052209698
169	0xbed75250	-0.42054987
170	0x3eaffe4c	0.343737
171	0xbf3d67a6	-0.7398628
172	0xbe68bb19	-0.22727622
173	0x3e004beb	0.1252896
174	0x3e39f79f	0.18160866
175	0x3cf310ea	0.029671151
176	0xbe83d5a3	-0.2574893
177	0x3e5295d8	0.20564973
178	0xbbecf0d6	-0.0072308583
179	0x3b1f84f4	0.002434072
180	0xbf201260	-0.6252804
181	0x3c987116	0.018608611
182	0x3e653df0	0.22386909
183	0xbe8c85f4	-0.27445948
184	0x3da88918	0.082292736
185	0xbca0ec6d	-0.019643987
186	0x3e4cfe2e	0.20018837
187	0x3ec3e042	0.38257033
188	0xbe9822e8	-0.2971413
189	0xbcfe80f8	-0.031067356
190	0xbc1ddca6	-0.009635126
191	0x3cac598a	0.02103879
192	0xbdfc8c3e	-0.123314366
193	0xbe5b6be4	-0.21427876
194	0x3eb0a7ae	0.3450293
195	0xbdcbf060	-0.09957957
196	0xbdd807e0	-0.10548377
197	0xbe4ac6cd	-0.19802399
198	0xbdf51d35	-0.119684614
199	0xbeb788c0	-0.3584652
200	0xbd9cb8e2	-0.07652451
201	0xbe734a03	-0.23758702
202	0x3d532af5	0.05155464
203	0x3ebdae35	0.37046972
204	0xbe39f88f	-0.18161224
205	0xbd6082ee	-0.054812364
206	0x3e2f99bc	0.17148489
207	0xbebf4412	-0.3735662
208	0xbbd17eb2	-0.006393277
209	0x3dc2c511	0.09510244
210	0xbe23da62	-0.16001275
211	0x3ea6b451	0.32559446
212	0xbd3f648a	-0.04672674
213	0x3e277ccf	0.16356204
214	0xbc5e75ff	-0.013577937
215	0x3eaf1e36	0.34202737
216	0xbf00ecec	-0.50361514
217	0xbdd49250	-0.103794694
218	0xbd517970	-0.051141202
219	0x3dd00057	0.10156315
220	0x3d569665	0.05238952
221	0x3e8425fa	0.25810224
222	0xbbc90f77	-0.0061358768
223	0xbeb2681b	-0.3484505
224	0xbe111ca7	-0.14171086
225	0x3de54d86	0.11196427
226	0xbbc763d6	-0.0060848994
227	0x3e4781cc	0.19483107
228	0xbc47a500	-0.012185335
229	0x3e9ad1ca	0.3023818
230	0xbe070f16	-0.13189349
231	0xbe5766a0	-0.21035242
232	0x3df375d3	0.118877076
233	0x3e81db9e	0.25362867
234	0xbdffef9c	-0.12496874
235	0x3e1491f5	0.14508803
236	0x3de87795	0.113509335
237	0xbcb12710	-0.021625072
238	0x3bf4b0fa	0.0074673863
239	0xbe9ca9c8	-0.30598283
240	0xbe8b96c6	-0.27263469
241	0xbc5363f4	-0.012902249
242	0x3c329e87	0.010902054
243	0x3d972a52	0.07381119
244	0x3cfbd7c2	0.03074253
245	0x3d0d6d4b	0.034528058
246	0xbd9b0c90	-0.075707555
247	0x3c52b8aa	0.01286141
248	0xbe3a0c2f	-0.1816871
249	0xbd9a4779	-0.075331636
250	0xbea5195d	-0.32245913
251	0x3e912bdc	0.28353775
252	0xbe85233f	-0.26003453
253	0x3c0d2ec2	0.008617105
254	0xbf0203a3	-0.507868
255	0xbe495bdb	-0.19663946

hidden_layers.1.bias f4 [128]
0	0x3cb08093	0.021545684
1	0xba8e37a1	-0.0010850319
2	0x3db2cd4f	0.08730566
3	0xbde72c59	-0.112877555
4	0x3e510ce6	0.20415077
5	0x3ea0acb6	0.31381768
6	0x3c11133a	0.008854682
7	0xbe07ec87	-0.13273822
8	0xbdcf2279	-0.10113997
9	0x3ee0d7ab	0.43914542
10	0xbde4521b	-0.11148473
11	0xbd214e63	-0.039381396
12	0x3a8cad2d	0.0010732763
13	0x3d8da08d	0.06915388
14	0xbd724397	-0.05914649
15	0xbe702b8d	-0.23454113
16	0x3e236c49	0.15959276
17	0xbda8183e	-0.08207749
18	0x3e37cecd	0.17949982
19	0xbdb85da6	-0.09002237
20	0xbd752eb0	-0.059858978
21	0xbdb7a04d	-0.08966122
22	0xbe3fbc07	-0.1872407
23	0x3d64fb53	0.055903744
24	0xbe12b566	-0.1432701
25	0xbe3333aa	-0.17500177
26	0x3d4cac38	0.049968928
27	0xbdf5fd3e	-0.12011193
28	0x3cccf2ba	0.025018085
29	0x3c3a666f	0.011376961
30	0xbdba8d9b	-0.0910904
31	0xbd6ffb94	-0.058589533
32	0xbe2c3227	-0.16816007
33	0x3cd2b33d	0.025720233
34	0x3e499baa	0.19688287
35	0x3e3ded08	0.18547451
36	0x39b3ca5c	0.0003429231
37	0xbe08f744	-0.13375574
38	0xbe320360	-0.173841
39	0xbdb66d18	-0.08907527
40	0x3e2905f2	0.16506174
41	0x3b9c333b	0.0047668493
42	0x3d868511	0.06568349
43	0x3ddc5582	0.10758497
44	0xbe15211a	-0.14563408
45	0x3d6e89ff	0.058237072
46	0xbda2edc6	-0.07955508
47	0xbe64da45	-0.22348888
48	0xbda94929	-0.08265907
49	0xbde17631	-0.11008871
50	0x3e848665	0.25883785
51	0xbe270f8d	-0.16314526
52	0x3df4eb61	0.119589575
53	0xbe551c15	-0.20811494
54	0xbd88abd9	-0.06673402
55	0x3de1ff79	0.11035056
56	0xbb214f44	-0.0024613896
57	0xbe0489a6	-0.12943134
58	0x3d08f9f0	0.033441484
59	0xbda5fc63	-0.081047796
60	0xbcd149de	-0.025547918
61	0xbccc2d87	-0.024924053
62	0xbe0429cd	-0.1290657
63	0x3c8e040e	0.017335918
64	0x3d1151e4	0.035478488
65	0xbd4b2e56	-0.049604736
66	0x3ddfb150	0.109224916
67	0xbe3a4cab	-0.18193309
68	0x3d05e98c	0.03269343
69	0x3d046dd3	0.0323313
70	0xbe617994	-0.22019035
71	0x3e03ea2e	0.12882301
72	0xbde0664f	-0.10957014
73	0x3e16545a	0.14680615
74	0x3dcece22	0.100979105
75	0xbcac4a26	-0.02103145
76	0x3d3d03eb	0.046146315
77	0xbdfa5692	-0.12223543
78	0xbd870f8f	-0.065947644
79	0xbd82f165	-0.063936986
80	0xbe658585	-0.22414215
81	0x3c4e060f	0.012574687
82	0xbdeb20e8	-0.11480886
83	0x3cf9d99c	0.030499272
84	0xbca23c60	-0.01980418
85	0x3e4af955	0.19821675
86	0x3c5d696f	0.013513907
87	0x3c87284a	0.016498704
88	0xbde8c9ef	-0.11366641
89	0xbe5f0967	-0.2178093
90	0xbd04b013	-0.03239448
91	0x3d0257b0	0.031821907
92	0xbdd6d45c	-0.10489723
93	0x3da1711c	0.07882902
94	0xbe8dc8c2	-0.2769223
95	0xbe6ca4ff	-0.23109816
96	0xbde3dcf7	-0.1112613
97	0x3e4a499c	0.19754642
98	0x3e05f74d	0.13082619
99	0xbe5f21b6	-0.21790203
100	0xbe10c0ba	-0.1413602
101	0x3e62ffcf	0.22167896
102	0xbdf646c7	-0.120252185
103	0xbd804dd2	-0.06264843
104	0xbe12dd6a	-0.14342275
105	0x3dfb2947	0.122637324
106	0xbc529654	-0.012853224
107	0xbe00113e	-0.12506577
108	0xbe1542b2	-0.14576223
109	0xbe0ac754	-0.135526
110	0xbe48f1e0	-0.19623518
111	0xbcdbb112	-0.026817832
112	0xbe9b7013	-0.30358943
113	0xbbd5103f	-0.006502181
114	0x3b9885f9	0.0046546427
115	0xbd364a35	-0.044504363
116	0xbde71ca5	-0.112847604
117	0x3e087c12	0.13328579
118	0x3d371ad9	0.04470334
119	0x3dafa334	0.085760504
120	0xbdfaf302	-0.12253381
121	0xbd1e5aad	-0.038660694
122	0x3e06234f	0.13099407
123	0x3d78d308	0.06074813
124	0xbdc1db8d	-0.09465704
125	0xbc9a9e7d	-0.018874401
126	0xbe253bbf	-0.16136073
127	0x3c3b6bcd	0.011439276

hidden_layers.2.weight f4 [64, 128]
0	0x3cfdbb8b	0.030973217
1	0x3e2c03ca	0.1679832
2	0xbd5c6677	-0.053808656
3	0x3dd00fa9	0.10159237
4	0xbe8bb587	-0.27286932
5	0xbe80f789	-0.25188854
6	0xbe9ed255	-0.31019846
7	0xbe27bddc	-0.1638102
8	0x3eaa35b2	0.3324409
9	0x3da4026b	0.08008274
10	0x3ef7e960	0.48420238
11	0xbca6d906	-0.020367157
12	0xbd24ac85	-0.04020359
13	0xbe3094ad	-0.17244215
14	0x3a604808	0.00085556554
15	0xbdf01dfb	-0.11724468
16	0xbd34d4c3	-0.044148218
17	0xbdd463cb	-0.103705965
18	0x3e495870	0.19662642
19	0x3e6f12c7	0.23347007
20	0x3e53c4fd	0.20680614
21	0xbe2bbec5	-0.16771992
22	0xbe95e0e8	-0.29273152
23	0x3e04a7a5	0.12954576
24	0xbe8fe275	-0.2810246
25	0xbdbb4c37	-0.09145396
26	0x3d8557d1	0.0651089
27	0x3dc289b7	0.09498923
28	0xbdebe478	-0.11518186
29	0x3eacc220	0.33741856
30	0x3d3c8a71	0.046030466
31	0xbf12e1bc	-0.57375693
32	0x3ea72f49	0.32653263
33	0x3ecd9b4e	0.4015755
34	0xbcfb8bff	-0.030706404
35	0x3da03043	0.07821705
36	0x3d10ea73	0.03537984
37	0xbe829ec3	-0.2551175
38	0xbe225a2c	-0.1585471
39	0xbec26936	-0.37970895
40	0x3dd7af77	0.10531514
41	0xbccd92a1	-0.025094332
42	0xbe00eae3	-0.12589602
43	0xbdfcccce	-0.12343751
44	0x3eb30eb7	0.34972164
45	0xbdf1237c	-0.11774346
46	0xbeeaf2a8	-0.45888257
47	0xbe02309d	-0.12713857
48	0xbf05a2d7	-0.522016
49	0x3ca02c3e	0.019552346
50	0xbe6986b3	-0.2280529
51	0xbcf5e849	-0.030017989
52	0x3d9aba15	0.075550236
53	0xbe170502	-0.14748004
54	0x3e0aa8e4	0.13540989
55	0x3d86d660	0.065838575
56	0xbda7aeec	-0.081876606
57	0xbe2a240c	-0.16615313
58	0xbde23e97	-0.11047094
59	0x3e258e6f	0.16167615
60	0xbed79fd9	-0.42114142
61	0x3e66be60	0.2253356
62	0x3e08bd2e	0.13353416
63	0x3e17a835	0.1481026
64	0x3e5cee9c	0.21575397
65	0x3d742ea5	0.059614796
66	0x3e2eff7c	0.17089647
67	0xbdf4804f	-0.119385354
68	0xbd2355ab	-0.03987662
69	0x3da128a9	0.078690834
70	0xbef70d63	-0.482524
71	0x3de80e94	0.113309056
72	0xbeadd199	-0.33948973
73	0xbe89954b	-0.26871714
74	0x3ca27a61	0.019833745
75	0xbd623086	-0.055222057
76	0xbe79d803	-0.24398808
77	0x3e28ded7	0.16491257
78	0xbdf01c6e	-0.117241725
79	0xbd0f579f	-0.03499567
80	0xbdd2b056	-0.1028754
81	0x3d7df248	0.061998636
82	0xbde9186f	-0.113816135
83	0x3d9baaa8	0.076009095
84	0xbd162cb1	-0.036663715
85	0xbe46d479	-0.1941699
86	0x3e8991f1	0.26869157
87	0xbd8753b3	-0.06607761
88	0x3d9dfd2f	0.077143066
89	0xbeacb110	-0.33728838
90	0x3df84b72	0.12123765
91	0xbdeb264f	-0.11481916
92	0x3e281922	0.16415837
93	0x3eb3aeaa	0.35094196
94	0xbd88e8b8	-0.066850126
95	0x3ecade7b	0.39622864
96	0x3de4f23a	0.111790136
97	0x3d20d376	0.039264165
98	0xbe81c67b	-0.2534674
99	0xbdb5930e	-0.08865939
100	0xbe3352ea	-0.17512098
101	0xbe39edd2	-0.18157127
102	0xbe4b1060	-0.19830465
103	0x3d8807d4	0.06642118
104	0x3e7b3f6b	0.24535911
105	0x3d4ec1a3	0.050477635
106	0xbe1bd97f	-0.15219687
107	0x3ea413cd	0.32046357
108	0x3e249473	0.16072254
109	0x3e44238d	0.19154187
110	0x3ef1c259	0.47218588
111	0x3d9ee057	0.07757633
112	0x3ceec9e2	0.029149
113	0x3ee0a052	0.43872315
114	0x3e38e761	0.18057014
115	0x3bb33589	0.0054690284
116	0x3e9b93bd	0.30386153
117	0x3d04af36	0.032393657
118	0x3d07313c	0.033005938
119	0xbe735e03	-0.23766331
120	0xbf0faaa3	-0.56119746
121	0xbe9fb932	-0.3119598
122	0x3e360230	0.17774272
123	0x3e21b406	0.1579133
124	0xbcc7ed33	-0.024405098
125	0xbd0cea42	-0.034403093
126	0x3ea3902d	0.31945935
127	0xbe73d97a	-0.2381343
128	0x3e1d0bcf	0.15336536
129	0xbec2dc3e	-0.38058656
130	0xbd5f908c	-0.05458121
131	0xbd1ecb6c	-0.038768217
132	0x3bd3e61e	0.006466641
133	0x3e2e505b	0.1702284
134	0xbf182971	-0.59438235
135	0xbddb0b3b	-0.106955014
136	0x3d95dceb	0.073175274
137	0x3e2740b9	0.16333283
138	0x3cba9048	0.022773877
139	0x3e2724ae	0.16322586
140	0x3dcd1892	0.10014452
141	0xbea72c56	-0.32651013
142	0xbcf52f27	-0.02992971
143	0x3e5eb123	0.2174726
144	0xbe314c6c	-0.17314309
145	0xbb3e00bd	-0.002899214
146	0x3dd7ae55	0.10531298
147	0x3e797f55	0.2436498
148	0xbd61913e	-0.055070154
149	0x3ddb20d7	0.10699623
150	0xbc0531d5	-0.008129557
151	0x3d727739	0.05919573
152	0xbd00b4f2	-0.031422563
153	0x3e3eda07	0.18637858
154	0xbe863937	-0.26215526
155	0xbf0f9d0c	-0.5609901
156	0x3cb3c529	0.0219446
157	0x3dc7ef8b	0.09762486
158	0xbd8376bf	-0.064191334
159	0x3d7cb220	0.06169331
160	0xbbe8bb7e	-0.007102429
161	0x3e60d249	0.21955217
162	0xbd48c441	-0.049015287
163	0x3d9e49e7	0.077289395
164	0xbedd092c	-0.4317106
165	0xbe2e49a7	-0.17020284
166	0xbdc39912	-0.0955068
167	0xbccd5395	-0.02506427
168	0xbd8409bb	-0.064471684
169	0x3cf10f35	0.029426197
170	0x3db413d3	0.08792844
171	0xbe6aad61	-0.22917701
172	0x3e061d63	0.13097148
173	0xbd8f4a72	-0.06996621
174	0x3e135bb9	0.14390458
175	0xbe355320	-0.17707491
176	0x3cf8f26b	0.030389031
177	0xbe8faace	-0.2806
178	0xbe652e5a	-0.22380963
179	0x3de94cf6	0.11391632
180	0x3e950644	0.29106343
181	0x3eb0db86	0.34542483
182	0x3e6cbee9	0.23119701
183	0xbe4bd9d4	-0.19907314
184	0x3dc52958	0.09627026
185	0xbe474fcd	-0.19464035
186	0x3dd332cd	0.10312424
187	0xbb0b3bf6	-0.0021245456
188	0xbe06b94b	-0.13156621
189	0xbe2ff535	-0.17183383
190	0xbbe0afc0	-0.0068568885
191	0x3e15a56a	0.14613882
192	0x3e73d291	0.23810793
193	0xbd6c527c	-0.05769585
194	0x3d7a4017	0.061096277
195	0x3e4dda5d	0.2010283
196	0xbe2017d5	-0.15634091
197	0x3cdf6136	0.027268033
198	0xbc918a33	-0.017766094
199	0xbd4cc195	-0.0499893
200	0x3d8b0493	0.06787982
201	0xbd36abea	-0.044597544
202	0x3e74de26	0.23912868
203	0x3cf4b703	0.029872423
204	0xbdf2cd60	-0.118555784
205	0x3de47347	0.111548
206	0xbe393dab	-0.1808993
207	0xbf0b625b	-0.54446954
208	0xbe96dfed	-0.29467717
209	0xbd313241	-0.043260816
210	0xbd98fc45	-0.074699916
211	0x3d9ba7be	0.07600354
212	0x3e82d0a1	0.25549796
213	0x3de5ec34	0.11226693
214	0xbe191c37	-0.1495217
215	0x3d92edd9	0.07174272
216	0x3ed7b7f2	0.42132527
217	0xbe35c1de	-0.17749736
218	0xbe4dce5d	-0.20098253
219	0x3caf1fdf	0.021377502
220	0x3d8cd74c	0.06877002
221	0x3de88c64	0.113549024
222	0xbe2c4203	-0.16822056
223	0xbd3ce8ac	-0.04612033
224	0x3dbecde4	0.09316614
225	0xbe08c269	-0.13355412
226	0x3df3f9c0	0.119128704
227	0x3e69b80a	0.22824112
228	0xbc58e345	-0.013237779
229	0xbead977f	-0.33904645
230	0x3e390118	0.18066823
231	0x3dcba14d	0.09942875
232	0xbc22f196	-0.009945294
233	0x3d17cd73	0.037061166
234	0xbdb68122	-0.08911349
235	0xbd8e9eae	-0.069638595
236	0xbd817caa	-0.06322606
237	0x39fd19ac	0.00048275047
238	0xbca9100c	-0.020637535
239	0x3cdf39af	0.027249185
240	0x3e6bba84	0.23020369
241	0x3df2d90d	0.118578054
242	0x3e344ee8	0.17608225
243	0x3d04be25	0.0324079
244	0x3d9b4ba5	0.075827874
245	0xbcb03a27	-0.021512104
246	0xbce3fdf4	-0.027831055
247	0xbdd61f44	-0.10455182
248	0xbdbfe6be	-0.093701825
249	0x3c08631e	0.008324413
250	0x3d53b606	0.051687263
251	0x3c05798f	0.008146658
252	0x3d1604fa	0.03662584
253	0x3cee9c3a	0.029127229
254	0xbdad7fdd	-0.084716536
255	0xbdc06025	-0.09393338

hidden_layers.2.bias f4 [64]
0	0xbd9a6674	-0.07539073
1	0x3ef63ebc	0.48094738
2	0x3f286869	0.6578432
3	0xbed75dfd	-0.42063895
4	0x3e089e08	0.13341534
5	0xbe1d13a0	-0.15339518
6	0x3ec692e6	0.3878395
7	0xbe8058a0	-0.25067616
8	0x3f17acb7	0.59247917
9	0x3f34056e	0.70320785
10	0x3c068e53	0.008212644
11	0x3f3d4fe0	0.73950005
12	0x3ddf9dda	0.1091878
13	0xbd96a51f	-0.07355713
14	0xbb96f91e	-0.004607334
15	0xbe90c9e3	-0.28279027
16	0x3e08be3d	0.1335382
17	0x3eb95d93	0.36204204
18	0xbe62035c	-0.22071594
19	0x3f280583	0.6563341
20	0x3eb8b513	0.3607565
21	0x3e196f3c	0.14983839
22	0xbe89ad81	-0.26890185
23	0x3f23c93e	0.63978946
24	0x3e5d77e5	0.21627767
25	0xbdeb2368	-0.114813626
26	0xbd38fac0	-0.04516101
27	0x3e5b689f	0.21426629
28	0x3e12de60	0.14342642
29	0x3f2ed556	0.68294275
30	0x3f391fbe	0.7231406
31	0x3dd7148d	0.105019666
32	0x3e6b3d4c	0.22972602
33	0xbddb2e41	-0.107021816
34	0x3da13a2e	0.07872425
35	0xbde90604	-0.113781005
36	0x3d901c8b	0.07036694
37	0xbd604ed5	-0.05476268
38	0xbe95e0b8	-0.2927301
39	0xbd3f6a88	-0.046732455
40	0xbdadb303	-0.084814094
41	0x3ed426a1	0.41435722
42	0xbbeeeb53	-0.0072912364
43	0x3d834c07	0.064109854
44	0x3eaf91db	0.34290966
45	0x3f335019	0.70044094
46	0xbe1337b7	-0.14376722
47	0x3e9f7e98	0.3115127
48	0xbe587206	-0.21137246
49	0x3f24a0cc	0.64307857
50	0x3d9c3c1f	0.07628655
51	0xbbe2c84b	-0.0069208494
52	0x3f373af6	0.7157434
53	0xbe934fd1	-0.28771833
54	0xbebb8515	-0.3662497
55	0xbedfd29f	-0.4371538
56	0x3e423787	0.18966495
57	0xbde79734	-0.113081366
58	0x3e326f4c	0.17425269
59	0x3f1fab3f	0.62370676
60	0xbe266422	-0.16249135
61	0x3f24e836	0.64416826
62	0x3c010b1d	0.007876185
63	0x3ca1cd88	0.019751325

output.weight f4 [4, 64]
0	0x3e9c46a5	0.30522648
1	0x3dfcaab6	0.12337248
2	0x3e8d36a3	0.27580747
3	0xbefaf312	-0.49013573
4	0x3d4c7690	0.049917758
5	0xbef7598d	-0.4831051
6	0x3e32a2e9	0.17444958
7	0xbe81418b	-0.25245318
8	0x3e69f777	0.22848307
9	0x3e8e4559	0.27787283
10	0xbe2b7f93	-0.16747884
11	0x3e8a162c	0.2697004
12	0xbf5917d4	-0.84801984
13	0x3e68c44a	0.22731128
14	0x3e160ab4	0.1465252
15	0xbe8d537a	-0.2760275
16	0x3e7becdc	0.24602073
17	0x3e05aeca	0.13054958
18	0xbdedd17c	-0.116122216
19	0x3e58ba9a	0.21164933
20	0x3dba18b0	0.0908674
21	0x3d25cd78	0.040479153
22	0xbe98967b	-0.29802307
23	0x3e3e094d	0.18558235
24	0x3d5cdb0c	0.053919837
25	0xbe2d6154	-0.16931659
26	0xbeb4db3c	-0.35323513
27	0x3d97e914	0.07417503
28	0xbdfd9784	-0.12382415
29	0x3ea01eae	0.31273407
30	0x3e756fa2	0.23968366
31	0xbf17ea26	-0.5934166
32	0x3e252eea	0.16131178
33	0xbd4fb247	-0.050707128
34	0xbee91c82	-0.45529562
35	0x3d8bdbd5	0.06829039
36	0xbe0cd6d9	-0.13753833
37	0x3e4d5136	0.20050511
38	0xbe54632d	-0.20740958
39	0xbf802741	-1.0011979
40	0xbde360ee	-0.11102472
41	0x3e360a7d	0.17777438
42	0x3e994e2d	0.29942456
43	0xbf2517f3	-0.6448967
44	0x3e58e476	0.21180901
45	0x3e85e692	0.26152474
46	0xbf15d167	-0.5852265
47	0x3e855489	0.26041058
48	0xbe3610aa	-0.17779794
49	0x3e7ac868	0.24490511
50	0x3dd0cb15	0.10194985
51	0x3d8322df	0.064031355
52	0x3e77d85d	0.2420363
53	0xbd8f238a	-0.069892004
54	0xbeb299e0	-0.34883022
55	0xbe5de491	-0.21669222
56	0x3dd39ddf	0.10332846
57	0xbd14c246	-0.036318086
58	0x3e3b0f81	0.18267633
59	0x3e4b218c	0.19837016
60	0x3d48dd9c	0.04903947
61	0x3e648529	0.22316422
62	0x3e740036	0.23828205
63	0x3e91b769	0.28460243
64	0x3ec2a0d4	0.38013327
65	0x3e890530	0.2676177
66	0x3da20bfa	0.079124406
67	0xbf007494	-0.50177884
68	0x3e1ead59	0.15495814
69	0x3e2059b2	0.15659216
70	0x3de8b3b8	0.11362404
71	0xbe18e29e	-0.14930198
72	0x3e556229	0.20838226
73	0x3e89cd9b	0.26914677
74	0x3e83761b	0.25676045
75	0x3e4e2a77	0.20133387
76	0x3e6ffe5e	0.23436877
77	0x3ef6da46	0.48213404
78	0x3da541e8	0.08069211
79	0xbe5bcd87	-0.21465121
80	0x3d084e7e	0.03327798
81	0x3e02f608	0.12789166
82	0xbdeb69de	-0.11494802
83	0x3ea31178	0.31849265
84	0x3ce09b17	0.027417703
85	0x3e2a5f69	0.16637959
86	0xbaaca450	-0.0013171528
87	0x3e901c80	0.28146744
88	0x3e609dbf	0.21935175
89	0x3d80ffb1	0.06298769
90	0xbe8215d5	-0.25407282
91	0x3e026529	0.12733902
92	0x3e3d8aa1	0.18509914
93	0x3e9627ce	0.29327244
94	0x3e6cc10c	0.23120517
95	0xbeffa594	-0.49931014
96	0x3ea60f55	0.32433572
97	0xbd97fd8a	-0.074214056
98	0xbe960085	-0.2929727
99	0xbd335bf1	-0.043788854
100	0x3e860422	0.26175028
101	0xbe7e2e73	-0.24822406
102	0xbe33ba7c	-0.17551607
103	0xbea6f816	-0.3261115
104	0xbdecca98	-0.11562079
105	0x3db2f67f	0.08738422
106	0x3eab4ae1	0.33455566
107	0x3e4393be	0.19099328
108	0x3eabe1f0	0.33570814
109	0x3e1f4945	0.15555294
110	0x3e01e173	0.12683658
111	0x3ea397ca	0.31951743
112	0xbee9b3a3	-0.45644864
113	0x3e7c078c	0.24612254
114	0x3e72ffcc	0.23730391
115	0x3deb493c	0.11488578
116	0x3e8a141f	0.26968476
117	0xbeb73486	-0.3578226
118	0xbea43e9c	-0.32079017
119	0xbea9d27b	-0.33168396
120	0x3e7708b5	0.24124415
121	0xbdd07ef1	-0.10180462
122	0x3e32e348	0.17469513
123	0x3e6d7548	0.2318927
124	0xbe6e0e8f	-0.23247741
125	0x3e650d12	0.22368267
126	0x3dd19604	0.10233691
127	0x3e79b14a	0.24384037
128	0x3dbca544	0.092112094
129	0x3e82a201	0.25514224
130	0x3e3f4787	0.1867963
131	0xbe6e1c43	-0.23252968
132	0x3dd1c209	0.102420874
133	0xbec5c6c8	-0.3862822
134	0x3e8fb5d5	0.28068414
135	0xbe06c820	-0.13162279
136	0x3e96089c	0.29303443
137	0x3e324f9a	0.17413178
138	0x3dcdd019	0.10049457
139	0x3e8a2242	0.26979262
140	0x3c8448a5	0.01614792
141	0xbe8d0d70	-0.27549314
142	0xbf5e0829	-0.867312
143	0xbec932ff	-0.3929672
144	0xbe9a2850	-0.3010888
145	0x3e308ac4	0.17240435
146	0x3d8196d3	0.063275956
147	0x3e944cb2	0.28964764
148	0x3e847c69	0.25876167
149	0x3e8932e6	0.26796645
150	0xbeeba07e	-0.46020883
151	0x3e6141fd	0.21997829
152	0x3e4750c9	0.19464411
153	0x3f439149	0.7639356
154	0xbe03575e	-0.12826297
155	0xbf05c694	-0.5225613
156	0x3e3b7e3f	0.18309878
157	0x3e1cc8a4	0.15310913
158	0x3e946818	0.28985667
159	0xbec960bd	-0.39331618
160	0x3e24224b	0.16028707
161	0x3dae2197	0.085025005
162	0x3ea36bd9	0.3191822
163	0xbd6dd52c	-0.058064625
164	0x3e1d565e	0.15364978
165	0x3e636cad	0.22209425
166	0xbecc1a56	-0.39863843
167	0x3d9d6a01	0.07686234
168	0xbda0adf0	-0.07845676
169	0x3e89da5f	0.26924416
170	0x3e81f8c8	0.25385118
171	0xbedf2235	-0.43580785
172	0x3e87cc05	0.26522842
173	0x3e991e18	0.29905772
174	0x3ee10274	0.43947184
175	0xbd94ad34	-0.072595984
176	0x3f383950	0.7196245
177	0x3e0341c3	0.12818055
178	0x3e8943c9	0.26809528
179	0xbf2b4dec	-0.66915774
180	0x3e22c13b	0.15894024
181	0xbe90aa39	-0.2825487
182	0xbdff6b0b	-0.12471589
183	0xbdbbcaed	-0.091695644
184	0xbf3debcd	-0.7418793
185	0x3e881af5	0.26583067
186	0x3ebf6647	0.3738272
187	0x3e6ba747	0.2301303
188	0x3ebb0103	0.3652421
189	0x3e0a0d61	0.13481666
190	0x3e22d5f8	0.15901935
191	0xbf2e0b5e	-0.67986095
192	0x3e9b1cdf	0.30295464
193	0x3e4f8768	0.20266497
194	0x3e9f48ea	0.31110317
195	0xbef41775	-0.47674146
196	0x3ea3b7a7	0.31976053
197	0xbf04e97a	-0.51918757
198	0x3e2ef5dc	0.17085975
199	0x3d574fe1	0.052566413
200	0x3de3dbd4	0.11125913
201	0x3e6e23f0	0.23255897
202	0x3f7e6c12	0.9938365
203	0x3ea3332d	0.31874982
204	0x3c1df812	0.009641664
205	0xbf1b11a5	-0.605738
206	0xbe118618	-0.14211309
207	0xbd50c93b	-0.05097316
208	0xbe8fc945	-0.28083244
209	0x3e8cc149	0.27491215
210	0x3e983350	0.29726648
211	0x3df09d14	0.1174871
212	0xbd081160	-0.033219695
213	0x3dddf3f8	0.10837549
214	0xbe6ed718	-0.23324239
215	0x3e93456b	0.287639
216	0x3da2b9fc	0.0794563
217	0xbf2c8122	-0.6738454
218	0xbeb04c2c	-0.34433115
219	0x3e7451c5	0.23859318
220	0x3e635689	0.2220098
221	0x3e4289e2	0.1899791
222	0x3e771f49	0.24133028
223	0x3edc5139	0.43030718
224	0xbd975979	-0.073901124
225	0x3d6a6155	0.05722173
226	0xbf49e6ad	-0.7886761
227	0xbddb1073	-0.10696497
228	0xbf0a780d	-0.5408943
229	0xbe14c740	-0.14529133
230	0xbeecf0d6	-0.46277493
231	0x3f0b51e5	0.54421836
232	0xbddd01fe	-0.107913956
233	0x3e11c713	0.14236097
234	0xbeb64288	-0.35597634
235	0xbf103852	-0.5633594
236	0x3e81fc29	0.25387695
237	0x3e85249a	0.26004487
238	0x3e5736b5	0.21016963
239	0x3ee4e4be	0.44705766
240	0x3d91902d	0.071075775
241	0x3e900c4d	0.28134385
242	0xbf3f5cc8	-0.7475095
243	0x3cce0446	0.025148522
244	0x3e844672	0.25834996
245	0xbeb3fb8d	-0.35152856
246	0xbe8e4bd3	-0.27792224
247	0xbedc19b8	-0.42988372
248	0xbf33c83e	-0.7022742
249	0x3ec7e03a	0.3903826
250	0x3e82187d	0.25409308
251	0x3e575c9b	0.2103142
252	0xbf1b7124	-0.60719514
253	0x3e987477	0.29776356
254	0xbe9ab945	-0.30219474
255	0x3eb0c623	0.34526166

output.bias f4 [4]
0	0x3f0278fd	0.50965863
1	0x3ecebb6e	0.40377373
2	0x3edd3f38	0.43212295
3	0x3ebb65f5	0.36601225

state_value.weight f4 [1, 64]
0	0x3d58ec94	0.052959993
1	0x3d6f0be4	0.05836095
2	0xbdb294c8	-0.08719784
3	0x3dcf6d3c	0.10128257
4	0x3c539230	0.012913272
5	0xbc0850d0	-0.008320048
6	0xbc1adec0	-0.009452522
7	0xbc1dd0f0	-0.009632334
8	0xbc67d9a0	-0.014151007
9	0xbd2b6444	-0.041843668
10	0x3c96a598	0.018389508
11	0xbd08a2c0	-0.033358335
12	0x3dcf45b0	0.10120714
13	0xbd2f3b84	-0.042781368
14	0xbdeaea00	-0.11470413
15	0x3dfdc820	0.123916864
16	0x3d97262c	0.073803276
17	0xbdb63faa	-0.08898862
18	0x3dca27bc	0.0987086
19	0xbddee75c	-0.10883972
20	0xbd7ec014	-0.0621949
21	0xbd84a51c	-0.064768046
22	0x3ca9fbf0	0.020750016
23	0x3d0afc78	0.03393218
24	0xbd50f61c	-0.05101596
25	0xbd2cc2fc	-0.04217814
26	0xbd894fb4	-0.06704655
27	0x3dc42e4c	0.09579143
28	0x3d79514c	0.060868546
29	0x3c3496a0	0.01102224
30	0x3bdea6a0	0.0067947656
31	0x3bfed360	0.0077766627
32	0xbceb7228	-0.028740957
33	0xbd67ebc8	-0.056621343
34	0x3de689a4	0.112567216
35	0xbd48044c	-0.048832223
36	0xbd9db5a4	-0.07700661
37	0xbc4c50c0	-0.012470424
38	0x3d1db5c4	0.038503423
39	0xbddac396	-0.10681836
40	0x3d0bf1f4	0.03416629
41	0xbbc329e0	-0.0059559196
42	0xbd6df8bc	-0.05809854
43	0x3c808088	0.015686288
44	0x3c4c3950	0.012464836
45	0xbdf6da76	-0.12053387
46	0x3d70c044	0.05877711
47	0x3d431e0c	0.047636077
48	0xbd9331ba	-0.07187219
49	0x3d21bedc	0.03948866
50	0xbd86f8e4	-0.06590441
51	0x3dbe62e6	0.09296207
52	0xbd649750	-0.055808365
53	0x3d374c90	0.04475075
54	0x3d255010	0.040359557
55	0xbbeb97c0	-0.007189721
56	0xbd8c8710	-0.06861699
57	0x3d7311ac	0.059343025
58	0x3d04a8ac	0.03238742
59	0xbd6dd80c	-0.058067366
60	0xbc8dfdd0	-0.017332941
61	0x3d53d888	0.051720172
62	0xbdd7f446	-0.10544638
63	0x3c95f0f8	0.01830338
