results/64_128_64_0_True_False/checkpoint.pth (torch_old, 78927 bytes, 9 tensors)

hidden_layers.0.weight f4 [64, 37]
00000000: 2888 0abd 8afc 153d cb80 a5bd ac04 51bd
00000010: b426 23be c41f f73d 8ddb dcbd c8da 8b3e
00000020: 9a89 b6bd bd3b aa3d 9a64 f0bd 938e 943c
00000030: 973e dbbd f1b9 cdbd 45a0 dbbd 612e cc3c
00000040: 62d0 0d3e 173a ce3d 0e13 cebd b304 1ebe
00000050: 2a2f 9e3c 10a2 593e 9601 773e 75f4 03be
00000060: 285a 4bbd c791 f3bc 326c a93d 954d 78be
00000070: cb7f 473e 51dd 64be 6b38 74bd c119 453e
00000080: cfc5 c8bd 567d 92be bb1f bebe 5862 92be
00000090: 1123 73bd 3bf4 da3c ea7f 893d 3c45 363e
000000a0: 98c8 383d aed0 db3b b3c2 24bd 4c37 dabd
000000b0: 1176 6ebd f754 b6bc a77a 10bc b2c7 7abd
000000c0: 1887 6d3d 37b7 943d ce8c 403e f7bc 853e
000000d0: 9d24 e13c 3a87 293d be2b c03d 5761 e03d
000000e0: 5b23 493d f616 a43c 6343 8ebd 6ad0 78bc
000000f0: bf42 04be 9e1d 30be 00b4 12be 5b4b 0d3e
00000100: 8604 073e 7717 a63d b010 0d3e 9f56 8f3e
00000110: dee4 c13d ba60 70be ba1a c7be 24ff 99bf
00000120: b57b c9bb 9e2e 823b 42db 963e 5ca7 5a3d
00000130: a53e 8b3d a600 0bbe d6e8 ca3d bb82 00bf
00000140: e22c 473e a0ed 743e 3e7d 1a3e 4559 cabe
00000150: cd96 20bd 1fce 893d 2d0d 773d 3573 80be
00000160: 11aa ba3c d977 98be 0a1c 0e3e d806 073e
00000170: 37bb 323e 2c99 95be 3dcb 943d 264a 1dbe
00000180: 7708 e43c 6251 3abd 08aa 73be 2fea 76be
00000190: cb5f 953e 56ba 363e 7638 bcbd 3dd4 46be
000001a0: 3c0e 05bf 6a51 a93e 1d8a cfbd c44a 9fbe
000001b0: 080a 7a3d bfaf 13bd 1941 6ebb 518b 753e
000001c0: b15a 1bbd ab51 dc3d b9c7 143e bb57 92be
000001d0: 3265 623d 35a6 b2bb 2d1a 2bbb 807b ab3e
000001e0: 478a cf3e e9ca fd3d ef3b edbd ac52 b83d
000001f0: 9756 0bbe 4b62 ef3c 0376 593c 6a06 133c
00000200: 32cd db3c cfc9 75be 578f 37be 0ce0 173e
00000210: 7ed8 ddbd 688b bfbc 9385 ea3d 65c9 a5bd
00000220: ffdf 113e 3e5e 3c3d 96ff dbbc 49f2 103e
00000230: 0a07 78be 4c3f a03e 2116 003e eb1f a2bd
00000240: 64b4 80be 817d cebe a179 ed3d a23e e5bb
00000250: 4980 17be 4019 66be b815 30be 9031 b5bd
00000260: da6b 023e 9679 91bd 6b3e d13d 1575 06be
00000270: d149 023e a33b 143e 69d1 afbd 068e ecbd
00000280: f981 bcbc 6ae5 6dbd 659d abbd 4c17 a6be
00000290: 4064 0dbd df6e 3d3d cb47 103d f434 d83d
000002a0: 670c 9cbe 0e18 093d db2b f23d 718f 14be
000002b0: bab5 393e 1e35 edbd dc9d 98be 2a80 123e
000002c0: aab8 8b3e fee8 063e 60d3 573e 6842 1dbe
000002d0: 9658 bcbc eb00 6ebe 2e90 833e ff41 bebc
000002e0: e714 593d 179b 0e3e 6889 36be ea99 f3bc
000002f0: cad8 85bc dbea 60bd ec98 ff3d 7155 a13e
00000300: 67c0 cebe 40a1 64be 00ea 11bf 17b7 69be
00000310: 66c1 89bd 2c3e 5f3e 8b71 61be 8080 453e
00000320: 4bb7 c53d 2bd5 d5bd 7ca9 0fbe 9597 f3bd
00000330: e400 4fbe 3b49 11bc 4fc8 9ebb b2c6 753e
00000340: 2726 543c aa0a 3b3e c45c 93bc f956 f93c
00000350: 80a9 fdbc 9737 04be 1e64 16bd 7bf5 d23c
00000360: 5e91 9bbe c4de 20bd 1fed a73d e58c fdbd
00000370: 9c18 d63d 526a aa3d ebbd 1b3e 4437 203e
00000380: 3e87 afbe ce01 5bbd 18d4 0cbf 07c7 c7bd
00000390: 455e b1bc b614 07bc ef05 4abd 7c67 953e
000003a0: 1b99 85be 7ced 953e c0d2 7d3e ae7a 9abe
000003b0: 4f7f a33d 5687 463b 0e69 67be 8de2 f93d
000003c0: 8d05 943d 3550 a5bd 3643 5e3d 3874 a43c
000003d0: 9fab 403d a8e9 79be 3d98 043e 3110 12be
000003e0: 0dc0 eb3c 4f01 e33b e9d2 91bd a5b8 8e3d
000003f0: b16f 2c3e 1665 aabd 2f5c 91be c5e2 35bb
-0.033821255 0.036617793 -0.08081206 -0.051029846 -0.15932733 0.12066606 -0.107840635 0.27315354
-0.08912964 0.083121754 -0.11737938 0.018134391 -0.107052974 -0.10045231 -0.10723928 0.024924459
0.13849023 0.100696735 -0.10062228 -0.1543148 0.019309599 0.21253228 0.24121699 -0.12886222
-0.049646527 -0.029732598 0.0827259 -0.24248345 0.19482343 -0.2235005 -0.059624117 0.19248106
-0.09803354 -0.2861125 -0.37133583 -0.28590655 -0.059359614 0.026727786 0.06713851 0.17799848
0.045113176 0.006708226 -0.040224742 -0.10655078 -0.058218066 -0.022257311 -0.008818305 -0.0612256
0.057990164 0.07261508 0.18803713 0.2612073 0.027483279 0.041388728 0.09383343 0.10956066
0.049105983 0.02003048 -0.06946447 -0.015186409 -0.12916087 -0.17198798 -0.14326477 0.13798277
0.1318532 0.08109944 0.13775897 0.27995774 0.09467481 -0.23474398 -0.38887578 -1.2030988
-0.00614878 0.0039728424 0.29464155 0.053382263 0.06799058 -0.13574466 0.09907691 -0.5019948
0.19450715 0.23918772 0.15086839 -0.39521232 -0.039206315 0.067287676 0.0603153 -0.25087896
0.022786172 -0.29778937 0.13877884 0.13186204 0.1745423 -0.29218423 0.07265327 -0.15360317
0.027836068 -0.04548777 -0.2379533 -0.24112771 0.29174647 0.17844519 -0.091904566 -0.194169
-0.51974845 0.33069927 -0.10133765 -0.3111173 0.061044723 -0.036056276 -0.003635472 0.23978926
-0.037928287 0.107577644 0.14529313 -0.28582558 0.05527229 -0.0054519423 -0.0026108131 0.3349266
0.40535185 0.12392218 -0.11583697 0.090001434 -0.1360725 0.029221674 0.013272765 0.008973697
0.026831243 -0.24002765 -0.17925774 0.14831561 -0.10832308 -0.023381904 0.114512585 -0.080950536
0.14245604 0.045988314 -0.026855271 0.14154924 -0.24221435 0.31298292 0.12508442 -0.07916244
-0.25137627 -0.40330127 0.115954645 -0.006995992 -0.1479503 -0.2247057 -0.17195785 -0.08847344
0.12736455 -0.07103269 0.102169834 -0.13130601 0.12723471 0.14475875 -0.08584864 -0.11550526
-0.023011195 -0.058080114 -0.0837963 -0.3243965 -0.034519434 0.046248313 0.035224717 0.10556975
-0.30478212 0.033470206 0.11824771 -0.14507844 0.1813573 -0.11582397 -0.29807937 0.14306703
0.27289325 0.13174817 0.21076727 -0.15357363 -0.02299146 -0.23242538 0.25695938 -0.023224829
0.05299845 0.1392635 -0.17825854 -0.029736478 -0.016338725 -0.054911476 0.124803394 0.315105
-0.40381166 -0.22327137 -0.5699768 -0.2282375 -0.06726341 0.2180106 -0.2201597 0.192873
0.09654101 -0.10441049 -0.14029497 -0.11894146 -0.20215183 -0.008867557 -0.004845656 0.24001577
0.012948549 0.18265787 -0.01798857 0.03043698 -0.030964613 -0.12911831 -0.036716573 0.02575182
-0.30384344 -0.039274946 0.08199524 -0.12380389 0.104539126 0.0832106 0.15209167 0.15646082
-0.3428287 -0.053468518 -0.5501113 -0.09754758 -0.021651397 -0.008244684 -0.049322065 0.29180515
-0.26093373 0.2928275 0.24787426 -0.30171722 0.079832666 0.003029307 -0.22598669 0.12201414
0.07227621 -0.08071939 0.054263316 0.020074949 0.04703867 -0.24405539 0.129487 -0.14263989
0.0287781 0.006927646 -0.07120306 0.06968812 0.16839482 -0.08320062 -0.28390643 -0.0027753573

hidden_layers.0.bias f4 [64]
00000000: 421e 023e 6d02 1c3d 4a76 75bd 9ba4 e8bb
00000010: 10a5 723d ad5e 68bd eff1 4fbd 8028 4d3d
00000020: 45e8 273d 5479 3cbe c942 a93d 7f11 6f3e
00000030: 1c59 323e 8f70 9a3d e1da a0ba 77a4 f8bc
00000040: 18f0 e63c 0117 0dbd d916 b93c 1b5b 40be
00000050: 52f7 00be 9c23 423d d629 d2bc f1b2 39be
00000060: 949a 11be 1aae 2e3e caab 063d 3e87 fabd
00000070: f495 5c3e 76df ef3d 9b26 91bd 3495 d6bd
00000080: a5db 3e3e da26 0fbc 9d83 c2bd c050 0d3d
00000090: a490 72bd 910b d63b abd6 b5bd 033f 2fbe
000000a0: 8e7e fcbd e522 fc3b 2729 95bd c97a 353e
000000b0: 5e13 52bc 35c0 edbd 8cc7 273c 7198 0dbe
000000c0: 8544 febd 7509 9d3c 2817 f6bd 22ae 1d3e
000000d0: b017 063d 648c c4bd badb 32be f7fe ec3a
000000e0: ffc7 e73d e44f f6ba 8801 b4bd 29f2 91bd
000000f0: 56f2 073d e6dc a93d 3720 053d 1f4f 683d
0.12706855 0.03808825 -0.059927262 -0.0070997006 0.059239447 -0.056730915 -0.050767835 0.050087452
0.040992994 -0.18405658 0.082646914 0.23346518 0.17416805 0.07541 -0.0012272262 -0.03035186
0.028190657 -0.034445766 0.022593902 -0.18784754 -0.12594345 0.04739724 -0.025654715 -0.18134667
-0.14219123 0.17058602 0.032878675 -0.12232827 0.21541578 0.11712544 -0.070874415 -0.10477677
0.18638475 -0.00873729 -0.094977595 0.034500837 -0.05921997 0.0065321405 -0.08878835 -0.17113881
-0.12328826 0.0076945894 -0.0728324 0.1772262 -0.012822 -0.11608926 0.010240447 -0.13827683
-0.12415413 0.019169549 -0.120161355 0.15398458 0.032737434 -0.0959709 -0.17466632 0.0018081357
0.11317443 -0.001879212 -0.087893546 -0.071262665 0.033190094 0.08294086 0.032501426 0.05671608

hidden_layers.1.weight f4 [128, 64]
00000000: cd11 53bd 50b5 0c3e 00a6 3d3e 2277 0f3e
00000010: ac34 ad3d 165e 8bbd 2d88 9bbe bde8 20be
00000020: 0d67 a73d 5aef a63d 0819 703b cf85 c2bd
00000030: dafc 5dbe f156 883e 2921 363c a2a0 12bf
00000040: 0569 b8bd ff8d 12be 888b 2b3e b764 323e
00000050: 0f53 9a3c 21fa 1bbd 8829 c03b 67e3 52be
00000060: cb38 1abd a47b c7be 72e9 633e c7fd 8bbe
00000070: ed42 1a3c a100 52bd e773 443e 3e8f bc3d
00000080: 5915 803e 50b9 32bc 3268 c2be b3a5 80be
00000090: 2710 fabd c8c4 1fbe d6b9 a7bd 505b 083e
000000a0: 236b b2be 655b b73d c68b 98be ec43 00be
000000b0: 9090 13be d24c aabe e519 48be 8dd1 d23d
000000c0: 7470 07be 8a08 eebd 5095 b8bd d50f 093d
000000d0: d783 cdbd aa26 8cbe 692a b9bd 3912 ddbd
000000e0: 4098 fabc 8e43 42be 6b70 76bd 20a8 69bd
000000f0: 854a d73d ef5f 653e 60e0 05be c5b4 3f3e
00000100: 2e7f a03d 28bf 7d3e b06c 703d 260a 193e
00000110: 6a83 ab3d b38c ae3d 7f19 11bd 479c 7f3d
00000120: 038a d1bc 66e8 20bd 1560 863d a6c9 8b3d
00000130: ca92 fdbd 7d7e 383b 16d4 5bbe 3068 ae3d
00000140: 4c0a b13d 372b 4c3d c66e 16be 2829 62bc
00000150: 5728 f13c af41 1ebe 7baa cd3d 185b b33d
00000160: d868 1ebd 39ad 2dbd f627 1abd d8ae 80be
00000170: 46d6 3e3b 5dc2 6fbe dc3c ec3d 802d 58bd
00000180: bd36 1a3c 25fe c83d ae62 1e3e 754b e1bb
00000190: 7e69 c23d a7c2 313e 9149 d33d b822 123c
000001a0: c881 a1bd 4f9d 8f3d 8dd8 e0bc 28bd 9cba
000001b0: 8d7d 803d ee88 dfbd 0975 4dbd 7f1f 03be
000001c0: 046a 10bc 5dc8 2dbe b390 b33b 1e15 4f3d
000001d0: 5263 92bc 63f8 ac3d 71a9 fc3d 1187 d83d
000001e0: 0ed5 dabd 65ca a83c 8b7b b83d 58bd 653e
000001f0: ff5d abbd 7467 05be bfe6 0cbd 9f3c e3bd
00000200: b20a dbbd 5889 f6bd f736 103e ecce 77be
00000210: 811c f2bd 6bba fcbb d421 d9bd 701f e1b9
00000220: dabf 6ebd 6c10 5bbe ceb9 0f3e dc97 533d
00000230: 300c af3d aa55 44bc 2a15 07bb eb8a cf3c
00000240: 8da8 25be 1c3d 48be 71d1 9ebd e7e7 d53b
00000250: 8c72 1abe 537f 6e3e d09d b93d 51ef 053e
00000260: 1c8e 94be 819d 2a3e e313 c73d 0ffa c73d
00000270: 557b 133c 13c4 85be c2dc 343d c49b e2bc
00000280: 2e7a 35be bac8 02be 680d 70bb 94a4 eb3d
00000290: 5050 673e deed 023e eb97 c3bd fa2f babe
000002a0: f57f 513e 7b8a febd d3dc 16be 249c b0bc
000002b0: 657d 993d 4db4 87bd 6e71 edbc a382 aabe
000002c0: 57bd bdbd 29e0 a5be 3592 cfbe 17d3 2abe
000002d0: b341 80be 08da dfbd 4ffc b9bd 340d 36be
000002e0: 3a2e b0bc 1080 60be a340 4bbd 4d69 453e
000002f0: deb8 26bc 2b8f cf3d 2a38 5a3e aae9 abbc
00000300: 5fbb 47be 89a1 95be a5b0 49be 3d70 88be
00000310: 1c51 2ebe 1eb6 363e cc71 d63d a450 843c
00000320: a28b fbbe f848 013e aeae abbd f514 debc
00000330: 0938 5d3d c2e1 eabd 352a c9bd c215 cdbe
00000340: 44ba f4bd f414 83bc 71be 00bf bfaf bdbd
00000350: 6d11 c43d a295 2c3e 3f10 083e cffd 50bd
00000360: e7a2 f53d 2480 c3be a347 973d ee84 84bc
00000370: 496d 70bd 14a5 dcbe 86fc 0ebe 599f ddbe
00000380: ed6e 223b 7d5d 04bf e342 003e 806a 1ebe
00000390: 7f68 01bf 1fdb b03d c98b 813d 9454 4b3d
000003a0: 46e3 a8be 1e5a f53d 41a8 05be ee5a a73b
000003b0: 8378 10bd 37d1 cfbe 80a1 8e3d 04f1 a1be
000003c0: 629b a23d 8340 ef3d e316 cabe d302 92be
000003d0: 799f c63d 2c8b 25be 6ce7 9ebe dab4 333e
000003e0: e745 7dbe 2447 7ebe e890 8abe 8377 a13d
000003f0: 0e4e 91be 76c1 0a3e 60ab 66be 4ff8 0dbc
-0.051530648 0.1374104 0.18520355 0.1401029 0.08457312 -0.06805055 -0.3037733 -0.15713783
0.08173952 0.081511214 0.0036636014 -0.09498178 -0.21678486 0.2662883 0.011116304 -0.57276356
-0.09004406 -0.1431198 0.16752446 0.17421232 0.018838434 -0.03808034 0.005864326 -0.2059456
-0.03765182 -0.38961518 0.22257021 -0.27342054 0.00941537 -0.05127013 0.19184838 0.09207009
0.25016287 -0.01090844 -0.3797012 -0.25126418 -0.12210112 -0.1560241 -0.08189742 0.13316083
-0.34847364 0.08952979 -0.2979414 -0.1252591 -0.14410615 -0.33261734 -0.19541128 0.10293875
-0.13226491 -0.116227224 -0.09012854 0.033462364 -0.10034912 -0.27373248 -0.09041292 -0.10794491
-0.030590177 -0.18971083 -0.060165804 -0.057045102 0.1051226 0.22399877 -0.13073874 0.18721302
0.078367576 0.24779952 0.058697402 0.14945278 0.083746746 0.0852293 -0.035424706 0.062404897
-0.025578504 -0.039284132 0.06561295 0.06825571 -0.123815134 0.0028151565 -0.21467623 0.08515966
0.08644542 0.0498459 -0.14690694 -0.013803758 0.02943818 -0.15454744 0.10042282 0.08757609
-0.038674206 -0.042401526 -0.037635766 -0.25133395 0.0029119416 -0.23413987 0.115350455 -0.052777767
0.009412465 0.09814099 0.15467331 -0.0068754503 0.09492777 0.1735941 0.10316766 0.00891941
-0.07886082 0.07012426 -0.02744701 -0.0011958228 0.06273947 -0.10914789 -0.05016044 -0.12804984
-0.008814339 -0.16970964 0.005479896 0.05055725 -0.017869625 0.084458135 0.12337006 0.10572637
-0.10685168 0.020604322 0.09007939 0.2243551 -0.08367538 -0.13027745 -0.034399744 -0.11095547
-0.10695399 -0.12037915 0.14083467 -0.24200028 -0.11821843 -0.0077126524 -0.10602155 -0.00042938767
-0.058288433 -0.21392983 0.14035723 0.051658496 0.085472465 -0.0119833145 -0.002061198 0.025334796
-0.16177578 -0.19554561 -0.077547915 0.006527889 -0.15082759 0.23290758 0.090633035 0.13079573
-0.2901467 0.16661645 0.0972059 0.09764492 0.009001573 -0.26126155 0.044155844 -0.027662165
-0.17722389 -0.12771884 -0.0036629084 0.11506 0.2258923 0.12786052 -0.095504604 -0.36364728
0.20458968 -0.12428757 -0.14732675 -0.021558829 0.0749462 -0.066261865 -0.028984752 -0.33302793
-0.09264629 -0.32397583 -0.40541235 -0.16682087 -0.25050125 -0.10930258 -0.09081327 -0.17778474
-0.021506418 -0.21923852 -0.04962219 0.1927845 -0.010175912 0.10134729 0.21310487 -0.020985443
-0.1950507 -0.29224804 -0.19696291 -0.2664813 -0.17023128 0.1784291 0.10470924 0.016151734
-0.4912997 0.12625492 -0.08382927 -0.027109602 0.054008517 -0.11468841 -0.098225035 -0.40055662
-0.1194959 -0.016001202 -0.5029059 -0.092620365 0.09573636 0.16853955 0.13287447 -0.0510233
0.11993962 -0.381837 0.073867105 -0.016176667 -0.058697972 -0.43094695 -0.13963518 -0.43285635
0.0024785355 -0.5170515 0.12525515 -0.15470314 -0.50550073 0.08635544 0.0632549 0.049641207
-0.32985896 0.11980079 -0.13052465 0.005107275 -0.03527118 -0.40589306 0.069643974 -0.31629193
0.07939793 0.116822265 -0.39470586 -0.2851778 0.09698386 -0.16166371 -0.31035936 0.17549458
-0.24733697 -0.24831825 -0.2706368 0.07884123 -0.28379864 0.13550362 -0.22526312 -0.008665158

hidden_layers.1.bias f4 [128]
00000000: 4384 8f3d 5c7e d43b 7991 bb3c ccb5 17be
00000010: b666 253d 2e4d a33d 569d c53d 9a59 cbbc
00000020: 0049 8f3b 88f7 e13d b619 1b3d c5f9 8dbd
00000030: e53e c4bc 8dd5 11be 4bc9 0c3c 5178 1bbe
00000040: 0453 083d bb36 343c ebd8 053e 6c39 88bd
00000050: 7036 d33c 5510 05bc 36e1 a4bd d10d e0bd
00000060: 3027 87bd 178d 1b3c 2b0f 90bc 040c 783d
00000070: dbe5 8a3d 0c40 123e 13b7 0c3a 151c ca3c
00000080: ff9b cdbd 0342 b03d 6769 4a3d 35e8 8c3d
00000090: 74e3 c7bd 3be1 ff3c 2dc7 c8bd abcd d7bd
000000a0: 3177 433e db21 743d e73b 293d d937 b53d
000000b0: 2876 e1bc bf34 d93c a7a2 3fbd f5c8 22bd
000000c0: adbe 223d 1200 95bd 4b42 063e 4d76 03be
000000d0: 0a38 ba3d afed e9bc 68bd 983d 9b98 0e3e
000000e0: 9b8b fabd 5690 aebd aff2 463d 7bd8 50bb
000000f0: 03a8 f5bc c822 a13d ee74 673c 8f2f f53d
00000100: 3adb c0bd ce84 da3c 304e 213d 1101 3abe
00000110: 47a4 303c 4686 683d 7bd7 1fbd 6d25 493d
00000120: 279f e3bd b270 623d 35fb cabc 01d5 cdbd
00000130: 636f e53d 09f4 16bd 7129 79bc 35fe 52bd
00000140: 081c dcbd e089 213e 021e 8bbd 6ceb 7a3d
00000150: 3edf 933d 56c4 0f3e f3df ac3d 6081 6d3d
00000160: e4c7 56bd fac0 efbc eb62 8ebd e89a 273d
00000170: be14 a43c 2378 99bd 5ad0 83bd 75c7 25be
00000180: e66c 01be 9dfe 323d bb31 c63d 774b cabd
00000190: 03af 31be 9ccf ca3d 6c76 833d 8588 8ebd
000001a0: 7375 6cbd 2e3c b13c 4036 e1bb 5ad1 adbc
000001b0: 9df2 2dbd cb48 97bd ed5c 9ebd b6e0 86bd
000001c0: 8584 92bd 5458 163e 8d57 c43b d42f 9b3d
000001d0: 159d df3b 9b05 8bbc 3a09 c63d 1b98 e33d
000001e0: 21d3 e03c d811 bcbc 1c43 2e3e 452e 34bd
000001f0: 26e6 60bd fc3d ac3b cfe7 993c 6c4d 21bd
0.07007649 0.00648479 0.022896515 -0.14815444 0.040381156 0.07973705 0.0964915 -0.024822999
0.004372716 0.11033541 0.037866317 -0.069324054 -0.023955772 -0.1424162 0.008592914 -0.15182616
0.033282295 0.010999377 0.13071029 -0.06651577 0.025782794 -0.00812157 -0.08050768 -0.10940135
-0.06599271 0.009494088 -0.017585358 0.060558334 0.06782123 0.14282244 0.00053678564 0.024671594
-0.100395195 0.08606341 0.049416926 0.068802275 -0.0976018 0.031235328 -0.09803615 -0.10537275
0.19088437 0.0596026 0.041316893 0.08848543 -0.027522162 0.02651441 -0.046785977 -0.03974243
0.039732624 -0.07275404 0.13111226 -0.12838097 0.0909272 -0.02855572 0.074580014 0.13925402
-0.12233659 -0.08523624 0.048571285 -0.0031867314 -0.02998734 0.07867962 0.014126999 0.11971962
-0.09416814 0.026674654 0.039381206 -0.1816447 0.010781354 0.056768678 -0.039023858 0.049107958
-0.1111434 0.055283256 -0.024777988 -0.10050393 0.11202886 -0.036853824 -0.015207634 -0.051511962
-0.10747534 0.15775251 -0.06792833 0.061259672 0.072203144 0.1403974 0.084411524 0.05798471
-0.052436724 -0.029266823 -0.06952461 0.040919214 0.020029422 -0.074936174 -0.06436224 -0.16189368
-0.12639198 0.04369985 0.09677454 -0.09877675 -0.17351918 0.099028796 0.064190716 -0.06959633
-0.057729196 0.021635141 -0.006872922 -0.02121799 -0.042467702 -0.07386931 -0.07732568 -0.06585829
-0.07154182 0.14682132 0.005991882 0.07577482 0.0068241456 -0.016970446 0.096697286 0.11112996
0.027444424 -0.022957727 0.17017788 -0.04398944 -0.054906987 0.0052564126 0.018787293 -0.039380476

hidden_layers.2.weight f4 [64, 128]
00000000: 3872 60bd e002 d3bc a6f7 183d 34e5 6dbb
00000010: 9ec5 c0bd 02d2 3abe 106d afba 241f a7be
00000020: 4ce7 9a3d f0b5 af3d 8064 003e ba44 d7bd
00000030: 93aa debd 1874 26bc 2fb6 8bbd 2acb d1bd
00000040: 3e98 80bd 4328 b3be d80a 273e 6919 613c
00000050: 05e2 543c 7dff 93bd e551 ce3d b4e6 83bc
00000060: b4ee 63be 29ba 9cbd 7d16 593d 0a3d 35bd
00000070: 987d adbd 2dba da3d b4b9 adbd 3609 85bd
00000080: b86a 9fbd f8b7 4bbd 0105 d5bb 88c8 9f3d
00000090: 9e18 1abe 447c 20be 1087 013e 78aa 633c
000000a0: f9b2 2cbe a960 b1bd 113b 8cbe 77b5 1cbe
000000b0: 0a92 683d 21d7 39bd 4ffb 2fbe 2edd 103e
000000c0: 76c9 84bd 8bb7 df3c 93a4 34bd b835 15bd
000000d0: a685 e4bd e89b 2dbe d996 863d f5c8 e0bd
000000e0: 97ef fdbd 5630 51bd 9ec5 0bbd 4383 7bbd
000000f0: 11fa 53bd a2ad 5cbb 591a a1bc ae3c 33be
00000100: 2fa3 bb3d ffba 04be f2e5 9f3d bcc2 303d
00000110: d38a 6cbc ff58 12be 67fb 2a3b 3ead 223e
00000120: e747 86bd a007 e1bc 746b d73d c4c4 2e3e
00000130: 657a 07bc 8e7b 29bd 1ef1 49be 2d4a 323d
00000140: e554 233d 81c7 0c3e 67b4 9e3c 436c c4bd
00000150: 8962 e2bd 5069 abbe 1bb4 2dbe 61d0 d53d
00000160: 3500 8ebe 3242 09be 7c6c 5dbe 4f80 da3d
00000170: b71d 34bd 0c27 543d 4cfd 00bd 8164 463e
00000180: 675f d43d 579c 35bd 46f1 3f3e 01bc 6d3e
00000190: 560e e13d 5956 0c3e b94a 6ebc 30a8 2ebc
000001a0: 6d87 d3bc 8e0b a0bd 6efe 8abe 88f6 b5bd
000001b0: dde2 e8bb 9e66 3bbd 28e8 f33d 6cf7 61be
000001c0: 7708 dc3d 15a7 b7be 8d20 aabb 8d83 7d3b
000001d0: 643c 6f3b cb42 8bbc f12a 09be bfd2 acbd
000001e0: 84ee 113d 3f33 15be e6c3 c83d 0594 013e
000001f0: e66f 8ebe 30f0 393e a181 253d 4a74 abbb
00000200: a149 d43d c508 203d 134c 39be 14a8 973d
00000210: 1069 d7bb 4be1 063e 960a 5cbe 7dfe 20be
00000220: ec8c 8abe 66d9 253e 5f42 683b 16d0 043e
00000230: cd23 723e 5099 2c3e a000 a13c 451f ef3d
00000240: 8a39 8dbe 1920 dd3d 7ecb eb3d 91a0 723d
00000250: 9bfb 0b3d 4d94 9ebd 95d4 c6bb 73b4 dcbd
00000260: 74cc 323d 9118 213e 6140 4dbd 89be 0b3e
00000270: ed18 bd3d 2df1 92bb 5598 433e c0d3 883d
00000280: 77b9 843b ecc4 d73c a5ab 6c3c df65 243d
00000290: 64ae 143e d73f 88bd 6d8d 8d3c bbb9 ed3c
000002a0: 5b74 243d af8b 9abd 8f58 9f3d 9d33 e33d
000002b0: 4e4a 293b 747a 623d 972d d3bd d004 c0bd
000002c0: 51f1 d33d 8c84 8e3d f188 7bbd 4b72 c03d
000002d0: 2c14 06bd 191a 263c 66e2 cf3d a305 ce3d
000002e0: b392 5d3d 7075 91bc 51e6 25bd d8c0 df3d
000002f0: dfb4 393e 0137 513d c604 50bc 9acc 853e
00000300: 59e8 ce3c 109b 543d 5dc8 6a3d 929d 4d3d
00000310: 3811 823d 5b5c ffbd 549d c1bc 2a38 a33d
00000320: 7f0b 5bbd fd37 3e3d 1671 403e d482 243e
00000330: dcc8 2bbd 3215 ff3d 6875 353e 01e4 8c3d
00000340: 4b76 e5bd c334 063e 930f 78be 6633 d73c
00000350: ccec 3d3d cb02 263d 1aac 02bd 928d 6bbb
00000360: 2ba7 333e 21e4 e13d f423 4dbe 2b5d 59bd
00000370: 1aaf 90bd 57c6 09be c6cc 9c3c eeae 08be
00000380: b949 fd3c 56ea 9a3d 0c46 6c3e 96cb 563d
00000390: ac2b 87bd 95e4 abbd 29c5 cc3b c6f8 a03e
000003a0: 8fa3 423e 933a 0cbd 6813 b33c 792f 7f3e
000003b0: 01dc b2bd f07b fc3d 19cf 8f3e d5e4 1c3d
000003c0: 29bb 363e 1f4b ae3d 9c15 6d3b 1fe9 5e3d
000003d0: 1e8c 283d 2db7 dabc cd68 453d c8f2 74be
000003e0: b020 b13c dfaa a0bc 9777 da3d d3dc 043e
000003f0: d2f0 1f3d 1f4c 2ebe 634f ac3d beda e93d
-0.054796427 -0.025758207 0.03734555 -0.0036299946 -0.094126925 -0.18244174 -0.0013383944 -0.32640946
0.07563648 0.08579624 0.12538338 -0.105111554 -0.10872378 -0.010159515 -0.06821858 -0.102438286
-0.06279038 -0.34991655 0.1631273 0.013738968 0.01299334 -0.07226465 0.10074214 -0.016101219
-0.22259027 -0.07652695 0.052999962 -0.044247665 -0.08471221 0.106800415 -0.08482686 -0.064958975
-0.07784027 -0.049735993 -0.0065008407 0.0780192 -0.15048453 -0.15672404 0.12649179 0.013895623
-0.16865148 -0.086610146 -0.27388814 -0.15303598 0.0567799 -0.04537118 -0.1718571 0.14146873
-0.06483738 0.0273092 -0.044102263 -0.036428183 -0.11158304 -0.16954005 0.06571741 -0.109758295
-0.12399214 -0.051071487 -0.03412401 -0.061404478 -0.051752154 -0.003367283 -0.019665884 -0.17503616
0.09161984 -0.12961958 0.078075305 0.043154463 -0.014437395 -0.14291762 0.002608979 0.15886399
-0.06556683 -0.027469456 0.10518542 0.17067248 -0.008268927 -0.041377597 -0.19720885 0.04352777
0.039875884 0.1374798 0.019373132 -0.09590962 -0.1105395 -0.33478785 -0.16963236 0.10440136
-0.27734533 -0.13404158 -0.21623415 0.10669004 -0.04397365 0.05179505 -0.031491563 0.19374277
0.10369759 -0.04433855 0.18744382 0.23216249 0.109890625 0.13704814 -0.014544182 -0.010660216
-0.025821412 -0.07814704 -0.2714724 -0.08884913 -0.0071071223 -0.04575216 0.11909515 -0.2206704
0.10743802 -0.3586966 -0.0051918686 0.0038683147 0.0036504501 -0.016999623 -0.13395287 -0.08438634
0.035627857 -0.1457033 0.0980299 0.12654121 -0.27819747 0.1815803 0.040406827 -0.0052323686
0.10365606 0.039070863 -0.18095426 0.07405105 -0.0065738037 0.1317188 -0.21488413 -0.1572208
-0.2706064 0.16196212 0.003543995 0.12970003 0.2364647 0.16855359 0.019653618 0.11675886
-0.2758296 0.10797138 0.115134224 0.05923516 0.034175497 -0.0774313 -0.006067822 -0.107766055
0.043652013 0.15732028 -0.050110225 0.13646902 0.0923327 -0.004484317 0.19101079 0.06681013
0.0040504294 0.026339017 0.01444522 0.040136214 0.1451965 -0.066528015 0.017279351 0.029019227
0.040150028 -0.07546174 0.07780563 0.11093829 0.0025831643 0.05529256 -0.1031143 -0.09375918
0.10348762 0.06958875 -0.061409894 0.093968 -0.03273408 0.010138058 0.10150604 0.10059669
0.05409498 -0.017756194 -0.04050285 0.10925454 0.18135403 0.051077846 -0.012696451 0.2613266
0.025257276 0.05190569 0.057319988 0.0501991 0.063509405 -0.12468787 -0.02363459 0.07969697
-0.05347776 0.046440113 0.18793139 0.16065532 -0.0419396 0.124552146 0.17720568 0.06879426
-0.11204203 0.13106064 -0.24224691 0.026269626 0.046368405 0.040530007 -0.03190241 -0.0035942537
0.17544238 0.1102984 -0.20033246 -0.053067368 -0.07064648 -0.13454567 0.019140612 -0.1334798
0.030918943 0.07564227 0.23073596 0.05244025 -0.066001266 -0.08393208 0.0062490893 0.314398
0.19007705 -0.03423555 0.02185984 0.24920453 -0.08733369 0.12328327 0.2808769 0.03830417
0.17844833 0.08510422 0.003617621 0.05442154 0.04114925 -0.026698673 0.04819565 -0.23920739
0.021622032 -0.019612728 0.10667341 0.12974863 0.039048024 -0.17021225 0.08413579 0.11418675

hidden_layers.2.bias f4 [64]
00000000: 60b5 3c3b 76c3 573e 0d9c 373d 2206 493e
00000010: 820a a1bb 633c b1bd 52de 3a3c 1752 4abd
00000020: feee 0d3d 5162 c03d 10b7 f039 a629 ac3d
00000030: a6b8 5f3d 08c9 0dbe 13b7 a6bd 66f9 80bd
00000040: c6ad ec3c 472c 6c3b 6232 833c c8e1 b23d
00000050: 335d cc3c 6f3a df3b 4409 63bc 5ebb a93d
00000060: 2f00 b3bc 2e1d c6bd 8918 b7bd 2236 853e
00000070: 2281 853e 529d 563e b107 cb3d 6b28 c2bc
00000080: ef60 413c b0b0 ffbd eea5 9dbd 85d4 b8bd
00000090: 5791 b3bd 3b99 c7bd a0a4 463d cf57 eebc
000000a0: 8d9c febd 2f8a 113e 696d 333c 036a ec3d
000000b0: f9b8 e13d 358e 59bc 0795 33bc e50e ed3d
000000c0: e612 27be 0a48 a93d 711a 4cbd 5d8e a7bd
000000d0: 5afc 61bc f8db afbd 7585 91bd 8916 cabd
000000e0: f7b2 183a 4c16 3fbd 32c3 96bd 7de2 99bc
000000f0: efa8 aabd b8c6 433e 1fef 0cbe 24b3 c7bc
0.0028794631 0.21070656 0.044826556 0.19631246 -0.0049145827 -0.08654096 0.011405544 -0.049394693
0.03465175 0.09393752 0.0004591276 0.08406381 0.054619454 -0.13846219 -0.081403874 -0.06297569
0.028891455 0.0036037134 0.016015235 0.087344706 0.024946785 0.0068123857 -0.01385719 0.082876906
-0.021850673 -0.09673534 -0.089402266 0.26017863 0.26075083 0.2095845 0.099135764 -0.023700913
0.011802896 -0.12484872 -0.07697664 -0.0902491 -0.08767956 -0.09746023 0.048496842 -0.029094605
-0.124322034 0.14212869 0.010951378 0.11543658 0.11021609 -0.013278534 -0.010960824 0.115751065
-0.16315803 0.082656935 -0.049829904 -0.081814505 -0.013793075 -0.085868776 -0.07105533 -0.098675795
0.00058250077 -0.046652123 -0.07361449 -0.018784756 -0.08333003 0.19118774 -0.13763092 -0.024377413

output.weight f4 [4, 64]
00000000: d522 cf3d 51e4 d1bd caa9 3a3e b654 a43c
00000010: 6d80 3a3e 6ca2 a5bd d6b1 fd3d 9389 8bbe
00000020: 5c3a 753e af96 ca3d f61f 263e ba60 063d
00000030: 5012 26be d1ae 353e d9aa 0e3d 6efb 453d
00000040: bd45 5ebd 149f 803e 00dc a6be adf6 8cbd
00000050: 97f3 a1be 5d8c 7fbe 296c 76bd a512 de3c
00000060: 19de 1d3e 8dea 5cbe b8fa 493e ec12 1dbc
00000070: 4292 84bd 068d c93d 4940 873d 4600 86be
00000080: 7392 6b3d cf3a 4bbd bc61 73bd 662b 64be
00000090: ad19 cc3b 9a9f 833c eb68 10bd 1f5f 173e
000000a0: 6e34 02be 15db f43d 4c15 fa3d 6aeb 66be
000000b0: c6ad 2d3e b6d1 b13e 46a7 1ebd 2f97 a53d
000000c0: 563c 2cbe 4393 a33d 074a 0fbe fbf7 023e
000000d0: f166 9bbd 3858 bb3d 0b80 b3bd 23f7 eabd
000000e0: dfaf d43e e7dc dcbd 0e88 453e b06b 88be
000000f0: ff71 cd3d 2a5e 603d 550a bcbd 41b8 bdbd
00000100: aafe 113e 6cff 7c3d d9d1 20bd 833d febd
00000110: 8c95 94be f72e bf3d 3be7 89bd 13bd 94bd
00000120: 0d65 3b3c 07a1 2f3e 6b2b 443e e5e4 40bd
00000130: 34d9 863d 9036 413e 3df5 a3be 8787 9d3e
00000140: 041c 20be 5ddc a8be 50e1 de3e 3eb8 ba3d
00000150: f09a 23bd 788a 393e d952 6f3e cbd9 a8bc
00000160: eed4 38be 5a4a 90be 61b4 c8be e22c 2dbe
00000170: 7468 773b 42da 013d 7954 473d 0496 9abe
00000180: e49e d7bc 8fb8 aebe e796 8abd 2a0f 4cbe
00000190: d9b9 67be 8982 69bd 71af c23d 7ee0 2ebe
000001a0: 0cff 37be 859f 8e3d b026 483e cf9a 0c3c
000001b0: d6c3 e43b 5071 c8be 15e6 01be 0a37 f93c
000001c0: 95ff 94be 3fda db3d fca5 043e 671b 293d
000001d0: 85e6 4abd fe36 67bd 929a 023e ee7c 7e3d
000001e0: f5de 29bd 40c2 523e aa69 803d 6f09 8fbe
000001f0: d8d7 3bbd 576a d13d ebfc 65bd f4cf 453e
00000200: 7148 463e e66d e73b b207 83be 7ec1 173d
00000210: 5ade 44bd 4190 f9bd 887b cd3d 1e56 0bbe
00000220: 81bc c53e 636b 39be 8136 1dbd cb5b 8a3e
00000230: ef7d 55bd f9c4 86be 2602 06be 7ed9 23bf
00000240: f293 ce3e b305 663e 1328 8e3e 201b 493e
00000250: 2c52 d03d d31a 623e a320 24be 4ffd 503e
00000260: 5881 283b c7bc 003e 7d30 d53e 14d9 24be
00000270: 8bf2 2ebd abe8 3bbe c81e d53e 2fa0 ab3e
00000280: 6d30 313e 8d5e 9a3e 885f 493e 38f1 13be
00000290: 8d2c 493e 3819 b43d 8046 d73d 88ea 353e
000002a0: 8990 c6bd 84b3 e03d 5796 7e3e ad8a 55bd
000002b0: b7e7 5f3c a132 af3e 4928 073e e564 33be
000002c0: 934b 7f3d 1bcb b0be 4564 d33c 10fe d43d
000002d0: 388c 38be b4b7 c3bd 318b 9e3e 4355 7f3e
000002e0: cbb5 c5be 4a1c 1bbe 2f19 a93e ca36 9dbd
000002f0: 0aa0 cd3d 20ba 01be 2707 0ebe 6895 07bf
00000300: c852 0cbe f9d1 9ebc 89e4 af3e 186d 04be
00000310: ddc2 0a3f 2e36 8e3d eab8 cf3d a31c 09be
00000320: 9327 a6bd 19b5 d0bd 1ef2 8b3e f81f 443e
00000330: 922b b83d 683d a6be e4ee a83e 9a34 d33e
00000340: 0b0b 7bbe e553 29be 8f6e a1be 4441 08bf
00000350: a05a 6b3e ddd4 143e 0b1b afbe 6801 683e
00000360: fd9d ddbd 2f15 303e 6c0d 41bd 85cf cd3d
00000370: 6604 8e3d 19bd 00be f349 62be 986d c4be
00000380: ac28 5bbe 11d9 c93e 25d5 c9be dab0 f5bd
00000390: 3247 71be 612e a8bd e041 a4bd d79b 813e
000003a0: e030 6bbe 6248 35be 2ea3 f1be 029f 21be
000003b0: 18a9 363c b2c6 0fbe 3213 e3bd 2aa1 39bc
000003c0: 23ec 853e 07cd 96bc 1b88 003d b9d0 f2bd
000003d0: e853 ef3d e08f 40bd 5888 cabe 0a76 6dbe
000003e0: e708 273e 46a0 e13b 6cea e5bc 89c3 b73e
000003f0: 6d61 86bd a3a4 a33d 3ab7 29bd 9b38 883e
0.101140656 -0.10248626 0.18228832 0.020059925 0.18213053 -0.0808762 0.12387435 -0.27253398
0.23948044 0.09892022 0.1622313 0.03280709 -0.16217923 0.17742468 0.0348309 0.048335485
-0.054265726 0.25121367 -0.32589722 -0.06882987 -0.31631157 -0.24955888 -0.060161743 0.0271085
0.15416755 -0.21573849 0.19724548 -0.009587031 -0.06473209 0.09841351 0.06604058 -0.26172084
0.05751271 -0.04961663 -0.05941938 -0.2228218 0.0062286467 0.016067315 -0.035256308 0.1478238
-0.12715313 0.11955849 0.12211093 -0.22550741 0.1696082 0.3473031 -0.038733743 0.080854766
-0.16819891 0.07987072 -0.13993083 0.1278991 -0.07587994 0.09147686 -0.08764657 -0.11472919
0.4154043 -0.10784321 0.19290182 -0.2664466 0.10031509 0.0547773 -0.09181658 -0.09263659
0.14257303 0.061767027 -0.039262626 -0.12414076 -0.29020345 0.0933513 -0.06733557 -0.072626255
0.011437667 0.17151271 0.19157188 -0.04709329 0.06584397 0.1886847 -0.3202304 0.30767462
-0.15635687 -0.32980624 0.43531275 0.09117173 -0.03994268 0.18119228 0.23371448 -0.020611664
-0.18049976 -0.28181726 -0.39200118 -0.16911653 0.0037751468 0.031702287 0.048664544 -0.30192578
-0.026320882 -0.34125182 -0.067670636 -0.1992766 -0.22629489 -0.057009254 0.09506119 -0.17077824
-0.17968386 0.0696402 0.19546008 0.008581831 0.0069813533 -0.3914895 -0.12685426 0.030421752
-0.29101244 0.107349865 0.12953943 0.0412859 -0.049536247 -0.05644893 0.12754276 0.06213086
-0.041472394 0.20581913 0.06270154 -0.27936885 -0.04586014 0.10225361 -0.056149404 0.19317609
0.19363572 0.0070626615 -0.2559181 0.037049763 -0.048063613 -0.121857174 0.10033327 -0.1360707
0.3862038 -0.18107371 -0.038382057 0.27023157 -0.052122053 -0.26322153 -0.13086757 -0.6400374
0.40347248 0.22463112 0.2776495 0.19639254 0.10171923 0.22080545 -0.16028075 0.2040913
0.002571186 0.12572013 0.41638556 -0.16098434 -0.042711776 -0.18350475 0.41625047 0.33520648
0.17303629 0.30150262 0.19665349 -0.14447486 0.19645901 0.087938726 0.10511494 0.17765248
-0.09695537 0.1097174 0.24862038 -0.052134205 0.013666085 0.34218314 0.13198961 -0.17518957
0.062327933 -0.34529957 0.025804648 0.10400021 -0.18022239 -0.09556523 0.3096557 0.24934869
-0.3861526 -0.1514751 0.33027026 -0.07676466 0.10040291 -0.12668657 -0.13869916 -0.5296235
-0.13703454 -0.019387232 0.34354046 -0.12932241 0.5420359 0.06943928 0.101426914 -0.1338983
-0.08113017 -0.10190792 0.27333158 0.1915282 0.089926854 -0.32468724 0.3299476 0.4125107
-0.24515931 -0.1653591 -0.31529662 -0.5322459 0.2298379 0.14534326 -0.3420032 0.22656786
-0.108211495 0.17195581 -0.04713194 0.10049347 0.06934433 -0.12572135 -0.22098522 -0.38364863
-0.21402234 0.3942342 -0.3942043 -0.119966224 -0.23562315 -0.08211971 -0.08020377 0.2531421
-0.22967863 -0.17703393 -0.4719481 -0.15783313 0.0111487135 -0.1404064 -0.110876456 -0.011329928
0.2615672 -0.018408312 0.0313798 -0.11856217 0.11685926 -0.04701221 -0.39557147 -0.2318956
0.1631199 0.006885561 -0.028065883 0.3589137 -0.06561551 0.07990386 -0.041434504 0.26605687

output.bias f4 [4]
00000000: d8f4 b63b a22e 4abd 0da5 743b 4c55 c5bd
0.005583387 -0.04936088 0.0037329823 -0.0963541

state_value.weight f4 [1, 64]
00000000: 74be 403e e565 213e 29ec 163e 88e0 2f3e
00000010: ee64 f13d c162 d23c a283 f2bb d031 a53c
00000020: c443 ec3e 4406 70bc b5a4 a53e 98d9 b23d
00000030: 6139 1f3e faf7 bcbe addb bdbe c45c 9f3e
00000040: 5ce2 823e 9f25 7a3b e333 ec3e ad77 d6be
00000050: e4ba c4be c127 6bbd b862 0fbd 00b6 2d3e
00000060: 2a69 2bbe c4c6 5bbe 7e3e 97bd 53ba 3d3e
00000070: 5344 213e 03e9 983d 71af 233e b52f 563e
00000080: 4f42 893d fc7f 2cbe f1a0 d0bb af5e ddbe
00000090: 4969 b6be e6d7 483c 6e17 2b3e 0ab1 01be
000000a0: 9b43 dd3c 1dfd e73d f04c 4fbe d15a f5bc
000000b0: 5d95 233e d4ba 27be 69a9 023e 2d3b 123e
000000c0: 3463 e2bc 9940 e3bb a870 473d ff95 5f3e
000000d0: 70a4 6cbe 88e7 683d f25f 643e 8ae6 783d
000000e0: 9088 7bbe 80bd d33d 5544 863e eac0 b3be
000000f0: 89ef 99bc bddf 0a3e 4831 8ebe f240 25bd
0.18822652 0.15761526 0.14738525 0.17175496 0.11786829 0.025681855 -0.0074009458 0.020165354
0.4614545 -0.014649931 0.32352224 0.08732909 0.15549232 -0.3690794 -0.37081662 0.31125462
0.25563323 0.0038169397 0.46133336 -0.4188818 -0.38423836 -0.05741096 -0.035006255 0.16963959
-0.16739336 -0.21462542 -0.07384966 0.18528108 0.1574872 0.074663185 0.15984894 0.20916636
0.067021005 -0.16845697 -0.006366842 -0.432363 -0.356272 0.012258505 0.16708156 -0.12665191
0.027009776 0.113275744 -0.20244193 -0.029950531 0.15974946 -0.16379863 0.12759937 0.14280386
-0.027635194 -0.006935191 0.04869142 0.21834563 -0.23109603 0.05686143 0.22302225 0.060766734
-0.24563813 0.10338879 0.26224008 -0.3510812 -0.018790977 0.13561912 -0.27771974 -0.04034514
