results/64_128_64_0_True_False/checkpoint_final.pth (torch_old, 78921 bytes, 9 tensors)

hidden_layers.0.weight f4 [64, 37]
000000 27 1c f1 3e 0a 22 e5 bd e0 77 4c be b3 61 0a bf
       0.4709179 -0.11188133 -0.19967604 -0.5405533
000010 81 fe c2 bf 2d 77 99 3c c6 69 94 3d 77 59 84 3e
       -1.5233918 0.018733585 0.07246737 0.25849506
000020 ab 60 60 3d 1a 8a fa 3d 44 e3 8b bd 15 55 35 be
       0.05477969 0.12233372 -0.06830457 -0.17708237
000030 ae 88 c5 bd 33 5d 14 3e 06 52 81 3d 21 ec c0 be
       -0.0964521 0.14488678 0.06314473 -0.37680152
000040 75 2f 09 3e d1 06 ce 3e 4b c8 9a bd fe db 22 bd
       0.1339701 0.40239576 -0.07557734 -0.039760582
000050 70 38 99 3d ab 78 3a 3e 19 21 26 be 86 66 9b 3e
       0.07481468 0.18210094 -0.16223563 0.30351657
000060 f6 71 85 3e 1c b7 15 be 3e 7c 84 3d de 97 00 3d
       0.26063508 -0.14620632 0.0646901 0.03139483
000070 ee 3f a1 bd e5 e2 9f be 65 97 76 3d fe e4 96 3c
       -0.07873522 -0.31227794 0.060202975 0.018419739
000080 7d 28 6f be 44 f2 e6 3d 9f 45 d5 be 1a 81 77 3d
       -0.23355289 0.11276677 -0.4165468 0.060425855
000090 2b 42 ac 3c 27 4f 12 3d ea b1 9d 3e 56 55 45 bd
       0.021027645 0.035720017 0.307998 -0.048177086
0000a0 74 09 e5 3d 9d 29 1e bc 24 42 46 3e a0 9f ed be
       0.11183444 -0.009653476 0.19361168 -0.46410847
0000b0 08 94 26 3d 45 c1 7e bf fa d1 11 c0 16 c7 3d 3d
       0.040668517 -0.99513656 -2.278441 0.04633244
0000c0 73 65 2f bc d5 a1 a3 3d b1 3c 07 3d f1 74 b4 3d
       -0.01070534 0.079898514 0.033016864 0.08811367
0000d0 50 90 e1 3d 06 1d 88 3d 7d 8c cb bc f1 eb 55 3d
       0.110138535 0.06646161 -0.024847263 0.052226964
0000e0 3b 9d 0e 3e cd 6b 81 bd fb c4 1a be c5 42 f8 bd
       0.13927166 -0.063193895 -0.15114205 -0.1212211
0000f0 cb 54 22 3e ef dc 83 3e 64 1a 2b bc 46 16 2e 3e
       0.15852658 0.25754496 -0.010443304 0.17000684
000100 9b b6 a7 bd 1f d2 b1 3d 1d 67 15 3e 19 4d d1 3c
       -0.08189126 0.086826555 0.14590116 0.025549458
000110 d6 95 0d 3e 7b db 91 3d 99 d3 a1 3e 73 e0 80 3e
       0.13826689 0.07121941 0.3160675 0.2517124
000120 d3 73 5a 3c 91 94 3a bc a9 af 40 bd bf 98 19 bd
       0.013333279 -0.01138796 -0.047042523 -0.037499186
000130 98 9f a7 3e 27 20 87 bd 9e 45 aa 3e c8 fd a6 be
       0.32738948 -0.065979294 0.3325624 -0.32615495
000140 5a d4 20 be 68 1a 97 3e 66 40 2a 3d cd 34 29 bf
       -0.15706006 0.29512334 0.04156532 -0.6609619
000150 bd 00 63 3e b3 c7 3a be 9e 6b 22 bd e1 92 33 be
       0.2216825 -0.18240242 -0.039653413 -0.17536499
000160 60 42 a5 3d 36 dc 0e bf f8 31 1c 3e 6e c8 29 3d
       0.08069301 -0.55804765 0.15253437 0.04145091
000170 4e b4 a4 3e 20 87 7e 3e fb 38 39 bf f3 fe 71 3d
       0.32168812 0.24856234 -0.7235257 0.05908103
000180 c5 b3 12 3e 47 29 87 3e 9c 73 09 bf d6 bb 51 bd
       0.14326389 0.2639868 -0.5369203 -0.051204525
000190 e4 77 84 be 62 50 b2 3e a0 85 d9 be 7b 59 85 be
       -0.2587272 0.34826952 -0.4248476 -0.2604483
0001a0 3f e1 2d be 0a 3b 96 bd 96 c2 97 bc cb 88 d4 be
       -0.16980456 -0.073354796 -0.018525403 -0.41510615
0001b0 d0 2e 0b 3d b1 9e 43 3c ba 27 d1 bd 46 24 ab 3d
       0.03398019 0.01193969 -0.10212655 0.08356528
0001c0 d9 4f f9 3d 66 49 30 3e aa e5 6e bb 0c 08 11 3d
       0.12173433 0.172155 -0.0036452808 0.035408065
0001d0 42 69 37 3e 00 4f 6c bd fd ad 24 3d e2 37 04 3e
       0.17911246 -0.057692528 0.04020499 0.12911943
0001e0 ac 29 2a 3e c7 ec d9 3d ef b1 68 be 91 10 d0 3d
       0.16617459 0.10640865 -0.22724126 0.1015941
0001f0 22 df 09 3e 5d 3d 98 3e e1 38 f6 3d 90 ff 52 bb
       0.13464025 0.29734316 0.120225675 -0.0032195784
000200 75 8b bc bd 20 f6 8d be 96 41 de be 06 d7 f0 3d
       -0.09206287 -0.2772684 -0.43409413 0.117597625
000210 09 68 f9 3d e2 99 81 3d e4 96 28 be 92 57 07 3e
       0.12178046 0.06328179 -0.1646381 0.13216999
000220 cb b9 24 3d 0d 19 90 bd 72 0d 10 3e 9f 1c 83 3e
       0.04021625 -0.07036028 0.14067629 0.25607774
000230 ec 06 08 3f 23 df 8b 3e 48 30 a2 3e cd fd 7e bd
       0.5313556 0.27318677 0.3167746 -0.062253762
000240 57 57 1d bf d1 27 6f bf 43 32 28 3c 24 84 0c bd
       -0.61461395 -0.9342013 0.01026589 -0.034305707
000250 87 3e 04 be b2 93 5f bd f4 ed 80 bd da 80 1e be
       -0.12914477 -0.054584213 -0.06295386 -0.1547884
000260 53 da 2c 3d aa b0 be 3e 4b 90 19 be 7c 05 76 be
       0.042200398 0.3724416 -0.1499645 -0.2402553
000270 a6 70 6f bf af 23 20 c0 10 ce 67 bd 58 97 0f 3d
       -0.9353126 -2.502178 -0.056593 0.035056442
000280 aa 01 47 3a 50 6a 9c 3c d8 c2 c9 bd 47 94 af bd
       0.00075914955 0.019093663 -0.098516166 -0.085732035
000290 f2 2d 30 be ed db bc 3d 78 b0 19 3e f9 3c 25 3e
       -0.17205027 0.09221635 0.15008724 0.1613654
0002a0 b6 52 b4 bd 3b 9b e3 3d 50 cc 2a 3d 65 b4 22 3e
       -0.08804838 0.11113592 0.041698754 0.15889128
0002b0 d6 f8 57 3d 17 be 29 bc 1f b6 cb 3d 4d 8e 32 3e
       0.052727543 -0.010360262 0.09946846 0.17437096
0002c0 1b fc 8c 3d dc 26 9b 3c 31 58 43 3e ad da 43 bc
       0.06884023 0.018939428 0.19076611 -0.011953992
0002d0 ef d2 44 bc 07 87 00 3e fc d9 9b 3e 03 bd 42 bd
       -0.012013181 0.12551509 0.30439746 -0.047543537
0002e0 63 27 2f 3c 1a 14 fd bd 5f 8d ac 3d 3a 57 5c ba
       0.010690543 -0.1235735 0.08425402 -0.0008405332
0002f0 a7 23 cc 3d 46 20 a7 3e 59 27 e1 3e 86 01 94 bb
       0.09967738 0.3264181 0.43975332 -0.004516783
000300 fb 54 de be 1b ca 03 bf 59 31 4f bf 3a ba d2 bd
       -0.4342421 -0.51480263 -0.80934674 -0.10289426
000310 ab dd 0c be 6e 9d 8e 3d 3c 06 d3 3d da fd 42 3e
       -0.13756435 0.06963621 0.103039235 0.19042149
000320 2e a2 95 3d 47 19 02 3d b5 5e 14 bd 54 0a 0d be
       0.07306324 0.031762388 -0.036223132 -0.13773471
000330 bc 46 c0 be 57 af b6 bd c7 14 4e bd c5 f1 93 3e
       -0.37553966 -0.08920162 -0.050312784 0.28895393
000340 5a 4c 66 3e 57 d3 31 3d 29 e8 cb 3d be d0 89 bd
       0.22490063 0.04341444 0.099563904 -0.067292675
000350 2b 77 db bd 06 9e 2e 3e 45 e6 c3 3e 50 5d 06 3d
       -0.10716089 0.17052469 0.3826162 0.032803833
000360 32 75 1a bd c5 08 15 be af 58 08 3e 44 96 a8 3e
       -0.037709422 -0.14554127 0.1331508 0.32927144
000370 4e d4 9d be a5 93 46 3d b1 1c 87 3e b4 7a 9e be
       -0.30826038 0.04848065 0.26389077 -0.3095299
000380 c6 57 2e bd ee 6a 17 3e 82 ee da bd 57 32 d8 3d
       -0.042564176 0.14786884 -0.10690023 0.105564766
000390 89 f6 46 bd af 07 60 be 16 d2 4b 3e ad 7d c3 3c
       -0.048574958 -0.21877931 0.1990436 0.023863638
0003a0 b1 b3 32 be ad 92 10 3e bf ec 32 3e 52 93 11 3d
       -0.1745136 0.14118452 0.17473124 0.035540886
0003b0 16 dd 31 be 1f 54 9c 3d d1 9a a6 be 17 0d fe 3c
       -0.17369494 0.07633232 -0.3253999 0.031012101
0003c0 7c dd 0c 3e b6 fd 0a 3f 72 0e 73 be f1 07 ec 3c
       0.13756365 0.5429338 -0.23735979 0.02881238
0003d0 a0 b1 90 3d 18 00 26 3e 35 be d7 3c cb d8 1a be
       0.07065129 0.16210973 0.026335815 -0.15121762
0003e0 47 17 f8 bd c2 97 bc bd 5d 5d 9d 3d 5c 26 c1 3e
       -0.12113815 -0.09208633 0.07683823 0.37724578
0003f0 7a d4 4a be db cb 5d 3c ed f6 d6 3d 25 3e 26 3e
       -0.19807616 0.013537372 0.10496316 0.16234644

hidden_layers.0.bias f4 [64]
000000 85 6d 28 3e 6a b1 5a 3d d4 92 cb bd c8 2c f0 bb
       0.16448028 0.05339185 -0.099401146 -0.007329557
000010 a1 bc 89 3e b7 ee 8d bc fb 10 85 bd 63 0d c1 3c
       0.26901725 -0.017325742 -0.064973794 0.023565954
000020 e6 cc 96 bb 38 91 de bd c4 45 ba 3d 67 18 71 3e
       -0.0046020625 -0.10867542 0.09095338 0.23544465
000030 e2 2d 85 3d f6 c7 c2 3d 22 4c a2 bd 20 db 0e 3d
       0.06502892 0.09510796 -0.079246774 0.034876943
000040 13 70 c2 3d 77 2b bb bd 6c 20 35 bd c0 d7 4a be
       0.09494033 -0.0913915 -0.044220373 -0.19808865
000050 d4 92 42 be 15 a8 6b 3d cf 33 4f bc a4 72 9a bd
       -0.19001323 0.057533342 -0.0126466295 -0.07541397
000060 aa 53 8f 3b 53 15 39 3e 77 a7 c7 3c a0 3c d4 bd
       0.004373987 0.18074541 0.024371846 -0.10363126
000070 a1 15 36 3e bb 9e 04 3e 1b 64 d2 bd 4d 31 e7 bd
       0.17781688 0.12951176 -0.10273 -0.112887
000080 66 de e4 3d 2c 90 84 3d 63 00 dc bd d3 77 c8 3d
       0.11175232 0.06472811 -0.10742261 0.0978848
000090 f3 72 b3 bd 73 cb 8b 3d 4c 75 cf bc 35 4c 37 be
       -0.08762159 0.06825914 -0.025324486 -0.17900164
0000a0 68 ea 22 bd 82 0d b4 b8 87 9a 87 bd 41 17 53 3d
       -0.03977433 -8.585585e-05 -0.066212706 0.05153585
0000b0 91 a2 fd bc fe 56 9c bd 06 c3 a7 bd d0 17 67 bc
       -0.030961307 -0.0763378 -0.08191495 -0.014104798
0000c0 fc 0e 15 be e5 8b 4b bd 88 82 86 bd f5 af 27 3e
       -0.14556497 -0.04969396 -0.065678656 0.16375716
0000d0 23 4f b4 3d 8c 5d 03 be 53 d1 be bd 49 f2 ac bd
       0.08804157 -0.12828654 -0.09317269 -0.0844465
0000e0 e4 e7 df 3d f0 5a 83 bd c7 68 08 bd 82 ef 0c 3d
       0.109329015 -0.06413829 -0.03330305 0.0344081
0000f0 92 18 a5 3d 37 d7 96 3c c8 6d 58 bd 1d 20 47 3d
       0.08061327 0.01841317 -0.05283907 0.04861461

hidden_layers.1.weight f4 [128, 64]
000000 a9 b6 a6 bd a7 75 93 3e 60 7a 3b bd 34 b6 44 be
       -0.081403084 0.288007 -0.045771003 -0.1921013
000010 d8 10 b6 3e ad 7e 2f be 4a 9a 23 bf 0e 1c ea 3d
       0.35559726 -0.17138167 -0.639073 0.11431132
000020 b8 8e c7 3c e7 87 4d 3e c5 a1 59 3e 04 ea e4 be
       0.024360046 0.20071374 0.21253116 -0.4470979
000030 8a 3b 22 be 95 9d 04 3f 81 c2 70 be 7f f4 bc bd
       -0.15843025 0.5180295 -0.23511697 -0.092263214
000040 14 61 3e 3d d1 b6 de bc 97 7a b5 bd 92 09 79 3d
       0.0464793 -0.027186783 -0.08861273 0.060800143
000050 55 24 4d be a9 e6 ee be 23 df 2c be f9 59 2d be
       -0.20033391 -0.46660355 -0.16881995 -0.16928853
000060 fc df a1 3d 9b 51 37 be 72 93 28 3e a5 73 e2 3c
       0.0790405 -0.17902224 0.16462496 0.027643034
000070 de 9b c9 3e 69 d0 ed bd 5a d0 93 3e ca 63 9a bc
       0.3937673 -0.11612017 0.28869897 -0.018846411
000080 f5 df 4d 3e 72 09 86 3e b4 54 37 bd f7 92 bb be
       0.20104964 0.2617908 -0.044758514 -0.36635563
000090 8c 97 88 be 51 d7 68 3e b0 ae 8f 3e 04 cb 3f bf
       -0.2667812 0.22738387 0.28062963 -0.7491915
0000a0 91 d3 12 3e b4 40 67 be 9a b7 03 3e f4 6f bf bd
       0.14338519 -0.22583276 0.12863007 -0.09347525
0000b0 5c c0 73 3e 4e 2a 43 be 0c f6 4f be 82 40 97 3e
       0.23803848 -0.19059107 -0.20308703 0.29541403
0000c0 bb 17 01 be 13 1e 17 be 7b c6 3e 3e fe 4a 55 3e
       -0.12606709 -0.14757566 0.18630402 0.20829388
0000d0 3b df 26 bd 03 8f de be 2e 89 65 be d9 86 94 3d
       -0.040740233 -0.43468484 -0.22415611 0.07252283
0000e0 13 1a 9f 3e 17 88 e7 be bf 3a cd bd 7e 00 a0 3d
       0.3107458 -0.45221016 -0.100209706 0.07812594
0000f0 da 88 09 3d b8 49 01 3e f1 82 eb be 21 80 8f bd
       0.033577777 0.12625778 -0.45998338 -0.070068605
000100 97 fd 8d 3e d1 61 4a bd f5 c4 7c be d1 a2 bd 3d
       0.27732536 -0.04940969 -0.24684508 0.092595704
000110 b3 5c 79 3d 1f 3a a6 bd 0a 13 33 be 6e 3e 9e bc
       0.06087942 -0.081165545 -0.17487732 -0.019316878
000120 47 3b 2c bf 14 b7 70 3e cd e4 58 bd a5 73 71 3d
       -0.6727795 0.23507339 -0.052952576 0.058948178
000130 bd be 94 be f2 36 27 3e c3 cc 8b bb 60 31 9a 3d
       -0.29051772 0.16329554 -0.004266353 0.07528949
000140 4d 55 f9 3d ec 53 fc be 16 1e df 3d 7e 3a 17 3e
       0.12174473 -0.49282777 0.1089441 0.14768407
000150 c8 e9 2c be 2d 2b 9d bd 13 e8 b2 3c 04 ef 1e 3d
       -0.16886055 -0.07674251 0.021839177 0.03880216
000160 42 14 9f 3d 7b b7 b2 be 40 12 7c be 9d 88 76 bd
       0.07767536 -0.3490561 -0.24616337 -0.06018888
000170 d8 5d 0f bc 50 e2 90 be e1 bd 9b be 52 76 36 be
       -0.008750401 -0.28297663 -0.30418304 -0.17818573
000180 b0 78 74 3e cd b7 57 bf 80 5d cc be e6 7c 3b bf
       0.23874164 -0.8426483 -0.39915085 -0.73237455
000190 5d 44 b8 be ab 7c e0 bc 59 a1 5b be 09 af 5f be
       -0.35989657 -0.027403196 -0.21448268 -0.21844114
0001a0 4e dd 4d bc 45 a6 8a 3e f2 14 89 3e 60 0a 32 be
       -0.01256497 0.2707998 0.26773793 -0.1738677
0001b0 5e 5a 80 bc e9 a5 3c bf 55 02 25 be e7 98 c8 be
       -0.01566809 -0.7369066 -0.16114171 -0.39179155
0001c0 a1 05 4d bd dc 98 c7 3d d3 67 91 be 56 a6 29 3e
       -0.050054196 0.097459525 -0.28399524 0.16567358
0001d0 e0 ab ac 3d c4 4f a7 be 15 c0 dc be ef 29 38 3e
       0.0843122 -0.32678044 -0.43115297 0.17984746
0001e0 87 ba 06 be f9 0a e4 3c a2 87 ad bd e9 a1 a8 3e
       -0.13157092 0.027837263 -0.084731355 0.32936028
0001f0 27 17 61 be df c6 61 be b0 7c 8a 3e 5d b9 62 3c
       -0.21981488 -0.2204852 0.27048254 0.013838139
000200 b2 9d 6f 3e 04 ae 7c be 2e 44 6a bc 44 72 c4 3d
       0.234 -0.24675757 -0.014298482 0.09592107
000210 33 01 b7 be e8 0a aa bc 52 7d 93 be 6a 66 8a bc
       -0.35743102 -0.020757154 -0.2880655 -0.016894538
000220 64 ad ad 3e 64 37 d0 bd 56 93 84 be e3 cd 17 be
       0.3392135 -0.10166815 -0.25893658 -0.14824633
000230 f1 d1 e4 3d 12 48 56 3e 2f ad 7f be b1 12 bd be
       0.11172856 0.2092593 -0.24968408 -0.36928323
000240 0b 79 ed be 46 bc 40 bd fd d1 96 3e cc cb 18 be
       -0.4638141 -0.04705455 0.29457083 -0.14921492
000250 e6 9a 7d bd b7 2d 1d be 50 0c 15 3e fc 63 9c 3e
       -0.0619153 -0.1534947 0.14555478 0.30545032
000260 20 6a 30 be 3c f7 31 be a1 61 c2 3d 4b 02 7a be
       -0.17227983 -0.17379469 0.094912775 -0.24414937
000270 40 b7 84 bd e0 ff 8f be 7c 36 ae 3d 0d ff 04 bf
       -0.06480265 -0.28124905 0.08506486 -0.51951677
000280 be 58 5f be 02 0e 77 be 5d 52 91 be 31 1d 21 3e
       -0.21811196 -0.24126437 -0.2838315 0.15733792
000290 c5 14 15 3f 86 8d 82 be bc 17 8d be 47 14 96 bc
       0.58234817 -0.254986 -0.2755717 -0.018320216
0002a0 19 9a aa 3d f7 82 ee bd c4 37 1d 3e cc b2 65 be
       0.08330173 -0.11646073 0.15353304 -0.22431487
0002b0 5d 32 1c bf 3f b7 c5 3e 69 38 b1 3e 8c f7 cf be
       -0.6101435 0.38616368 0.3461335 -0.4061855
0002c0 8e f8 9a bd 9e 4e 39 be 01 4c 91 be fa 6f 27 be
       -0.07566939 -0.18096396 -0.283783 -0.1635131
0002d0 c8 6c 05 bf 61 34 5a 3d 72 38 e5 bd 5f cf 0a 3e
       -0.5211911 0.05327261 -0.11192407 0.13555668
0002e0 1b a3 f8 bd 86 9c da bd 7f fa c1 3d 2c bc e6 3e
       -0.12140485 -0.10674386 0.094716065 0.4506544
0002f0 7c 52 c4 bb 15 39 a4 be 58 01 02 3e 4b 1b 1b be
       -0.005991278 -0.320748 0.12695825 -0.1514713
000300 f1 95 25 bf d7 ef af be 13 ee 1b 3e 2f 9a 93 be
       -0.6468192 -0.3436267 0.15227537 -0.2882857
000310 1c 75 81 3d 90 5f e2 be 99 7f 32 be ff 7a 7f be
       0.06321165 -0.44213533 -0.17431487 -0.24949263
000320 eb 00 97 be 19 cb 2a be 87 82 10 be da 35 f0 be
       -0.29492888 -0.16679038 -0.14112292 -0.46916085
000330 12 35 90 be 98 fd dc 3d 47 42 26 be f7 a0 f5 bd
       -0.2816549 0.10790557 -0.1623622 -0.11993592
000340 b7 64 ef be 0a 36 0e 3e fb f3 ee bd c2 f1 ec be
       -0.46756527 0.13887802 -0.11667629 -0.46278197
000350 2e 64 58 3d 26 5f 30 3e de bf 72 be 49 29 e6 be
       0.052829914 0.17223796 -0.23706004 -0.44953373
000360 83 87 1c 3e 16 91 11 bf 79 21 b2 bc fa 28 af bd
       0.15286069 -0.5686201 -0.021744477 -0.085527375
000370 8e f6 89 3d 1d db c1 be 2c a7 79 bd 53 04 f4 bd
       0.0673648 -0.37862483 -0.060950443 -0.11914887
000380 10 cc 48 be ca 01 5a be b5 cb f3 bd 4c 55 2c bd
       -0.19609094 -0.21289745 -0.119040884 -0.042073533
000390 c0 90 ce be 9d a7 e5 3d 3d c2 ad be ad 46 f5 bd
       -0.4034481 0.1121361 -0.33937255 -0.11976371
0003a0 7c 9b 8a be f9 1a 13 3e 87 55 3e bd 52 6c 6f be
       -0.2707175 0.14365758 -0.046468284 -0.23381165
0003b0 4d b3 30 be 2b b7 85 be 6a 35 46 bf b9 29 f5 3d
       -0.17255898 -0.2611631 -0.77425253 0.119708486
0003c0 af 4d c9 be 5a 03 72 be 59 04 4d 3b 75 8f 0d 3e
       -0.3931708 -0.23634091 0.003128311 0.13824256
0003d0 69 dc c6 be 1a aa 61 be ff 1f 22 be f5 bc a5 bd
       -0.38840035 -0.22037545 -0.15832518 -0.08092681
0003e0 ab 82 58 3d c2 f6 64 be cd 58 c9 be 4c ec 4e 3d
       0.05285899 -0.22359756 -0.39325562 0.05051832
0003f0 0a 49 ad be 2c e2 27 3e 8c d7 c6 be a8 c1 2d be
       -0.33844787 0.16394871 -0.38836324 -0.16968405

hidden_layers.1.bias f4 [128]
000000 c4 b7 20 3c 90 59 c1 bd 06 f9 1d 3d 84 fb 03 be
       0.009809438 -0.09440911 0.038567565 -0.12888914
000010 06 28 e0 3d db e1 1c 3e 54 d4 ed bd 91 f5 b7 bc
       0.10945134 0.15320532 -0.11612764 -0.022455962
000020 10 b6 ed bd 1b 8a fd 3e da 8a b2 3c cf 09 18 be
       -0.11606991 0.4951943 0.021794725 -0.14847492
000030 96 ed 04 bd 80 48 46 bd 83 c0 72 bd da a5 1e be
       -0.032453142 -0.048408985 -0.059265625 -0.15492955
000040 c3 5c 95 3d 0d e4 2f 3b a8 5e 25 3e 0a e7 3d be
       0.072930835 0.002683881 0.1614939 -0.18545166
000050 ae 1f 2b bd f6 71 45 be c0 44 1c bd 29 76 35 be
       -0.04177826 -0.19281754 -0.038151503 -0.17720856
000060 19 74 9e 3d d6 75 00 be a3 7a 48 3e 59 d0 bc bd
       0.077369876 -0.12544951 0.19578032 -0.09219427
000070 4d 07 a3 bd 2f 08 6d 3d aa 8b 85 bd 19 9c 86 bd
       -0.07960377 0.057869133 -0.065207794 -0.06572742
000080 17 20 8f be ad b6 d2 3e 42 29 63 3d 78 ef 7a 3d
       -0.2795417 0.41154996 0.05545927 0.06126353
000090 62 e7 cf bd 78 4f 90 3d ce be 65 bd 45 40 46 be
       -0.10151555 0.070464075 -0.05609017 -0.19360454
0000a0 7c d9 9c 3e 9a 84 c4 bd 8f e4 b8 bd 62 54 2c bd
       0.30634677 -0.09595604 -0.09027969 -0.04207266
0000b0 b1 ed e3 bd 46 ee e7 bd 47 c6 93 bd 48 2c 34 be
       -0.111293204 -0.11324744 -0.07215553 -0.17595017
0000c0 d6 1d 0e bc 0f c6 cf bd 8d eb fe 3d c7 71 4e be
       -0.008674106 -0.101451986 0.124472715 -0.2016059
0000d0 84 77 eb 3d cb f5 96 be 99 f3 00 3e ff bc e7 3c
       0.11497405 -0.294844 0.12592925 0.028288363
0000e0 37 81 fa bd 79 2d 40 be f9 20 10 3d 03 a5 be 3d
       -0.12231677 -0.18767346 0.035187695 0.09308817
0000f0 b5 e1 0c be 32 c3 30 3e a4 34 bc 3d 8e 1a 66 3e
       -0.13757975 0.17261961 0.09189728 0.22471067
000100 c8 1b 94 bd b0 23 52 3e 2e 41 48 3e 4d f7 94 bd
       -0.07231861 0.20521426 0.19556114 -0.072737314
000110 68 b0 37 bd 4c 58 3a 3d d6 74 12 3b 6a 4e 8a 3e
       -0.04484597 0.045494363 0.0022347472 0.2701295
000120 26 cf 74 bd 67 18 1b 3e 81 1e cc 3d 44 df 2c bd
       -0.059767865 0.15146028 0.09966756 -0.04220511
000130 28 c5 c6 3e df 47 7d bd 49 27 0c 3c 51 48 0c be
       0.38822293 -0.06183612 0.008554288 -0.13699462
000140 7f 3b 54 be 4d 2b 19 3e 75 09 56 be ff 66 40 3d
       -0.20725821 0.14957924 -0.20902045 0.046973225
000150 b9 f7 80 3b 26 7f c0 3e 4c 1f c3 3e 81 53 84 3d
       0.003935781 0.37597007 0.38109815 0.064612396
000160 c2 e9 08 be 92 7b 15 3d c8 07 25 3e f9 00 5f 3d
       -0.13370422 0.0364948 0.1611625 0.054444287
000170 9c 10 cf bd ee 4b 40 bd 70 6c e5 3d 8d e1 6e be
       -0.1011059 -0.046947412 0.112023234 -0.23328228
000180 47 1d 55 be a0 af ba 3c 88 46 ed 3d 62 39 80 be
       -0.2081195 0.022788823 0.115857184 -0.2504378
000190 ee 16 af bd bf bc c0 3d 72 5c 65 bc 35 73 2b be
       -0.08549295 0.094110005 -0.013999091 -0.16743167
0001a0 d1 5d 0a 3d 6d b2 ea 3d 41 e2 3b 3e c4 89 a8 bc
       0.033780877 0.11459813 0.18348028 -0.020573504
0001b0 68 86 2a 3e 63 9c 7e bd 14 15 42 bd 9b 10 c8 bd
       0.16652834 -0.06216086 -0.047383383 -0.09768792
0001c0 47 46 a6 bd a7 1a 21 bc 9d ac cb bd 61 6f 4c 3e
       -0.08118873 -0.009833015 -0.09945033 0.19964363
0001d0 26 01 86 be 06 6a 2f bd 39 cf 20 3d ce da ab 3e
       -0.2617275 -0.04282572 0.039260123 0.33565372
0001e0 ea b8 a8 bb 8d 1e 93 bc 15 ac 68 3e d3 f2 a4 bc
       -0.0051489966 -0.017958904 0.22721894 -0.020135319
0001f0 39 0d 8c bd e8 93 15 be 23 4c 24 bc b9 84 f2 bc
       -0.068384595 -0.14607203 -0.010027918 -0.029604303

hidden_layers.2.weight f4 [64, 128]
000000 28 6b aa bc e9 82 5f bd 80 d3 62 3a 54 24 15 3d
       -0.02080305 -0.054568205 0.0008652732 0.0364116
000010 4e b9 b0 bd 87 d9 75 3c f0 fb 51 3c 80 52 75 bd
       -0.08629094 0.015005476 0.012816414 -0.05989313
000020 9e 24 09 3d 3b 80 81 3c ae 80 86 3c 28 8a 10 bd
       0.033482186 0.015808215 0.016418781 -0.035288006
000030 7e d3 9e 3c ee 54 cd 3c 98 a7 56 bc 67 c2 1b bd
       0.019387957 0.025064912 -0.013101481 -0.038027193
000040 c0 8f dd 3a 70 97 98 bd 95 36 0d 3d 73 22 f3 3b
       0.0016903803 -0.074507594 0.03447588 0.007419878
000050 67 d7 79 bd f8 ef 09 3c 80 9c 9c bd 39 4f e7 bc
       -0.06099644 0.008419029 -0.076470375 -0.028236018
000060 2e 10 94 bd 64 3c c3 3c 9a 0f 97 3c c0 d4 df bc
       -0.072296485 0.023832507 0.018440057 -0.027323127
000070 5e d4 42 3d ac f5 4f 3d 63 af a8 bd 82 2c 71 bd
       0.04756581 0.0507714 -0.08236577 -0.058880337
000080 8f 24 ce bc ed 78 a7 bd e6 88 6a 3d 9b 5f 9e 3d
       -0.025163917 -0.08177362 0.057259463 0.07733079
000090 c0 69 4b bd 85 64 a0 bc 90 b8 b9 3b d9 d8 e1 3c
       -0.049661398 -0.019579181 0.0056677535 0.027569221
0000a0 df fe 88 bd bf 40 ba 3c 22 df a1 bd 8f bd 9d bd
       -0.06689238 0.022735951 -0.07903887 -0.07702171
0000b0 81 19 4c 3d 5e d2 50 3d 56 87 b1 bd bf 97 17 3d
       0.04982901 0.05098187 -0.086683914 0.03700995
0000c0 4d 16 9f bd c7 ea 94 3d f2 8b 86 bc 00 3f 28 bd
       -0.077679254 0.07271343 -0.016424153 -0.041075706
0000d0 78 f1 06 3c 3f 67 4d bc 0d 92 d2 ba b9 1d 9a bd
       0.008236282 -0.012536823 -0.0016065255 -0.075252004
0000e0 44 ba 1e 3d e7 d2 bb bd 53 c5 1f bc cc 30 83 bd
       0.038751855 -0.09171086 -0.009751636 -0.06405792
0000f0 00 3e 47 bd cb 7a de 3b a0 1f 02 3c 74 61 c4 bd
       -0.048643112 0.0067895404 0.00794211 -0.095889
000100 98 af c4 3c 90 3f 54 bc 42 fd 6d bd ab eb 24 3c
       0.02400951 -0.012954608 -0.058102854 0.010065953
000110 01 3c ad bd 6e 66 9c bd 4d 43 8a bc d8 5a a4 3c
       -0.084587105 -0.076367244 -0.016877795 0.020062849
000120 60 c3 53 3b 9e df b0 bd d1 8d 21 3d 36 74 25 bd
       0.0032312497 -0.086364016 0.039441887 -0.04039403
000130 6b fe d9 bd 40 03 ef 3c a0 0d aa bd 08 22 68 3d
       -0.106442295 0.029176354 -0.0830338 0.05667308
000140 e9 95 86 3c f8 c8 3a 3c 54 1b 9f bd 31 2b bd 3b
       0.016428905 0.011400454 -0.07768884 0.005772971
000150 c5 98 d0 bc 51 48 43 bd 89 d6 89 ba d4 8d a3 bd
       -0.025463471 -0.04767639 -0.0010516207 -0.07986036
000160 0d 67 81 bd 2b fa e3 bd 96 20 27 bd 67 88 ad 3c
       -0.063184835 -0.111317 -0.04080256 0.021183206
000170 07 a9 cc 3b 4d 0b c6 3c 76 7d 4f bd f9 4c 03 bc
       0.0062457356 0.02417531 -0.05065676 -0.008013957
000180 97 a9 06 3d 17 da 26 bd dd be ae bd 73 3f 08 bd
       0.032876577 -0.04073533 -0.08532498 -0.033263635
000190 d7 0e 2a bd 8b 15 2d 3d 1b 6b d4 3c 77 82 3c 3c
       -0.04151806 0.042256873 0.025929978 0.011505715
0001a0 6c 39 1c 3d bf 05 d6 bd ff 0b 3e bd 62 0b 94 bd
       0.0381407 -0.10450315 -0.04639816 -0.072287336
0001b0 53 52 18 bd d7 9b d4 bd 85 57 08 bd 5c ae 64 bd
       -0.037187885 -0.103812866 -0.03328659 -0.055830345
0001c0 c9 bc 45 3c d9 90 99 bd 79 09 43 bd a2 22 3b 3d
       0.012068936 -0.074983306 -0.047616456 0.045687325
0001d0 15 65 41 3d 20 0a 87 bb f0 63 66 bd 55 c1 9e bd
       0.04721554 -0.00412108 -0.05624765 -0.07751719
0001e0 4b a5 3b 3d 80 74 e1 3a 22 68 02 bd 7d 4b be bc
       0.045811933 0.0017200857 -0.03183759 -0.023229355
0001f0 e1 1d 31 bd 2f b3 e5 3c 51 3b 68 bd 23 10 e0 bb
       -0.043241385 0.028039543 -0.056697194 -0.006837861
000200 59 67 89 3e 6a d9 d3 bd f2 43 1a 3e b1 7e a0 bd
       0.2683666 -0.10344203 0.15064982 -0.078366645
000210 4b 99 99 3e dd 26 09 bf 53 5a 0c be 85 c8 c8 3d
       0.29999766 -0.53574926 -0.13706331 0.09803871
000220 89 ef 07 bc 25 0f 9d 3e d2 9a 18 3e 6e 40 2e bd
       -0.008296856 0.30675617 0.1490281 -0.042541914
000230 49 63 83 3c 11 0b 25 3e 16 62 e9 bd 69 f2 92 3c
       0.016038554 0.16117503 -0.113956615 0.017937856
000240 6a 76 08 bf 17 af a3 3e 01 4a 0f 3e eb cf 84 3d
       -0.53305686 0.3196952 0.13993074 0.0648497
000250 0d 29 b2 bd 2c 04 4f be a2 80 43 3d 45 c4 6a bb
       -0.08699236 -0.20216435 0.047730096 -0.0035822552
000260 75 1f 78 3c cf 55 d3 3d 4c 53 17 bd 5d 66 a9 be
       0.015144219 0.10319101 -0.036944672 -0.3308591
000270 66 44 01 3e df b4 93 bc 0c 23 c4 bd 12 3b e8 3d
       0.12623748 -0.018030582 -0.09576997 0.11339392
000280 c3 9d 0d 3e 91 9c 86 3d 80 ff c8 3d 65 42 d3 3c
       0.13829713 0.065728314 0.09814358 0.025788495
000290 78 15 40 3d f7 55 23 3d a1 fc f3 3d a1 63 83 bd
       0.046895474 0.039876904 0.119134195 -0.06415487
0002a0 03 67 c7 3d f5 76 4a be 7e 5a d8 3d 41 25 ad be
       0.09736445 -0.19771941 0.10564135 -0.33817485
0002b0 ed e5 59 3e 98 b1 77 3e 39 bc 1b 3c 10 1d d4 bd
       0.21279116 0.2418884 0.009505325 -0.10357106
0002c0 39 8f 14 3e a2 8a 98 3d b2 86 7d bd 0f ed dd 3d
       0.1450776 0.07448317 -0.061896034 0.10836231
0002d0 ba 9d 2e 3e e3 63 21 3e 41 8b 3b 3e c8 eb 04 3e
       0.17052355 0.1576076 0.1831484 0.12980568
0002e0 1f a3 96 3d 60 22 c6 bd 40 be 47 bd 63 93 e5 bd
       0.07355332 -0.09674525 -0.04876542 -0.112097524
0002f0 03 04 4c 3e e1 cb 55 3d fb c9 ee be 26 36 97 3d
       0.19923405 0.052196387 -0.46638474 0.07383375
000300 d0 36 f7 3c 33 df 62 3e 85 e5 50 3e c0 b4 14 3e
       0.030177504 0.22155456 0.20400055 0.14522076
000310 b0 05 da bc d1 14 61 be 5a d6 92 3d 86 58 01 3e
       -0.02661404 -0.21980597 0.071697906 0.12631425
000320 30 08 84 be 13 10 fd 3d e3 ed b9 bd d9 17 3e 3e
       -0.25787497 0.123565815 -0.090785764 0.18563785
000330 49 99 0e 3e 0f 91 0c 3e ab 1b ef 3d b0 86 08 be
       0.13925661 0.1372721 0.11675199 -0.13332629
000340 b9 0b 3a be 38 c6 4c 3d ea c7 40 bd 4a a0 0d be
       -0.18168534 0.049993724 -0.047065653 -0.13830677
000350 da 1b ee bc 8f c1 68 3e 2b 55 48 3e 8c 6b a6 3c
       -0.029066015 0.22730087 0.19563739 0.020314954
000360 ef 2e 59 bd b0 ac 0a 3d af d5 38 3e b2 6b 7e 3e
       -0.053023275 0.033856094 0.18050264 0.2484577
000370 26 63 81 be 01 1f 91 bc a3 42 1e 3d 50 31 3f be
       -0.25270957 -0.01771498 0.03863777 -0.18671155
000380 e0 5b e5 be bd 06 44 bd 49 e1 4b 3d 3f 5f ca bc
       -0.44796658 -0.04785799 0.049775396 -0.02470362
000390 a8 3d 3f 3e 75 cb 98 bb 41 79 94 3e 91 fe 22 3d
       0.18675864 -0.004662926 0.2899876 0.039793555
0003a0 3d f1 f4 be 23 c4 66 be b3 5e 3f 3c d6 e7 79 3e
       -0.478403 -0.22535758 0.011680293 0.24404845
0003b0 18 53 8c 3d a5 6d 58 3d 3f ba 43 3c 8b ae fa 3d
       0.068517864 0.05283894 0.01194626 0.12240323
0003c0 0f b8 44 3e 78 9c c4 3c 2a 03 01 be 58 1d 1f 3d
       0.19210838 0.024000391 -0.12598863 0.038846344
0003d0 06 12 29 bf d5 13 0d be 34 74 59 3d 9f 1d 66 3e
       -0.66043127 -0.13777097 0.053089336 0.22472237
0003e0 dd 97 5d 3d 09 be 06 3e 9f 71 36 bd 8c fa c3 bc
       0.054099906 0.1315843 -0.04454195 -0.023923181
0003f0 e5 25 91 bd 4b 4d 27 3e bc 86 2f 3e de a7 ae be
       -0.07087306 0.16338079 0.17141241 -0.34112448

hidden_layers.2.bias f4 [64]
000000 4d 7b 02 be 7d 7e 32 3f fa 3f 10 3e 22 5c 26 3f
       -0.12742348 0.69724256 0.14086905 0.64984334
000010 a1 76 ec bd f2 16 18 be 56 d0 51 3d be 01 f4 bb
       -0.11546064 -0.14852503 0.051224075 -0.0074464967
000020 29 06 1d be d5 a4 29 bd dc 6e 8e bd 92 77 09 be
       -0.15334381 -0.04141696 -0.069547385 -0.13424519
000030 e0 39 cd 3e af 82 89 be 10 8a 59 be 6c 9e 18 be
       0.40083218 -0.26857516 -0.21244073 -0.14904183
000040 13 d6 2d bd a0 44 8a bd 2b 4e 6a be 39 22 95 bd
       -0.042440485 -0.067513704 -0.22881381 -0.07281918
000050 8e 6d d5 bd 02 6f 10 bd a3 96 59 3c 6e 72 04 3e
       -0.104212865 -0.035262115 0.0132805435 0.12934276
000060 1f 0c 38 bd 3e 6b d0 bd ca 97 5d bd 79 be 35 3f
       -0.044933435 -0.10176705 -0.054099835 0.70993763
000070 fd 14 50 3f 09 79 10 3f 1c e1 20 3d b8 eb f4 3b
       0.81282026 0.56434685 0.03927718 0.007474389
000080 d4 49 f0 bd 58 32 cf bd 28 a2 aa bd 72 23 1b be
       -0.117328316 -0.10117024 -0.0833171 -0.1515024
000090 00 e5 93 bb e7 91 13 3d e8 2c e8 bd 6f d3 47 be
       -0.004513383 0.036027815 -0.1133669 -0.1951425
0000a0 8c 2c eb bd e2 43 e3 3e 6c 69 40 bd 40 9d 30 3d
       -0.11483106 0.44387728 -0.046975538 0.043118715
0000b0 4a 05 9b 3e 7f cc 5b 39 00 02 fc 3c aa 3e 1c be
       0.30277473 0.00020961648 0.030762672 -0.1525828
0000c0 03 fa 18 be 6e 9a 27 3c 99 ce 1c 3e a4 23 76 3e
       -0.14939122 0.01022969 0.15313186 0.24037033
0000d0 e3 45 37 be b9 fa 3d bc 9a f5 9e be b4 5c f0 bc
       -0.17897753 -0.0115954215 -0.31046754 -0.02934108
0000e0 fd 17 ec 3d 8d 52 8f 3d f0 80 89 3e 30 26 b4 bd
       0.11528013 0.06998167 0.26856184 -0.08796346
0000f0 e4 be 83 bd cf 31 33 3f 61 8d d9 3b 53 89 a1 3c
       -0.06432894 0.69997877 0.006639168 0.019718802

output.weight f4 [4, 64]
000000 de 67 55 3d d6 15 65 be 39 e1 06 3d 88 ec 82 bd
       0.05210101 -0.22371611 0.032929633 -0.06392771
000010 e7 e2 30 3e ee 8d c2 bd 25 22 89 3e 1f c1 ce be
       0.17274056 -0.09499727 0.26783863 -0.40381715
000020 c6 8c cf 3e b0 7d 24 bd 0e a0 26 3d dc 50 d8 bc
       0.4053709 -0.040158927 0.040679984 -0.026405744
000030 04 e0 bb bd 66 08 11 3e 50 36 73 bd 35 04 38 3e
       -0.09173587 0.1416336 -0.05937797 0.17970355
000040 3c a3 f1 be 41 ae 91 3d ab ad ed be ad ff 3e 3e
       -0.4719485 0.071133144 -0.4642156 0.1865222
000050 d3 28 00 3e 30 31 49 be d9 67 55 be e3 6e 2b be
       0.12515573 -0.1964767 -0.20840396 -0.16741519
000060 71 c6 ef be d0 c4 ab bc d9 e1 7e bd 72 43 ae bd
       -0.46831086 -0.020967871 -0.062227104 -0.08508958
000070 78 83 10 be 5a bc dd bd 07 e5 2c 3d 16 d3 56 bd
       -0.14112651 -0.10826941 0.042210605 -0.0524474
000080 91 06 12 be 9c 8f 28 bd f2 96 a6 3a 4e 06 e8 bd
       -0.14260317 -0.04115258 0.001270978 -0.113293275
000090 9a ac 16 be c2 06 0d 3e e6 f7 e2 bd 0a 86 cb be
       -0.1471428 0.13772109 -0.11082439 -0.397507
0000a0 92 64 7b bd 70 a9 5d bd 6d 5f 0c 3e 8d 4d 5d bf
       -0.06137521 -0.054116666 0.13708277 -0.8644646
0000b0 91 a4 ae 3d 96 0f 0f 3f 0c 57 01 be 33 b5 d8 bd
       0.08527482 0.5588316 -0.12630862 -0.10581436
0000c0 cd 1f 42 bf e6 3a 3a 3d f8 d6 4b bf 44 f9 b9 bc
       -0.75829774 0.045466326 -0.7962489 -0.022701867
0000d0 05 7e 90 3e a7 ab 35 3e d7 72 0f be 16 f1 10 3e
       0.28221145 0.17741261 -0.14008652 0.14154467
0000e0 9a b4 7a bf db 87 08 3e 96 d1 30 3d 2d f9 40 3d
       -0.97931826 0.13333075 0.043168627 0.047112633
0000f0 bb bd fa be 31 ca 96 3c 11 18 23 bf 12 ef e7 3d
       -0.48972878 0.01840696 -0.637086 0.11324896
000100 84 34 8e 3d d0 03 68 bc ea 16 dd 3b ab 2e 3e be
       0.0694361 -0.014161065 0.0067471163 -0.1857249
000110 40 68 f3 bd 9c 33 a4 bd 36 3b d8 bb bb 89 e1 bc
       -0.118851185 -0.08017656 -0.0065988554 -0.027531495
000120 c1 e6 41 3e b2 cf f3 3d c3 56 43 3e 4a 41 c1 bd
       0.18935682 0.11904849 0.19076066 -0.09436281
000130 b6 19 6d 3c 90 21 e4 3e 14 93 81 be 06 7a 2b 3e
       0.014471462 0.44556856 -0.25307524 0.16745767
000140 ca 82 9f 3c 23 79 d2 bd 49 bf b2 bc c0 8b eb 3e
       0.019471545 -0.10277011 -0.021819727 0.46005058
000150 70 a1 44 be aa 7e 67 3e 1f 21 c6 3d f0 e7 c6 bd
       -0.19202209 0.22606912 0.09674286 -0.09712207
000160 29 e5 d4 3e e6 91 cf bd c7 98 5b 3d 2a bb 59 be
       0.41581085 -0.1013525 0.053612497 -0.21262804
000170 5d ef c7 bc 0b c7 48 bd 76 91 57 bd 0b 19 28 be
       -0.02440613 -0.049017947 -0.052628957 -0.16415803
000180 e0 f0 d3 3d ba 82 ad bd 77 35 94 bd 84 58 c2 bd
       0.10348678 -0.084722 -0.0723676 -0.09489539
000190 ce e3 f4 3d 43 54 82 bc 9d 80 05 be 46 dc aa 3e
       0.11957513 -0.01590932 -0.13037343 0.3337118
0001a0 59 c8 cd bd 09 8b ca 3b 08 e5 1a 3e bf 15 2e 3f
       -0.10047979 0.006181125 0.15126431 0.6800193
0001b0 fd 6f 2a 3e 88 dc 05 bf cd e8 fa 3c df 98 31 3e
       0.16644283 -0.5228963 0.030628586 0.17343472
0001c0 4a 7c 96 be 28 a8 8e 3e f5 21 e6 3e 7f 8e 38 3e
       -0.293917 0.27862668 0.44947782 0.18023108
0001d0 29 ec 9e be 87 e1 58 3e 47 97 04 bd 64 84 1e 3e
       -0.3103955 0.21179782 -0.03237083 0.1548019
0001e0 c0 96 c0 3e 8b 3c 30 bd 02 25 59 3d 22 9a 85 bd
       0.37615013 -0.04302649 0.05301381 -0.06523539
0001f0 6e bc 13 3e 71 3d 1a 3d ae 6c 26 3f 0b 08 23 bc
       0.14427349 0.03765625 0.6500958 -0.009950648
000200 19 8e e0 bb 25 85 f7 bd 0f 24 21 be 73 6e 37 3d
       -0.006852877 -0.12085942 -0.15736412 0.044783067
000210 be 8d d2 ba ee c1 cc bd ac bf 5b bc 64 b5 fb bd
       -0.0016063971 -0.09997927 -0.013412397 -0.12290457
000220 99 15 42 be 63 f3 db be b5 81 ea be ab 1c 35 be
       -0.18953551 -0.42959127 -0.45802084 -0.17686717
000230 32 ce cf bc 21 c4 c8 be 67 b1 01 3d b3 5e 29 bf
       -0.025366876 -0.39212134 0.031663325 -0.66160125
000240 4d c2 9d 3e b2 e4 3e 3d f0 fa c0 3e b6 b0 df be
       0.30812302 0.04660482 0.3769145 -0.43689507
000250 92 d2 e8 3e 76 b5 10 3f 4f ae 31 bf f5 0c e8 bc
       0.45473152 0.5652689 -0.694066 -0.02832649
000260 99 8d 91 bd c9 0f a8 bc 33 3e 5d 3e 87 0b 44 be
       -0.07107086 -0.02051534 0.21605758 -0.19145022
000270 d3 60 71 bd b8 9b 76 be 28 49 52 bb 34 60 53 3e
       -0.05893023 -0.2408284 -0.0032087062 0.20642167
000280 3e 06 9a 3d 62 bf 9f 3d f9 27 1d 3d 13 63 a5 3d
       0.07520722 0.07800175 0.0383682 0.080755375
000290 0f 0e a4 3e 2a 93 60 bc c0 81 a8 be 65 5c 27 ba
       0.32041976 -0.013706962 -0.3291149 -0.00063843123
0002a0 d6 a4 0d bd 25 78 89 bd da 39 68 3f 7f 7a d6 bd
       -0.034581028 -0.06712369 0.90713274 -0.10472583
0002b0 72 ee 83 be a5 64 7e bd 5f 0a 0b 3c f6 fa 27 3d
       -0.25767857 -0.0621077 0.008486359 0.04101082
0002c0 2c 8d 7e 3e 42 a4 f6 be 95 36 98 bd 97 b9 c0 3d
       0.2485854 -0.48172194 -0.07432286 0.094103985
0002d0 9c d4 00 3d 09 fc 90 be 53 a8 5b 3e 7a f3 bb 3d
       0.03145276 -0.28317288 0.2145093 0.09177299
0002e0 1d 98 95 3e 2c 66 52 be f6 9d d3 3d 09 d9 d7 bd
       0.29217616 -0.20546788 0.10332863 -0.10539443
0002f0 a2 6d 36 3f 60 bd b9 bd 94 3c 92 bd 8f 3c 68 be
       0.71261036 -0.090693235 -0.071404606 -0.22679351
000300 e9 bc a8 3d 14 88 77 bc 90 c3 fc 3d 6e 4a 83 be
       0.08239157 -0.015108127 0.12341988 -0.25642723
000310 8d eb f8 bc 78 df 4a 3e 9b f0 07 3e 6a b3 f1 bd
       -0.030385757 0.19811809 0.13275377 -0.11801799
000320 91 3d 16 bf 8a 2e 2a bf d8 e9 1b 3e 4c 73 e7 3e
       -0.5868769 -0.6647726 0.15225923 0.45205152
000330 8e 83 d6 bd 1a e2 ea be 06 61 56 bd f7 b6 0d bf
       -0.10474311 -0.45875627 -0.052338623 -0.5535731
000340 4b c7 a6 3d 79 0a 5d 3d 52 f0 ed 3e fe d2 86 bd
       0.08143481 0.053965066 0.46472412 -0.06583212
000350 67 78 05 3e d7 22 0c be 47 ae 69 bb b1 30 bf 3d
       0.13034211 -0.13685165 -0.0035656856 0.09335459
000360 92 f8 ac be 00 60 e3 3c a2 c2 90 be 70 c3 8b 3b
       -0.33783394 0.027755737 -0.28273493 0.0042652413
000370 10 ce 17 bc e6 7c 87 be 6c 7e 7d 3c 9e 78 71 be
       -0.009265438 -0.26462477 0.015472036 -0.23581168
000380 8b b3 2f be 8b 80 7d 3d fa cf 14 be a7 a9 15 3e
       -0.17158334 0.061890166 -0.14532462 0.14615498
000390 bd 0d 0c be 66 84 09 be 95 2e 13 3e 31 7b 57 3e
       -0.13677116 -0.13429412 0.14373238 0.21043088
0003a0 24 66 0d be 9c e9 da bc 4e a2 52 bf 47 d7 8a 3e
       -0.13808495 -0.026722722 -0.8227891 0.2711737
0003b0 fa 29 d9 bd f2 3c 90 bd 6a 05 35 be 96 60 ed 3d
       -0.106037095 -0.070428744 -0.17677847 0.11590688
0003c0 84 04 9a 3e 5e 61 1d 3e 19 f3 8d bd e4 42 77 be
       0.3008157 0.15369174 -0.06931133 -0.2414661
0003d0 d3 13 b4 3e 6a d6 80 be e2 1c ca be 8d 47 50 be
       0.35171375 -0.25163585 -0.3947516 -0.20339794
0003e0 87 5a 44 3f b4 16 a5 3d 9a b4 17 3e c8 a5 b1 be
       0.76700634 0.08060971 0.14814988 -0.34696794
0003f0 30 58 bb bb 57 57 53 3d 05 70 0f be 1e 72 49 3e
       -0.0057173 0.051596966 -0.14007576 0.19672439

output.bias f4 [4]
000000 f3 9c 3c 3e 6c 58 9f be 0a 2f ac bc 2a 61 3d be
       0.18419246 -0.31122148 -0.021018524 -0.18494096

state_value.weight f4 [1, 64]
000000 3e be 31 3d 51 10 9b 3e fc ee 00 3d 5d 0d a9 3e
       0.04339432 0.30285886 0.031477913 0.33018008
000010 ba 85 0e 3e 54 42 a4 3d 9f cc 17 3e 54 8c 33 3e
       0.139182 0.080204636 0.1482415 0.17534
000020 fb 9e 9b be f2 c3 ab be 06 92 1e 3d 81 a6 36 be
       -0.3039473 -0.33547932 0.038713478 -0.17836954
000030 f8 12 76 3e 45 20 d2 bd 38 03 9c be e8 c1 97 bc
       0.24030674 -0.10260061 -0.30471206 -0.018525079
000040 f3 ce b0 bd 26 54 72 bd 99 f7 32 be 9c 56 ee be
       -0.086332224 -0.05916228 -0.17477264 -0.46550453
000050 ed 2d 3d 3e ad 07 87 3e 36 ec a6 be 3a 30 12 3e
       0.1847455 0.26373044 -0.3260209 0.1427621
000060 c6 49 39 bf 9c 99 98 bc 59 22 9f 3e 8c 8a aa 3e
       -0.72378194 -0.018627934 0.31080893 0.33308828
000070 e7 80 be 3e ee 33 64 3e 78 ff 71 3e 8f bc a7 be
       0.3720772 0.22285435 0.2363261 -0.32761046
000080 58 62 11 3e 73 f8 4a bd e1 e2 f8 3d 85 15 d2 be
       0.14197671 -0.049553346 0.12152649 -0.41032043
000090 b4 92 77 be 3b 05 0b 3e a2 73 ba be 7d 47 bd be
       -0.24177057 0.13576214 -0.36416346 -0.36968604
0000a0 89 02 54 3d 4b 9b 4e 3e 11 ef b1 bc 1c 27 eb be
       0.05176023 0.20176427 -0.021720441 -0.45928276
0000b0 1e 35 85 3d 9c e2 73 be 0a 58 a5 3d 95 fb fa 3d
       0.06504272 -0.23816913 0.08073433 0.12255017
0000c0 ef 79 2d be fb a1 8a 3d b1 7d 29 bf a8 09 ef 3d
       -0.16941045 0.067691766 -0.66207415 0.11671764
0000d0 58 4a 10 be 6a e9 a3 bd 08 02 1f be 2d 9f c0 3c
       -0.1409086 -0.080035046 -0.15528119 0.0235134
0000e0 e7 d2 a3 be 46 02 71 3e b9 62 16 3e 3c 36 12 bf
       -0.31996843 0.23536023 0.14686097 -0.57114005
0000f0 86 c4 a3 be 7a 77 a9 3e 34 0b 34 bf b3 ad 3d 3e
       -0.31985873 0.33098966 -0.70329595 0.18523292
